ckpt/it0050000.pth (torch, 715079 bytes, 10 tensors)

policy_head.linear_1.weight f4 [256, 81]
0	0xbdc086a0	-0.09400678
1	0xbec92158	-0.39283252
2	0x3e2419d6	0.1602548
3	0xbe1bd780	-0.15218925
4	0xbebb499f	-0.36579606
5	0xbde5afab	-0.11215147
6	0xbeaa1e8d	-0.33226433
7	0x3e91b2ad	0.2845663
8	0x3e000fdf	0.12506054
9	0x3f0559b6	0.52090013
10	0x3e1686ac	0.1469981
11	0xbdcb4f6c	-0.09927258
12	0x3eac6d7c	0.3367728
13	0xbe5942fe	-0.21216962
14	0x3d23a816	0.03995522
15	0xbd0dec38	-0.034649104
16	0x3e4de360	0.20106268
17	0x3b960ce7	0.004579175
18	0xbe4fd3ee	-0.20295689
19	0x3e42118a	0.18952003
20	0xbe9dec68	-0.30844426
21	0xbdcc3f89	-0.09973056
22	0x3eae1d43	0.340067
23	0xbe31a523	-0.17348151
24	0x3ecd3b96	0.40084523
25	0x3e0ccf17	0.13750874
26	0x3e250e81	0.16118814
27	0x3f1723b1	0.59038836
28	0xbd3f76a8	-0.04674402
29	0xbe32f567	-0.17476426
30	0xbe65c92a	-0.22440019
31	0xbda92de1	-0.08260704
32	0x3e83b43c	0.25723445
33	0x3ece1698	0.40251613
34	0x3e9b222f	0.30299518
35	0x3e273ce1	0.16331817
36	0x3e954622	0.2915507
37	0xbcf61ed9	-0.030044006
38	0x3eb7cacd	0.35896912
39	0xbf012125	-0.504412
40	0xba0afc21	-0.00053018524
41	0xbcd20e6f	-0.025641648
42	0x3e24404c	0.16040152
43	0x3df803e0	0.12110114
44	0x3c592817	0.013254187
45	0xbc92e5e5	-0.017931888
46	0xbe218f20	-0.15777254
47	0x3e3be4d0	0.18349004
48	0xbe832e27	-0.2562115
49	0xbd34fc67	-0.044186022
50	0xbe011df5	-0.12609084
51	0xbdbc8d60	-0.09206653
52	0xbb42bc7b	-0.0029714394
53	0xbd982186	-0.07428269
54	0xbda91357	-0.08255642
55	0x3e9469b3	0.28986892
56	0xbe9302e8	-0.28713155
57	0xbc8df1d6	-0.01732723
58	0xbe6a5ff3	-0.22888164
59	0xbe82bc9a	-0.25534517
60	0xbe558614	-0.20851928
61	0xbec75e0c	-0.3893894
62	0x3e425165	0.18976362
63	0x3e8514a1	0.259923
64	0x3d3716dc	0.044699535
65	0xbeb27121	-0.34851936
66	0xbd4c6c9d	-0.04990827
67	0x3db3239c	0.08747026
68	0xbbbad226	-0.005701321
69	0xbd3f336a	-0.04667989
70	0x3d45df33	0.048308562
71	0x3e2849b4	0.16434366
72	0xbd550d2e	-0.052014522
73	0x3e42d5bb	0.19026844
74	0xbe7535fa	-0.23946372
75	0x3e234614	0.15944701
76	0x3dbc18f0	0.09184444
77	0xbd0ab2d5	-0.033861954
78	0x3f0cc6c1	0.54990774
79	0xbdfb0472	-0.12256707
80	0xbe4e8c86	-0.20170793
81	0xbc409670	-0.011754617
82	0xbe237b8b	-0.15965097
83	0xbe994041	-0.29931834
84	0x3ed50bf1	0.41610673
85	0x3ee7ee7b	0.45299134
86	0xbe751af9	-0.2393607
87	0xbd00fbd4	-0.031490162
88	0xbdff6853	-0.1247107
89	0x3f246d5f	0.6422939
90	0xbec0d14c	-0.3765968
91	0xbee951ab	-0.4557012
92	0x3da1a8bc	0.07893512
93	0xbdb783bc	-0.08960673
94	0x3d9abc8d	0.075554945
95	0xbea78a98	-0.32722926
96	0x3f187ff1	0.59570223
97	0xbe27325a	-0.16327801
98	0x3e4e10a7	0.2012354
99	0xbdb61051	-0.08889831
100	0x3e0cd108	0.13751614
101	0x3eb7d5f0	0.3590541
102	0xbebccc87	-0.36874792
103	0xbe825917	-0.25458595
104	0xbdb64380	-0.08899593
105	0x3e2d58d0	0.1692841
106	0xbe559ebd	-0.20861335
107	0x3cd02595	0.025408546
108	0xbe463466	-0.19355926
109	0xbe54241a	-0.20716897
110	0x3db3acce	0.08773194
111	0xbeeb0f4b	-0.45910105
112	0x3ec8c7f7	0.3921506
113	0xbedff75b	-0.43743405
114	0xbe4cbf06	-0.19994745
115	0x3cd4ad09	0.025961416
116	0xbeb009dd	-0.34382525
117	0x3da3b19b	0.0799286
118	0xbe669537	-0.22517858
119	0x3e2de706	0.1698266
120	0x3d79c56d	0.060979296
121	0xbd913498	-0.070901096
122	0x3da9fdc8	0.08300358
123	0xbe2ed85e	-0.17074725
124	0xbde28ab3	-0.11061611
125	0xbd87a4f3	-0.066232584
126	0xbd111b09	-0.035426173
127	0xbe79a106	-0.24377832
128	0x3d2bac60	0.041912436
129	0x3e71754c	0.23579901
130	0xbdf108d8	-0.11769265
131	0xbdafc1d7	-0.08581894
132	0x3d4eefcb	0.050521653
133	0xbdeadd59	-0.11468
134	0xbdbc6d74	-0.09200564
135	0x3ee2b3f5	0.4427792
136	0xbef388a1	-0.47565177
137	0xbedfec3b	-0.43734917
138	0x3d49f304	0.049304023
139	0x3e2c57d4	0.16830379
140	0x3e275afb	0.163433
141	0xbea52521	-0.3225489
142	0x3cf2a0f2	0.02961776
143	0xbe772f34	-0.241391
144	0x3aedefc3	0.001815312
145	0xbdbc52ad	-0.09195457
146	0x3e04642f	0.12928842
147	0xbbd7dee6	-0.006587851
148	0x3d3f51a1	0.046708707
149	0xbd86f7fd	-0.06590269
150	0xbd3dbac7	-0.046320703
151	0x3e9544a5	0.29153934
152	0xbd2a0d5c	-0.041516647
153	0xbe0dffa8	-0.13867056
154	0xbed67cca	-0.41892081
155	0xbd6eddb1	-0.05831689
156	0x3e7b594d	0.24545784
157	0xbd83dc7a	-0.06438537
158	0x3c9c7cf8	0.019102558
159	0xbe97add9	-0.29624823
160	0xbd31b05c	-0.04338108
161	0xbe2e31fe	-0.17011258
162	0x3dcbf39b	0.099585734
163	0xbee6219d	-0.4494752
164	0xbe83a2d4	-0.25710166
165	0x3e821056	0.25403088
166	0x3e7473ce	0.23872301
167	0xbe337b12	-0.17527416
168	0xbe184f82	-0.1487408
169	0xbe9f206c	-0.31079423
170	0xbe11e5d9	-0.14247836
171	0xbe79ce5d	-0.24395128
172	0xbdeb2e06	-0.11483388
173	0xbdd05923	-0.101732515
174	0x3e85fa2b	0.26167426
175	0xbe0d43da	-0.13795415
176	0xbd92e276	-0.071721
177	0x3e1fae16	0.15593752
178	0xbe30a75c	-0.17251343
179	0xbc3e6bc3	-0.011622372
180	0xbe986965	-0.2976791
181	0x3ebdeb86	0.37093753
182	0x3dd79f84	0.10528472
183	0x3eaa573f	0.33269688
184	0xbea3a62a	-0.3196271
185	0x3df6dfd8	0.120544136
186	0xbe66581e	-0.22494552
187	0x3d724ed0	0.059157193
188	0x3e91ed4a	0.2850135
189	0x3e63d82d	0.22250433
190	0x3e3cdf25	0.18444498
191	0xbe7e73de	-0.24848887
192	0x3e3a7e3a	0.18212214
193	0x3e4a096b	0.19730155
194	0xbe06ebdd	-0.13175912
195	0x3e72e0a5	0.23718508
196	0x3d82018a	0.0634795
197	0x3e24b0b9	0.1608304
198	0x3edcc03d	0.43115416
199	0x3afa1d4a	0.0019082215
200	0x3cfbaf94	0.03072337
201	0x3abbf0d6	0.0014338742
202	0xbd92abb8	-0.07161659
203	0x3d9f170f	0.0776807
204	0x3ea21345	0.31655326
205	0x3cc29973	0.02375481
206	0xbe2711d9	-0.16315402
207	0xbe1df2d7	-0.15424667
208	0x3dfbc622	0.1229365
209	0x3eab6505	0.3347551
210	0x3e55de24	0.20885521
211	0xbdc6697d	-0.09688089
212	0x3d33241e	0.043735616
213	0xbe386d79	-0.1801051
214	0x3df8775c	0.12132141
215	0x3da03a71	0.07823647
216	0x3d998ddd	0.074977614
217	0x3db45138	0.08804554
218	0x3e1f1e30	0.1553886
219	0xbe50e894	-0.20401222
220	0x3dc241ad	0.09485183
221	0xbeab6194	-0.33472884
222	0xbdda9c45	-0.10674337
223	0x3dab139b	0.08353349
224	0xbe7646d0	-0.2405045
225	0x3eb25fca	0.34838706
226	0x3e18eaae	0.14933273
227	0x3e3a291d	0.18179746
228	0xbe80cc1b	-0.2515572
229	0x3caaa79f	0.020831881
230	0xbce8a316	-0.028398078
231	0x3d9e79cc	0.07738075
232	0xbd0f1cd8	-0.034939617
233	0x3d5bbc65	0.053646464
234	0xbd0f7261	-0.03502119
235	0x3e6a3c69	0.22874607
236	0x3e333bdb	0.17503302
237	0x3e01e3fe	0.12684628
238	0x3cb6e434	0.022325613
239	0x3e1ebc79	0.15501584
240	0x3daeb890	0.08531296
241	0x3beddeac	0.0072592106
242	0xbdc1d380	-0.094641685
243	0x3d245c2a	0.040126957
244	0xbd574981	-0.052560333
245	0xbec9edc2	-0.39439207
246	0x3f4aed26	0.7926811
247	0xbd6db548	-0.05803421
248	0x3e6bcace	0.23026583
249	0x3e9eed0b	0.31040224
250	0x3ef9dc1d	0.48800746
251	0x3e6ef08b	0.23333947
252	0xbefade54	-0.48997748
253	0xbd5e19e5	-0.054223914
254	0x3f1636ec	0.58677554
255	0xbe22f395	-0.15913232

policy_head.linear_1.bias f4 [256]
0	0x3eb9f603	0.36320505
1	0xbed1f7ed	-0.41009465
2	0x3e874210	0.2641759
3	0x3efbc87d	0.49176398
4	0x3e7221d9	0.23645724
5	0xbec8e378	-0.39236045
6	0x3ec28fa6	0.3800022
7	0x3cf91dec	0.030409776
8	0x3ea865e9	0.3289025
9	0x3e91f1b3	0.28504714
10	0xbe7d506c	-0.2473771
11	0x3e2ac70b	0.16677491
12	0x3d0cb9cd	0.03435688
13	0xbc3aa6d1	-0.011392311
14	0xbec06c63	-0.37582693
15	0x3ecb6793	0.39727458
16	0x3da3f0cd	0.080049135
17	0x3cdaffec	0.026733361
18	0xbeb77712	-0.3583303
19	0xbce07a05	-0.027401933
20	0x3eace62d	0.3376936
21	0xbe2c0e7d	-0.16802402
22	0x3e0b63b1	0.13612248
23	0xbea43676	-0.320728
24	0x3e760b09	0.24027647
25	0xbe65b3fc	-0.2243194
26	0x3e9e1f57	0.30883285
27	0xbd1beafa	-0.038065888
28	0x3ec8ba52	0.3920465
29	0x3cbde799	0.023181723
30	0x3db78af2	0.089620486
31	0xbe83cb70	-0.25741148
32	0xbf113473	-0.56720656
33	0xbe925d84	-0.28586972
34	0xbee4cfdc	-0.44689834
35	0xbe61471d	-0.21999784
36	0x3e089862	0.1333938
37	0x3e22b94e	0.15891
38	0xbed9c738	-0.42534804
39	0xbde0388d	-0.10948286
40	0xbeaa4833	-0.3325821
41	0xbefa3686	-0.48869723
42	0xbec59bc1	-0.38595393
43	0xbe458214	-0.19287902
44	0x3e896033	0.26831207
45	0x3f062dd0	0.52413654
46	0xbe472bfa	-0.1945037
47	0x3da15add	0.07878659
48	0xbe34e485	-0.17665298
49	0x3e1a874d	0.15090676
50	0x3e8b0d8d	0.27158776
51	0xbe17d71d	-0.14828153
52	0x3e77fbca	0.24217144
53	0x3e25de91	0.16198184
54	0x3ccb971a	0.024852324
55	0xbdf4d1da	-0.119540885
56	0xbdd30a34	-0.103046805
57	0x3eb12e38	0.34605575
58	0xbe5076bc	-0.20357794
59	0x3e0b9d5b	0.13634245
60	0xbda7c02e	-0.08190952
61	0x3eb32052	0.34985596
62	0xbe820e3d	-0.25401488
63	0xbe5505a4	-0.20802933
64	0xbd67a1f9	-0.056550954
65	0x3dd1cb0d	0.10243807
66	0x3e3c53e5	0.18391378
67	0xbec7b107	-0.3900225
68	0xbb82e43f	-0.003994494
69	0xbef53f98	-0.4790008
70	0x3e47c375	0.19508155
71	0xbef5e57f	-0.48026654
72	0xbe8b035b	-0.27150998
73	0x3ed217a0	0.4103365
74	0xbed85934	-0.42255557
75	0xbe630bcb	-0.22172467
76	0x3e8c1b1f	0.27364442
77	0xbf193cf9	-0.5985866
78	0x3e814dcf	0.25254676
79	0x3e0120fb	0.12610237
80	0xbe5a9a3d	-0.213479
81	0xbd10599b	-0.035241704
82	0x3e434b6c	0.1907174
83	0xbe4220b6	-0.1895779
84	0xbecad2bd	-0.39613906
85	0x3e9410ed	0.28919163
86	0xbe7a685d	-0.24453874
87	0xbea71cda	-0.326392
88	0xbe14834d	-0.14503212
89	0xbe833fe3	-0.2563468
90	0xbe2da298	-0.16956556
91	0xbe7a9747	-0.2447177
92	0x3edd1f0f	0.43187758
93	0x3db7156b	0.08939632
94	0xbe999b8f	-0.30001494
95	0x3e49bc49	0.19700731
96	0x3e1a868c	0.15090388
97	0xbed51b00	-0.41622162
98	0x3d4f4027	0.05059829
99	0x3e3c0d8e	0.18364546
100	0x3e83dbbd	0.25753585
101	0x3cd68de8	0.026190713
102	0xbd7905cf	-0.060796555
103	0x3d7996a0	0.060934663
104	0x3ec84c2e	0.3912062
105	0xbe368a45	-0.17826183
106	0x3dc2dda2	0.09514929
107	0xbddea325	-0.10870961
108	0xbdd2c0f7	-0.102907114
109	0x3d0cc11a	0.034363844
110	0xbd7e6fa2	-0.06211818
111	0x3daae8fa	0.08345218
112	0x3dfcf9a5	0.123523034
113	0xbcf89ac4	-0.030347236
114	0x3c2ee082	0.010673644
115	0x3da5b9a9	0.080920525
116	0x3cb8b1fd	0.022545809
117	0xbcebadb8	-0.028769359
118	0xbe93aa63	-0.28840932
119	0x3e695a00	0.22788239
120	0xbeb689b0	-0.35651922
121	0x3e7cb822	0.24679616
122	0xbe5c8dfe	-0.2153854
123	0x3e9db335	0.30800787
124	0x3d636669	0.055517588
125	0x3e52b7ed	0.20577975
126	0x3e5e8771	0.21731354
127	0xbe1858e3	-0.14877658
128	0xbd13199b	-0.03591309
129	0xbe57ee8a	-0.21087089
130	0xbe51c427	-0.20484982
131	0x3e8127ad	0.25225583
132	0x3d762772	0.06009621
133	0x3e47352f	0.19453882
134	0x3ec9bcef	0.39401957
135	0x3de1c4f1	0.11023892
136	0x3e08264b	0.13295858
137	0x3e48bacb	0.19602506
138	0xbf025bc0	-0.5092125
139	0x3de10826	0.10987882
140	0xbe125cdf	-0.1429324
141	0x3de9be94	0.11413303
142	0x3e9c354a	0.30509406
143	0xbde8e8ec	-0.11372551
144	0xbe3cc591	-0.1843474
145	0xbe4ed094	-0.20196754
146	0xbeab66f3	-0.33476982
147	0xbdf8e324	-0.12152699
148	0xbea2435c	-0.31692016
149	0xbb9d1838	-0.004794147
150	0x3ed521de	0.416274
151	0xbe1f62ec	-0.1556508
152	0x3e475adc	0.19468254
153	0x3e9b6e60	0.30357647
154	0x3e421113	0.18951826
155	0xbe222e95	-0.15838082
156	0x3e6dba12	0.23215511
157	0x3d563d67	0.05230465
158	0xbdd70397	-0.104987316
159	0xbd83cedc	-0.0643594
160	0xbdcf3e87	-0.10119348
161	0x3e0eca32	0.13944319
162	0xbc498f4a	-0.012302229
163	0xbe58739c	-0.21137851
164	0x3ea89393	0.3292509
165	0xbea121b1	-0.31471017
166	0x3eec0fbc	0.46105754
167	0x3d92c3da	0.07166262
168	0x3ed7800f	0.42089888
169	0xbe33439c	-0.1750626
170	0xbf06c57a	-0.52645075
171	0x3ce0624f	0.027390627
172	0x3dd23f8d	0.102660276
173	0x3d3f66ae	0.046728782
174	0xbed0eee7	-0.40807268
175	0xbee03660	-0.43791485
176	0xbe0c374e	-0.13692972
177	0xbdc7b4b9	-0.09751267
178	0x3e6c3719	0.23067893
179	0x3db450b6	0.08804457
180	0x3b99e826	0.0046968637
181	0x3cc849d0	0.024449259
182	0x3e34e334	0.17664796
183	0x3f09fc3d	0.5390051
184	0x3e82b18f	0.2552609
185	0xbecd4a3a	-0.40095693
186	0x3db3ddcf	0.08782541
187	0x3e6c84e3	0.23097567
188	0xbe82246c	-0.25418413
189	0xbe4f9d39	-0.2027482
190	0x3e2114a0	0.15730524
191	0xbe4b8865	-0.19876249
192	0xbf001858	-0.50037146
193	0xbec2883a	-0.37994558
194	0x3c431a3f	0.011908113
195	0x3e969d9a	0.29417115
196	0x3df48988	0.119402945
197	0xbd03f1c7	-0.032213
198	0x3ecde880	0.40216446
199	0xbdc069ef	-0.09395205
200	0x3f0a07a0	0.53917885
201	0x3d5d6037	0.054046836
202	0x3e91abb3	0.2845131
203	0x3ea69b3c	0.3254031
204	0xbe68b33d	-0.22724624
205	0xbcf2553e	-0.029581662
206	0xbe9b3b1c	-0.30318534
207	0xbd5c2ca7	-0.05375352
208	0x3d12b0f7	0.035813298
209	0x3b85f8d6	0.0040885014
210	0xbe8dcfa3	-0.27697477
211	0x3e43f0be	0.19134805
212	0x3ed05466	0.4068939
213	0xbe8e5603	-0.27799997
214	0xbe350dfc	-0.17681116
215	0x3eccb600	0.39982605
216	0xbe246cb2	-0.16057089
217	0xbe82879e	-0.25494093
218	0xbe5a5b03	-0.2132378
219	0x3e68e3f8	0.22743213
220	0xbda385dd	-0.07984517
221	0x3e12bc77	0.14329706
222	0x3e54a577	0.20766245
223	0xbee9e808	-0.45684838
224	0x3f067191	0.5251704
225	0xbe85fda2	-0.2617007
226	0x3e400cc5	0.18754871
227	0x3d8f8737	0.07008212
228	0x3df8e2f3	0.12152662
229	0xbd489c5e	-0.04897725
230	0x3e8c1baf	0.2736487
231	0x3ed1156d	0.4083666
232	0xbe4e280a	-0.20132461
233	0x3ee598de	0.4484319
234	0xbd86c389	-0.06580264
235	0xbe486150	-0.19568372
236	0xbdedad31	-0.11605299
237	0x3db2b234	0.08725396
238	0xbe1d779d	-0.1537766
239	0xbe7cdffc	-0.24694818
240	0x3edf8eee	0.43663734
241	0x3ea1c4b7	0.31595394
242	0xbf09025c	-0.53519225
243	0xbcf37b76	-0.029721957
244	0xbd09c5f8	-0.033636063
245	0xbcc9cb0a	-0.02463295
246	0x3e2437a0	0.16036844
247	0xbdeceb64	-0.11568335
248	0xbe4a84bc	-0.19777197
249	0x3e726e04	0.2367478
250	0x3ddf01f6	0.10889046
251	0xbe186418	-0.14881933
252	0xbe21690f	-0.15762733
253	0x3e8354f9	0.25650766
254	0x3d8460cf	0.06463777
255	0xbb3c6b9c	-0.0028750664

policy_head.pos_embed.weight f4 [256, 1]
0	0x3e1a3d45	0.15062435
1	0x3e4c603e	0.19958588
2	0x3d83b11e	0.06430267
3	0xbe943581	-0.2894707
4	0xbe81dbd2	-0.25363022
5	0x3d9c44d0	0.076303124
6	0xbe3a9c42	-0.1822367
7	0x3e040d6d	0.12895747
8	0xbdd82efe	-0.10555838
9	0x3eaa0fa0	0.33215046
10	0xbea360a1	-0.3190966
11	0x3e418e16	0.18901858
12	0x3ebd373c	0.36956203
13	0x3ebdc6b0	0.3706565
14	0xbc5cc1b8	-0.0134739205
15	0x3dc8a016	0.09796159
16	0xbebfefbc	-0.3748759
17	0xbdc5b139	-0.09652943
18	0x3d80b28c	0.06284055
19	0x3e85decc	0.26146543
20	0xbe8c382c	-0.27386606
21	0xbeb7eb26	-0.35921592
22	0x3ecac4a6	0.39603156
23	0x3e28b538	0.1647538
24	0x3e82eb9e	0.25570387
25	0x3d5456c6	0.051840566
26	0x3d3af561	0.045644168
27	0x3df91050	0.121613145
28	0x3e24928f	0.16071533
29	0x3dae79a7	0.08519297
30	0xbe703c68	-0.23460543
31	0xbcc13b1b	-0.023587754
32	0x3e2a3b86	0.16624269
33	0x3eb004c8	0.34378648
34	0x3e8b9c28	0.27267575
35	0xbe558ec5	-0.20855244
36	0x3c7f89d3	0.015596825
37	0x3ea9a1e4	0.33131325
38	0x3de34f29	0.11099083
39	0xbd89ae50	-0.067227006
40	0x3e68653d	0.2269487
41	0x3e15dbe1	0.14634658
42	0x3deb2dba	0.11483331
43	0x3ecb2a1c	0.39680564
44	0x3e0ed1c0	0.13947201
45	0xbdb96c0c	-0.090538114
46	0xbe92e1bb	-0.28687844
47	0xbe516728	-0.20449507
48	0xbc84cfb0	-0.016212314
49	0x3ea7506f	0.32678553
50	0xbf08849b	-0.5332734
51	0xbdf23649	-0.1182676
52	0x3eadf61d	0.33976832
53	0x3e162bd9	0.14665164
54	0xbe168150	-0.14697766
55	0x3ea3e5d2	0.32011276
56	0x3e51d90c	0.20492953
57	0xbd23eb72	-0.04001946
58	0x3e0fbead	0.14037581
59	0x3ee0032f	0.4375243
60	0x3ea0ce28	0.31407285
61	0x3e744ae0	0.23856688
62	0x3eba6ae9	0.3640969
63	0xbd9a9c5e	-0.07549356
64	0x3e221a85	0.15830429
65	0x3ebd4b21	0.3697138
66	0x3e981c41	0.29709056
67	0x3edcf091	0.43152288
68	0xbe7d6ddd	-0.24748941
69	0x3e8e393b	0.27778038
70	0xbeb7eb45	-0.35921684
71	0x3e2bdf02	0.1678429
72	0x3e681ecf	0.22668003
73	0xbcb6bc76	-0.022306662
74	0x3e65636d	0.22401209
75	0x3de18f8c	0.110137075
76	0x3dc95231	0.0983013
77	0x3ed19db9	0.40940645
78	0x3ea9948a	0.3312114
79	0x3e489558	0.1958822
80	0xbe9f42a4	-0.3110553
81	0xbec10bae	-0.37704223
82	0x3d243218	0.040086836
83	0xbe04c7f7	-0.12966906
84	0x3dc87ed5	0.09789816
85	0x3e69d6c9	0.2283584
86	0xbe2bb4b4	-0.16768152
87	0xbd61d6da	-0.05513654
88	0xbcb2a0f4	-0.021805264
89	0x3e4c1d78	0.19933116
90	0x3ee20fee	0.44152778
91	0x3cc64fb8	0.024207935
92	0xbda1d090	-0.07901108
93	0x3e6d62f7	0.23182283
94	0x3ee9fa75	0.45698896
95	0x3ea0c162	0.3139754
96	0x3e401a32	0.18759993
97	0x3c5d5102	0.013508083
98	0xbe30e382	-0.17274287
99	0x3e82a8e5	0.2551948
100	0x3d8cfa9d	0.06883738
101	0x3dc088ed	0.094011165
102	0xbe777251	-0.24164702
103	0x3e201b02	0.15635303
104	0x3d852a8e	0.06502257
105	0xbde709c2	-0.11281158
106	0x3dcadf56	0.09905879
107	0x3ddd5004	0.108062774
108	0x3d9e72da	0.0773675
109	0xbd3e95ce	-0.046529584
110	0xbdeb9e08	-0.115047514
111	0xbe746735	-0.23867495
112	0x3ed45ee8	0.41478658
113	0xbe4bbcc1	-0.19896223
114	0x3d8c0a9f	0.06837963
115	0xbdfea4f9	-0.1243381
116	0x3e9ec6e9	0.3101113
117	0x3eaf5cf0	0.34250593
118	0xbe076615	-0.13222535
119	0xbec4c82f	-0.38433978
120	0x3e82a439	0.25515917
121	0x3dd506eb	0.1040171
122	0xbd626b55	-0.05527814
123	0x3ce9140c	0.028451942
124	0xbedebf96	-0.43505543
125	0x3e736d35	0.23772128
126	0x3e2dd040	0.16973972
127	0x3eab26ff	0.3342819
128	0xbd1ef3a7	-0.038806584
129	0xbeb47b33	-0.35250244
130	0x3d8f7ce6	0.07006244
131	0xbe344695	-0.1760505
132	0x3edff7f9	0.43743876
133	0x3e8f2cf6	0.2796399
134	0xbc98275d	-0.018573457
135	0x3db07795	0.086165585
136	0xbe907a99	-0.28218535
137	0xbead5a2e	-0.33857864
138	0x3e579a24	0.21054894
139	0x3e7a2107	0.24426661
140	0x3d4579bc	0.048211798
141	0x3cac71ce	0.02105036
142	0xbd32e4ab	-0.043675106
143	0x3ebaac30	0.36459494
144	0x3ed1d775	0.40984693
145	0xbe21a186	-0.15784273
146	0xbe5bff0d	-0.21484013
147	0xbea22187	-0.31666204
148	0xbdc67f42	-0.09692241
149	0xbd996de9	-0.07491667
150	0x3963e9fa	0.0002173557
151	0x3e3415b3	0.17586403
152	0x3e01b05d	0.12664934
153	0xbe3e7e06	-0.18602762
154	0x3e8ff4ac	0.28116357
155	0xbd0eab2e	-0.03483122
156	0x3e77bcb1	0.24193074
157	0x3e3c062a	0.18361726
158	0xbe2c8e7d	-0.1685123
159	0xbdcaf180	-0.09909344
160	0xbecd39e6	-0.40083236
161	0x3e8afe70	0.27147245
162	0xbea012e8	-0.31264424
163	0x3eb1763e	0.34660524
164	0x3cf03d8c	0.029326223
165	0x3cee6456	0.029100578
166	0xbe82191f	-0.2540979
167	0x3ea9ab30	0.33138418
168	0xbeac0463	-0.33597097
169	0x3f13c8ee	0.5772847
170	0x3e129678	0.14315212
171	0xbbebd14f	-0.0071965824
172	0x3ebe28c0	0.37140465
173	0xbec42c04	-0.3831483
174	0x3d3b547c	0.045734867
175	0x3e2e5725	0.1702543
176	0xbe9e6b07	-0.3094103
177	0x3def5086	0.116852805
178	0x3dcc53a7	0.09976893
179	0xbcda37e8	-0.026637986
180	0x3cab86ba	0.020938266
181	0xbeee1b4a	-0.46505195
182	0xbdf878a9	-0.12132389
183	0xbec0a4c3	-0.37625703
184	0x3d12466f	0.035711702
185	0xbdf5759f	-0.11985325
186	0xbe9ade30	-0.3024764
187	0x3eea9183	0.45814142
188	0xbec3b6aa	-0.382253
189	0x3e8fe1e9	0.28102043
190	0xbaaee201	-0.0013342501
191	0x3d754b65	0.059886355
192	0x3ef27e21	0.47361854
193	0x3e362e22	0.17791036
194	0x3dd60199	0.104495235
195	0xbd1542b3	-0.036440562
196	0x3f0667d8	0.52502203
197	0x3e5ed7d5	0.21762021
198	0xbe0e96cf	-0.13924716
199	0xbdaede32	-0.08538474
200	0xbe067b94	-0.13133079
201	0x3d7d6cce	0.061871342
202	0xbdf4016f	-0.11914336
203	0xbd1a5999	-0.037683103
204	0x3eb64ec9	0.35606983
205	0x3dc7b0f4	0.09750548
206	0x3e19c4ab	0.15016429
207	0x3e014201	0.12622835
208	0x3f1de27d	0.6167372
209	0xbe0f46a7	-0.13991795
210	0x3eb39c0d	0.35079995
211	0x3e2a87e6	0.16653404
212	0xbe4e3dde	-0.20140788
213	0x3d4acea5	0.049513478
214	0x3e23c494	0.15992957
215	0x3c95c4d4	0.018282332
216	0xbcff3e69	-0.03115769
217	0x3dc858db	0.09782573
218	0x3e141fc7	0.14465247
219	0x3e8fa7a2	0.2805758
220	0xbe80ef25	-0.25182453
221	0xbba149d1	-0.0049221297
222	0xbe5ab765	-0.21359022
223	0x3f1945b2	0.5987197
224	0xbca5acb1	-0.020223947
225	0x3d2b4650	0.041815102
226	0xbe4c9f74	-0.19982702
227	0x3e0118c2	0.126071
228	0xbe7c7973	-0.24655704
229	0xbdd10b43	-0.10207226
230	0xbe5141ed	-0.20435305
231	0xbe24cabc	-0.16092962
232	0xbee08d86	-0.43857974
233	0xbd37e929	-0.044900093
234	0x3e9861e6	0.2976219
235	0x3e3612f4	0.17780668
236	0xbe8a4db8	-0.2701242
237	0x3eb1c623	0.3472148
238	0xbf1aabd7	-0.60418457
239	0xbeb3c4d5	-0.35111108
240	0xbe1070d3	-0.14105539
241	0x3e826a6b	0.25471815
242	0x3e86db74	0.26339304
243	0x3eb011d8	0.34388614
244	0x3e50798b	0.20358865
245	0x3e947545	0.2899572
246	0xbcf35582	-0.02970386
247	0xbd8eed56	-0.06978862
248	0x3e92276a	0.28545696
249	0x3e87aea7	0.26500437
250	0xbe9cf1d9	-0.30653265
251	0x3ebb68d2	0.3660341
252	0x3e88cda0	0.2671938
253	0x3cf75df7	0.030196173
254	0x3ea17bd1	0.31539777
255	0x3ce5447e	0.027986761

policy_head.pos_embed.bias f4 [256]
0	0xbf0d3d65	-0.55171806
1	0x3e99e3d5	0.30056635
2	0xbef18413	-0.47171077
3	0xbea77385	-0.32705322
4	0xbd210998	-0.03931579
5	0x3ef46092	0.47729927
6	0xbe7c95d2	-0.24666527
7	0xbda3b368	-0.079932034
8	0xbe59da83	-0.21274762
9	0xbf202687	-0.6255879
10	0x3f0b0451	0.5430346
11	0xbe9ed469	-0.3102143
12	0xbed835b9	-0.42228487
13	0xbecddbc4	-0.4020673
14	0x3ef85822	0.4850474
15	0xbf22b2ab	-0.63553876
16	0x3e961275	0.29310957
17	0x3da5262e	0.08063923
18	0x3ef45996	0.477246
19	0xbe81aaf5	-0.25325742
20	0xbcc67ba6	-0.024228882
21	0x3f0de025	0.5542014
22	0xbf1aedcd	-0.60519105
23	0x3e2152dd	0.15754266
24	0xbf1e2595	-0.61776096
25	0x3e1554ee	0.1458318
26	0xbf0e3d98	-0.55562735
27	0xbd63d378	-0.055621594
28	0xbf0b5b75	-0.5443643
29	0xbe0661bd	-0.13123222
30	0x3de0b7e3	0.109725736
31	0x3ed6c8b8	0.4195001
32	0x3efdf07c	0.49597538
33	0x3ccc9259	0.024972128
34	0x3ea22fde	0.31677145
35	0x3f0b4351	0.5439959
36	0xbe1a3468	-0.15059054
37	0xbf104f71	-0.5637122
38	0x3ee272d1	0.44228223
39	0x3e990418	0.29885936
40	0x3e68dd9c	0.22740787
41	0x3f0289e2	0.5099164
42	0x3e9d041b	0.30667195
43	0xbc0fc9c1	-0.008776129
44	0xbf179efc	-0.59226966
45	0xbf039b92	-0.51409256
46	0x3f0925ef	0.5357351
47	0x3ddc9cc3	0.107720874
48	0x3e4e9d51	0.20177199
49	0xbebf7334	-0.3739258
50	0x3e882551	0.2659097
51	0x3ed74c8b	0.42050585
52	0xbf38228e	-0.71927726
53	0xbeccf1e7	-0.40028307
54	0x3c5b1989	0.013372787
55	0xbe8f002e	-0.27929825
56	0xbdf960de	-0.12176679
57	0xbebf9194	-0.37415755
58	0x3d9f7478	0.077858865
59	0xbf3e1680	-0.7425308
60	0xbe4586b3	-0.19289665
61	0xbf19ab1c	-0.6002672
62	0xbe09e7fa	-0.13467398
63	0x3eb3ccff	0.35117337
64	0xbd83a139	-0.06427235
65	0xbeffabc6	-0.4993574
66	0xbf1dcd14	-0.6164105
67	0x3d8a7ee0	0.06762481
68	0x3e96d64c	0.2946037
69	0x3e9968f4	0.29962885
70	0x3e3f08a9	0.18655647
71	0x3e9be615	0.30448976
72	0x3e45750c	0.19282931
73	0xbeee03ca	-0.46487266
74	0x3e8a1f5e	0.26977056
75	0x3e5519a1	0.20810558
76	0xbf01e1c3	-0.5073511
77	0x3e63d5e6	0.22249565
78	0xbf25f58b	-0.64827794
79	0xbeb80f3e	-0.3594913
80	0x3efe66d9	0.49687842
81	0x3eeabef2	0.45848805
82	0xbe64673c	-0.22305006
83	0x3e8c064b	0.2734855
84	0x3e94e36b	0.29079756
85	0xbee05273	-0.43812904
86	0x3f0fe737	0.5621218
87	0x3ed6444c	0.4184898
88	0x3e46aeab	0.19402568
89	0x3cf219cd	0.029553318
90	0xbdd1608f	-0.10223495
91	0x3e68f2db	0.22748892
92	0xbf04a6f2	-0.5181724
93	0xbeb91bf0	-0.36154127
94	0xbd5c3d6e	-0.05376952
95	0xbf24f69a	-0.64438784
96	0xbeb6fda4	-0.35740387
97	0x3eed599e	0.46357435
98	0x3e57771b	0.21041529
99	0xbedb8d61	-0.428813
100	0xbe69a333	-0.22816162
101	0xbdba09e1	-0.090839155
102	0x3e7cb7e2	0.2467952
103	0xbe64bc54	-0.22337466
104	0xbeff02f0	-0.4980693
105	0x3e4cd257	0.20002113
106	0xbe219a87	-0.15781604
107	0x3d21420a	0.03936962
108	0xbce9eb3a	-0.028554548
109	0x3dc81d38	0.09771198
110	0x3df53a6c	0.11974034
111	0x3e2419a9	0.16025414
112	0xbf16f02a	-0.5896021
113	0x3e33757b	0.17525284
114	0xbdc953d6	-0.098304436
115	0x3dbe1d39	0.092829175
116	0xbeb688b4	-0.3565117
117	0xbedd72da	-0.43251687
118	0x3eef511b	0.46741566
119	0x3e8cc506	0.27494067
120	0x3e9fd5e6	0.3121788
121	0xbeab307e	-0.33435434
122	0x3edffb60	0.4374647
123	0xbeb33bac	-0.35006464
124	0x3eed975e	0.46404546
125	0xbf29f8ed	-0.66395456
126	0xbef72047	-0.48266813
127	0xbe39801f	-0.1811528
128	0x3db2d634	0.08732262
129	0x3f26af61	0.65111357
130	0x3ddf944a	0.10916956
131	0xbe61d565	-0.2205406
132	0xbf09f7c8	-0.5389371
133	0xbf0fb02d	-0.561282
134	0xbecd9df9	-0.40159586
135	0xbed1b6a2	-0.4095965
136	0x3d85ccda	0.06533213
137	0x3e043417	0.12910496
138	0x3eb41fde	0.35180563
139	0xbeea681a	-0.45782548
140	0x3dbc512e	0.09195171
141	0xbe24a84d	-0.16079827
142	0xbe937c78	-0.288059
143	0xbd7dba38	-0.06194517
144	0xbe80787a	-0.25091916
145	0x3eeada78	0.45869803
146	0x3f25507c	0.64575934
147	0x3edf263a	0.43583852
148	0x3f0e3738	0.5555301
149	0x3e0242f2	0.1272085
150	0xbf11e425	-0.56988746
151	0x3bef4fbb	0.007303206
152	0xbf07378f	-0.5281915
153	0xbe6c4aeb	-0.23075454
154	0xbefb1470	-0.4903903
155	0x3e131d5b	0.14366667
156	0xbf2bab17	-0.6705794
157	0xbe760c8c	-0.24028224
158	0x3ec87408	0.39151025
159	0x3d02db94	0.031947687
160	0x3f0acb5e	0.54216564
161	0xbed931f6	-0.4242093
162	0x3ebdf600	0.37101746
163	0x3b577727	0.0032877417
164	0xbf1c185f	-0.6097469
165	0x3ebad7fa	0.36492902
166	0xbeab3e6c	-0.33446062
167	0xbef177b3	-0.47161636
168	0xbe2c1955	-0.16806538
169	0xbeb78095	-0.35840288
170	0x3ed64c07	0.4185488
171	0x3d060fe0	0.032729983
172	0xbf102d9b	-0.5631959
173	0x3edc19eb	0.42988524
174	0x3ed3645b	0.41287503
175	0x3e996186	0.29957217
176	0x3eee6b07	0.4656603
177	0x3cfa8b1e	0.030583914
178	0xbec152c2	-0.37758452
179	0xbe32817a	-0.17432204
180	0xbd5240eb	-0.05133144
181	0x3f0d2ab2	0.5514327
182	0xbe0d9cfc	-0.13829416
183	0xbe5f65ba	-0.2181615
184	0xbeac8f17	-0.3370292
185	0x3f0336db	0.5125558
186	0x3e6a0828	0.22854674
187	0xbf42647d	-0.7593458
188	0x3f2e320a	0.68045104
189	0x3d52c334	0.05145569
190	0xbe571e06	-0.21007547
191	0x3ea6d2d8	0.32582736
192	0x3c0bcca1	0.008532674
193	0x3e8fc106	0.28076953
194	0xbde9b63a	-0.1141171
195	0xbe921cf8	-0.28537726
196	0xbf2fdc03	-0.68695086
197	0xbe3a4785	-0.18191345
198	0xbe9e0884	-0.30865872
199	0x3e7a6adc	0.24454826
200	0xbee89fc8	-0.45434403
201	0xbd9d36cf	-0.076764695
202	0xbe6016ac	-0.21883649
203	0xbe82a846	-0.25519007
204	0xbd15f6b1	-0.036612216
205	0xbda7eb9d	-0.081992365
206	0x3e7f25a2	0.249167
207	0x3d99d0ff	0.07510566
208	0xbf523727	-0.82115406
209	0x3e34842a	0.17628542
210	0xbb155517	-0.0022786313
211	0xbec2ad8e	-0.38023037
212	0xbe997498	-0.29971766
213	0x3e53c4cb	0.2068054
214	0x36e67fc0	6.869406e-06
215	0xbf08c062	-0.5341855
216	0x3ee14f5f	0.44005868
217	0x3da4ae36	0.080410406
218	0x3e17ac8f	0.1481192
219	0xbf04e5e2	-0.51913273
220	0x3ed3f831	0.41400293
221	0xbe25a8c7	-0.16177665
222	0x3b18a9de	0.0023294608
223	0xbd203bd2	-0.03911955
224	0xbf06abed	-0.5260609
225	0x3e99eb84	0.30062497
226	0x3ccf9905	0.02534152
227	0xbecc4807	-0.39898703
228	0x3de02d96	0.10946195
229	0x3e8e005f	0.27734658
230	0xbd042576	-0.032262288
231	0xbe9f5e25	-0.31126514
232	0x3f2b6648	0.66952944
233	0xbf0e709b	-0.5564057
234	0xbe70daa3	-0.23520903
235	0x3e40d620	0.18831682
236	0x3f12d032	0.5734893
237	0xbf1a4ecc	-0.60276484
238	0x3f5f1c5c	0.8715265
239	0x3f32a878	0.6978831
240	0xbed417d4	-0.4142443
241	0xbf1d9939	-0.61561924
242	0x3eeb9dc7	0.46018812
243	0xbe980e32	-0.2969833
244	0xbe9f0db9	-0.31065157
245	0xbeb6b865	-0.35687557
246	0xbe15114a	-0.14557377
247	0x3e42f692	0.19039372
248	0xbcd6d764	-0.026225753
249	0xbf0d388f	-0.55164427
250	0x3e9c0965	0.30475917
251	0xbe6dc882	-0.23221019
252	0x3c0aaa56	0.008463463
253	0xbe943ead	-0.28954068
254	0xbed14a1f	-0.40876862
255	0xbe0a1b8a	-0.13487068

policy_head.linear_2.weight f4 [81, 256]
0	0xbcbeaa80	-0.02327466
1	0xbda5a407	-0.08087926
2	0xbda95462	-0.08268048
3	0xbc7a37ee	-0.015272124
4	0xbcb9c53f	-0.022677062
5	0xbd4cdd5a	-0.050015785
6	0xbcc5fb58	-0.024167702
7	0xbd569217	-0.052385416
8	0xbd887cce	-0.066644296
9	0xbdbbf883	-0.09178259
10	0x3c4e9eb5	0.012611081
11	0xbc2229a4	-0.009897623
12	0xbd39bc64	-0.04534568
13	0xbd31bc05	-0.0433922
14	0xbdbf144e	-0.09330045
15	0xbc97b541	-0.018519046
16	0xbc86c03d	-0.016449088
17	0xbd0160a5	-0.031586308
18	0xbc0f6f41	-0.008754552
19	0xbda1db93	-0.079032086
20	0xbd36e5a3	-0.044652592
21	0xbd724b42	-0.059153803
22	0x3c83785d	0.016048605
23	0xbb85e5a9	-0.0040862155
24	0xbd87760d	-0.06614313
25	0xbcae4d80	-0.02127719
26	0xbd7124fa	-0.058873154
27	0xbd134e98	-0.035963625
28	0xbda5ae3f	-0.080898754
29	0xbda714e2	-0.0815828
30	0xbd9f8b99	-0.07790298
31	0xbcea25d2	-0.028582487
32	0xbda51d91	-0.0806228
33	0xbb545db2	-0.003240448
34	0xbd5fb862	-0.0546192
35	0xbc86c0d1	-0.016449364
36	0xbc8973d8	-0.016778871
37	0xbd8c03b5	-0.068366446
38	0xbd157063	-0.036484133
39	0x3c6e94da	0.014561856
40	0xbd2f83c8	-0.042850286
41	0xbd841405	-0.06449131
42	0xbc3b5d88	-0.011435874
43	0xbdb93e9f	-0.09045147
44	0xbc2b5532	-0.010457324
45	0xbc5c8ada	-0.013460839
46	0xbc63867a	-0.013887042
47	0xbc15778b	-0.00912274
48	0xbd85e9f6	-0.06538765
49	0xbcbb2d52	-0.022848759
50	0xbdc48d85	-0.09597305
51	0xbc993a9c	-0.018704705
52	0x3c5aa47b	0.013344879
53	0xbd979188	-0.07400805
54	0x3cb0384b	0.021511218
55	0x3ac1c9ae	0.0014784837
56	0xbd273e16	-0.040830694
57	0xbd5d3aa5	-0.054011006
58	0xbd65bc36	-0.056087695
59	0xbdbef668	-0.09324342
60	0xbd37e758	-0.04489836
61	0xbd284ff4	-0.041091874
62	0xbd00e06c	-0.031464025
63	0xbddc64ec	-0.10761437
64	0xbd3d99b8	-0.046289176
65	0xbdca8444	-0.09888509
66	0xbcc62b5f	-0.024190603
67	0xbc2096ee	-0.009801609
68	0xbd9e4b12	-0.07729162
69	0xbd010efe	-0.03150844
70	0xbd71e0f1	-0.05905241
71	0xbdad5ec9	-0.084653445
72	0xbd8a6530	-0.06757581
73	0xbd0390bd	-0.032120455
74	0x3c227a27	0.009916819
75	0xbd705ed5	-0.05868419
76	0xbdcced29	-0.10006172
77	0xbda1cbfa	-0.079002336
78	0x3bc70a46	0.0060742227
79	0xbdc69514	-0.09696403
80	0xbccdf621	-0.025141777
81	0xbd4263e4	-0.047458544
82	0xbca13c3c	-0.019682042
83	0xbdc77e5b	-0.09740897
84	0xbd628acf	-0.05530816
85	0xbbc1a34c	-0.005909359
86	0xbd16e188	-0.036836177
87	0xbdb81b90	-0.08989632
88	0xbd1a92f0	-0.037737787
89	0xbd8ae069	-0.06781084
90	0x3c0683fb	0.0082101775
91	0xbc94544d	-0.018106604
92	0xbdb32465	-0.08747176
93	0xbd422b4b	-0.04740457
94	0xbd7e1d94	-0.062039927
95	0xbd44484a	-0.047920503
96	0x3bff93bc	0.0077995937
97	0xbc7eda78	-0.015555017
98	0xbdd0eae8	-0.10201055
99	0xbb93c562	-0.004509614
100	0xbc38cc69	-0.011279204
101	0xbb0a3b88	-0.0021092612
102	0xbdfe99c0	-0.12431669
103	0xbcfd1335	-0.030892948
104	0xbdac7409	-0.084205694
105	0xbd031565	-0.032002825
106	0xbd82a2bd	-0.06378696
107	0xbca74ef6	-0.020423394
108	0xbc8a9a33	-0.016919231
109	0xbd6da31a	-0.058016874
110	0xbd5d75ab	-0.054067295
111	0xbd0754a8	-0.03303972
112	0x3bacd1fc	0.0052740555
113	0xbd31f2dc	-0.0434445
114	0xbd32cb18	-0.043650717
115	0xbd932667	-0.07185059
116	0xbd95033c	-0.072760075
117	0xbd8f6fa2	-0.07003714
118	0xbd96c024	-0.07360867
119	0xbc99b1a0	-0.018761456
120	0xbcc1c84c	-0.02365508
121	0xbd240e43	-0.040052664
122	0xbc461c07	-0.012091643
123	0xbcf43d22	-0.029814307
124	0xbdebd3c1	-0.11514998
125	0xbc3671ea	-0.011135558
126	0xbb1e36c8	-0.002414154
127	0xbd84a876	-0.06477444
128	0xbbe8c8b8	-0.0071040057
129	0xbd46b8b8	-0.048516005
130	0xbd42008d	-0.047363807
131	0xbdccbb43	-0.09996655
132	0xbb97f731	-0.004637622
133	0xbda32ffa	-0.07968135
134	0xbbd5378c	-0.006506866
135	0xbcb900ef	-0.022583453
136	0xbcecea10	-0.028920203
137	0xbd010be1	-0.03150547
138	0xbd9d0dff	-0.07668685
139	0xbdbcf2af	-0.09225976
140	0xbc85553d	-0.016275996
141	0xbc21a39c	-0.009865668
142	0xbd5c7b70	-0.053828657
143	0xbc4b5990	-0.01241149
144	0xbd089f84	-0.03335525
145	0xbd12ff3e	-0.03588795
146	0x3ac45eb4	0.0014981837
147	0xbdb8a499	-0.090157695
148	0xbd8e6f95	-0.06954876
149	0xbda753dd	-0.081702925
150	0x3b908930	0.0044108853
151	0x3c7a6c85	0.015284662
152	0xbd78c728	-0.060736805
153	0xbdf0c062	-0.11755444
154	0xbde12031	-0.10992468
155	0x3b97e253	0.0046351342
156	0xbd55937b	-0.0521426
157	0xbd8488a5	-0.064713754
158	0xbdd94459	-0.106087394
159	0xbda36012	-0.07977308
160	0x3cd625c4	0.026141055
161	0xbd5e1a54	-0.054224327
162	0xbd5a9e82	-0.05337382
163	0xba681452	-0.00088531256
164	0x3c852d79	0.016257035
165	0xbd2b8345	-0.041873235
166	0xbdc1741b	-0.094459735
167	0xbc599241	-0.013279499
168	0xbd561028	-0.0522615
169	0xbdaa3361	-0.08310581
170	0x3c2ca50f	0.0105374
171	0xbcc85c2e	-0.024458017
172	0xbdd2045b	-0.10254737
173	0xbd853e7d	-0.06506059
174	0xbc4326cb	-0.011911104
175	0xbe047db3	-0.12938575
176	0x3c1c4fd8	0.009540521
177	0x3c0569d5	0.008142908
178	0xbdb2e2e6	-0.08734684
179	0xbdb5557d	-0.08854196
180	0xbdc91ea1	-0.09820295
181	0xbdebab89	-0.11507327
182	0x3a97d560	0.0011583976
183	0x3b610251	0.0034333656
184	0xbda9b025	-0.0828555
185	0xbcf9bdc7	-0.030486
186	0xbd1955a8	-0.037435204
187	0xbcdb8b56	-0.026799839
188	0xbd3b08c9	-0.045662675
189	0xbd43168c	-0.047628924
190	0xbdb3ca86	-0.08778863
191	0xbd5f4698	-0.054510683
192	0x3caaef49	0.020866053
193	0x3c414792	0.011796849
194	0xbdd609a2	-0.10451056
195	0x3baa44eb	0.005196204
196	0xbc819e52	-0.015822563
197	0xbcda3ad6	-0.026639383
198	0xbda8999c	-0.08232424
199	0xbd12ed0e	-0.035870604
200	0xbcb147d2	-0.021640692
201	0xbda2074d	-0.07911549
202	0xbdb0f4a5	-0.08640412
203	0xbd6e7dc3	-0.058225404
204	0x3b4d26fd	0.0031303756
205	0xbc36a852	-0.011148529
206	0xbde925e7	-0.113841824
207	0xbd46df31	-0.048552696
208	0xbc97a224	-0.018509932
209	0x3c0209c0	0.007936895
210	0xbb338c8d	-0.0027397007
211	0xbd619c73	-0.055080842
212	0xbdc3ac20	-0.095543146
213	0xbd8eb7a4	-0.069686204
214	0x3ca9bdfe	0.020720478
215	0xbb9d5422	-0.004801289
216	0xbd986c7f	-0.07442569
217	0xbdc2d159	-0.09512586
218	0xbdefc169	-0.11706812
219	0xbcf2eab9	-0.02965294
220	0xbd9f9f75	-0.07794086
221	0xbd769901	-0.06020451
222	0xbd274ac4	-0.040842786
223	0xbdd038ae	-0.10167061
224	0xbbe5744b	-0.0070023886
225	0xbd33745f	-0.043812152
226	0xbda3d28f	-0.07999145
227	0xbdc678b9	-0.09690995
228	0xbd29ef02	-0.0414877
229	0xbdbf0298	-0.093266666
230	0xbd0e92c3	-0.03480793
231	0xbc33f6da	-0.010984147
232	0xbd0cb163	-0.034348857
233	0xbd39fcb4	-0.045407012
234	0xbcb3f73d	-0.021968478
235	0xbcae2b36	-0.021260839
236	0xbd34b8e9	-0.044121657
237	0xbdcdf4fe	-0.10056494
238	0xbb97c8e4	-0.0046321023
239	0xbc427de2	-0.011870833
240	0xbc4eee4b	-0.012630056
241	0xbd9e4cf9	-0.07729525
242	0xbd82c173	-0.06384554
243	0xbda14946	-0.07875304
244	0xbde3a3fb	-0.11115261
245	0xbd1998d6	-0.03749927
246	0xbd387095	-0.04502924
247	0xbd4f4d3c	-0.050610766
248	0xbdc0f3b7	-0.09421485
249	0xbd9f44b4	-0.07776776
250	0x3b508519	0.0031817614
251	0xbddc29a9	-0.107501335
252	0xbc41140c	-0.011784565
253	0xbd9f07ff	-0.07765197
254	0xbdd6976f	-0.104781024
255	0xbd6f05c5	-0.05835511

policy_head.linear_2.bias f4 [81]
0	0x3b27c320	0.0025598481
1	0xbc754907	-0.014971024
2	0x3da5fbf6	0.08104698
3	0xbdded3b5	-0.10880224
4	0xbd27ab02	-0.04093457
5	0x3d37e7b0	0.04489869
6	0xbc3cf924	-0.011534009
7	0xbc577b21	-0.013151915
8	0x3d7e9078	0.062149495
9	0xbdc8b146	-0.09799437
10	0xbd2dbfea	-0.04241935
11	0xbd884fb8	-0.0665583
12	0x3ce1af78	0.02754949
13	0x3c7c4534	0.015397359
14	0xbd2e3079	-0.042526696
15	0xbc9e5f43	-0.019332534
16	0x3d4d7bb4	0.0501668
17	0x3cc0d571	0.023539277
18	0x3c61eefd	0.013789889
19	0xbcb41ccb	-0.021986386
20	0xbd5a5a78	-0.053308934
21	0xbdf97f48	-0.1218248
22	0x3c9c0230	0.019044012
23	0x3d48fa43	0.049066793
24	0xbd760276	-0.06006094
25	0xbce789b3	-0.028263902
26	0x3c6bb0bf	0.014385401
27	0xbcff9d43	-0.031202918
28	0x3d46b2a0	0.048510194
29	0xbdb09783	-0.086226486
30	0xbbd184cb	-0.006394004
31	0x3c34757a	0.011014337
32	0xbc9703d0	-0.018434435
33	0xbc9e1dc3	-0.0193013
34	0x3d49839f	0.04919779
35	0xbd366a6d	-0.04453509
36	0xbdd338e7	-0.10313588
37	0x3cdfb899	0.027309703
38	0x3d00072f	0.03125685
39	0xbcd79367	-0.026315404
40	0x3d73de7d	0.059538353
41	0x3b98a559	0.004658383
42	0xbd3a2b6e	-0.045451574
43	0x3cca0d48	0.024664536
44	0x3dd130ae	0.10214363
45	0x3cd01923	0.025402611
46	0x3d6f59b1	0.058435146
47	0x3caf83b2	0.021425102
48	0x3c709981	0.014685036
49	0x3cce0b19	0.025151776
50	0x3deb19e8	0.114795506
51	0x3c6e5ee8	0.014548995
52	0x3cedc208	0.029023185
53	0x3d8d348e	0.0689479
54	0xbd85bcbf	-0.06530141
55	0xbd8c67b8	-0.0685572
56	0x3c0eba44	0.008711401
57	0xbd07ce5a	-0.033155777
58	0x3d55b990	0.05217892
59	0x3d535d39	0.051602576
60	0x3be8a6ff	0.0070999856
61	0x3c1226fb	0.0089204265
62	0x3d5178f1	0.05114073
63	0xbcb697b4	-0.022289135
64	0xbd1fbf72	-0.039000936
65	0x3d9c4e57	0.0763213
66	0x3d9001a4	0.07031563
67	0x3da559ad	0.08073745
68	0x3d71cba0	0.059032083
69	0x3d85da5f	0.065357916
70	0xbb87c5bd	-0.0041434453
71	0x3d95337a	0.07285209
72	0xbd2e8c8a	-0.042614497
73	0x3d509a9f	0.05092871
74	0x3d5e72b8	0.054308623
75	0x3d3740f8	0.044739693
76	0x3d5e2ccb	0.054241937
77	0x3d6b915b	0.05751167
78	0xbcac8ba0	-0.021062672
79	0x3db6c08a	0.08923443
80	0x3dbeba4b	0.09312876

value_head.in_linear.weight f4 [512, 256]
0	0x3cb5ad1c	0.022177272
1	0x3d75ec56	0.06003984
2	0x3d17cc34	0.037059978
3	0x3a16fe80	0.00057599694
4	0xbcd2b864	-0.02572269
5	0xbd2853c6	-0.041095518
6	0x3cbbf2bc	0.022942893
7	0xbd1fb794	-0.038993433
8	0x3ca73cb0	0.02041468
9	0xbbe3a8f0	-0.006947629
10	0xbca29f08	-0.019851223
11	0x3d428670	0.04749149
12	0x3d6366e8	0.05551806
13	0xbba4c1f0	-0.005028002
14	0xbc9d8098	-0.019226357
15	0xbcba17ec	-0.022716485
16	0xbbde19f0	-0.0067779943
17	0x3998d400	0.00029149652
18	0xbd3e7e78	-0.04650733
19	0xbce9d704	-0.02854491
20	0x3d296198	0.04135284
21	0x3c85c13c	0.016327493
22	0x3d56048c	0.05225043
23	0xbbc54a70	-0.0060208365
24	0xbc719290	-0.014744416
25	0xbcf7b9c4	-0.030239947
26	0x3d42fdda	0.047605373
27	0x3d03bff0	0.032165468
28	0xbd35ad0a	-0.044354476
29	0xbced47e4	-0.028964944
30	0xbcc9f460	-0.02465266
31	0xbbc93500	-0.0061403513
32	0xbc8c6f74	-0.017142989
33	0x3b9f3950	0.004859127
34	0x3cfcd508	0.0308633
35	0x3d276566	0.040868185
36	0xbd3fe3c8	-0.04684809
37	0x3cfe8ea8	0.031073883
38	0x3d1bee9c	0.038069353
39	0x3c2cb8b0	0.01054208
40	0xbb959150	-0.0045644417
41	0xbc9d4bf4	-0.019201256
42	0xbd072ef0	-0.033003747
43	0x3ce31010	0.02771762
44	0xbc5a3858	-0.013319097
45	0x3cb98eb0	0.022651047
46	0x3d008922	0.03138078
47	0xbd2986a0	-0.041388154
48	0x3d4ff6da	0.050772525
49	0xbd146bae	-0.036235504
50	0x3d110826	0.03540816
51	0x3cbd82ac	0.023133598
52	0xbd06547a	-0.032795407
53	0xbca25a18	-0.01981835
54	0xbccb16a0	-0.024791062
55	0x3cf3797c	0.029721014
56	0xbc1cb580	-0.009564757
57	0xb8ebf800	-0.00011251867
58	0x3cb03280	0.021508455
59	0x3d5305f0	0.051519334
60	0x3b95b210	0.004568346
61	0x3bbde6e0	0.0057953447
62	0xbcffdfc8	-0.031234637
63	0x3bb3bd30	0.0054851994
64	0xbd720aca	-0.05909232
65	0xbd09fca4	-0.033688203
66	0xbd7f06b2	-0.062262245
67	0x3cef0a04	0.02917958
68	0x3c9629d8	0.0183305
69	0xbd484a74	-0.04889913
70	0x3d06b40c	0.03288655
71	0xbd567b02	-0.052363403
72	0xbc5a8550	-0.013337448
73	0xbd5f7d2a	-0.054562725
74	0xbd749d00	-0.05972004
75	0x3d5920d0	0.053009808
76	0x3c454f50	0.012042835
77	0xbd2d572a	-0.042319454
78	0xbd5c79a2	-0.053826936
79	0x3d54d3ca	0.05195979
80	0xbd5481b8	-0.051881522
81	0xbd552dd6	-0.052045666
82	0x3cceceb8	0.025245056
83	0xbc2687e0	-0.010164231
84	0xbd30c1ee	-0.043153696
85	0xbd7ff99a	-0.062493898
86	0xbd25fa56	-0.040521942
87	0xb9c56600	-0.00037650764
88	0x3aa08200	0.0012245774
89	0x3c8bb4b8	0.017053947
90	0x3d7c2752	0.061560936
91	0x3c57e3f8	0.013176911
92	0x3d60f304	0.054919258
93	0x3c999628	0.018748358
94	0x3d0fe3e0	0.035129428
95	0xbccd4464	-0.025057025
96	0xbba97ce0	-0.005172357
97	0xbad640c0	-0.0016346201
98	0xbd1d1e56	-0.03835901
99	0xbd31006a	-0.043213286
100	0xbc637908	-0.013883837
101	0x3ce9e378	0.028550848
102	0x3cf12444	0.029436238
103	0x3bb34e00	0.005471945
104	0xbd454ad4	-0.048167065
105	0x3d496b34	0.049174502
106	0x3d5ea698	0.054358095
107	0x3c3bdbf8	0.011466019
108	0x3ced2ef8	0.02895306
109	0xbd265b86	-0.040614627
110	0x3bf98ab0	0.00761541
111	0xbbb94ed0	-0.005655147
112	0xbce95fc0	-0.02848804
113	0x3d78cd2e	0.06074255
114	0xbd30294c	-0.043008134
115	0xba45eb00	-0.00075499713
116	0x3cadb0c4	0.021202452
117	0xbcfcea40	-0.030873418
118	0x3d2bc926	0.041939877
119	0x3cdb013c	0.026733987
120	0x3c3ac208	0.0113988
121	0x3cd21864	0.025646396
122	0xbc81b1e4	-0.015831895
123	0xbc9d65a4	-0.019213505
124	0xbd4feafa	-0.0507612
125	0x3d47526c	0.048662588
126	0xbd3f6580	-0.046727657
127	0xbd412c02	-0.04716111
128	0x3c84d42c	0.016214453
129	0x3cc08df8	0.023505196
130	0x3cb0bda8	0.02157481
131	0x3ccbd1ec	0.024880372
132	0xbc6015f0	-0.013677105
133	0xbd3e09de	-0.04639613
134	0x3d0dbb80	0.034602642
135	0x3cb8bf2c	0.022552095
136	0xbb3202c0	-0.0027162284
137	0xbc3d71e0	-0.011562794
138	0x3d412004	0.047149673
139	0xbbb08fd0	-0.0053882375
140	0x3d451b58	0.04812178
141	0x3cecfe3c	0.028929822
142	0xbd765dc4	-0.060148016
143	0x3d2ec3f6	0.04266735
144	0x3d5dd802	0.05416108
145	0x3cba3260	0.022729099
146	0x3d079a26	0.03310599
147	0x3d796362	0.060885794
148	0x3d565d82	0.05233527
149	0xbb6c4bc0	-0.0036055893
150	0xbcfc3dc0	-0.030791163
151	0x3c228048	0.00991828
152	0xbcf19df0	-0.029494256
153	0x3bb37d20	0.0054775625
154	0x3d62594a	0.055260934
155	0x3d12b1d6	0.03581413
156	0xbcd5cf90	-0.02609995
157	0x3ca3cc74	0.019994952
158	0x3cbf815c	0.023377113
159	0xbd540c12	-0.051769324
160	0x3d0ca2b0	0.03433484
161	0x3cc72ea0	0.024314225
162	0x3d3485de	0.04407298
163	0x3d420e32	0.04737682
164	0x3cf62f98	0.030051991
165	0x3c75b138	0.0149958655
166	0xbc2a9e30	-0.010413691
167	0xbc08b330	-0.008343503
168	0xbd2e71c0	-0.04258895
169	0xbccbe44c	-0.024889134
170	0xbc8182ec	-0.015809499
171	0x3d4673ae	0.048450164
172	0xbc1920c8	-0.009346195
173	0xbd5773f6	-0.052600823
174	0xbd3b2b68	-0.045695692
175	0x3cac178c	0.021007322
176	0x3ce1d408	0.027566925
177	0xbc6bf468	-0.014401533
178	0x3b3bb0e0	0.0028639361
179	0x3c232968	0.0099586025
180	0x3d46c0e8	0.048523813
181	0xbd4190a2	-0.047257073
182	0x3d4cbfca	0.04998759
183	0xbd1871c6	-0.037217878
184	0xbd1c468c	-0.038153216
185	0xbd416b50	-0.04722148
186	0xbd097576	-0.033559285
187	0x3d3025fe	0.043004982
188	0x3cc16c00	0.023611069
189	0x3c3183c0	0.010834634
190	0x3cb1c264	0.021699138
191	0xbba11a50	-0.004916467
192	0xbd51af42	-0.05119253
193	0xbd0dbb42	-0.03460241
194	0xbd5dccbe	-0.054150335
195	0xbd5e1db2	-0.05422754
196	0xbd6817d2	-0.05666334
197	0x3d570228	0.05249229
198	0x3ce338c8	0.027737036
199	0xbb1039a0	-0.0022007003
200	0x3b979510	0.004625924
201	0xbd5e081a	-0.054206945
202	0x3c257c38	0.010100417
203	0x3a894c00	0.001047492
204	0xbd37b7c6	-0.044852994
205	0xbd703efa	-0.05865381
206	0xbd047922	-0.032342084
207	0xbd1f3132	-0.038865276
208	0x3ce3d690	0.027812272
209	0xbc1ab358	-0.009442173
210	0xbd7f7aa2	-0.06237281
211	0xbaad0f80	-0.0013203472
212	0xbbe2e770	-0.006924562
213	0xbcdf9e24	-0.027297087
214	0x3c173b10	0.00923039
215	0x3c7de708	0.015496977
216	0xbbfd5550	-0.0077311173
217	0xbd138260	-0.036013007
218	0x3c7eba98	0.015547417
219	0x3d0bf22a	0.034166493
220	0xbd1bd7c8	-0.038047582
221	0x3d1a61ac	0.037690803
222	0xbc73bde0	-0.014876813
223	0xbb4dd280	-0.0031405985
224	0x3ce077c0	0.027400851
225	0xbc567670	-0.013089761
226	0x3c9a1e44	0.01881326
227	0xbd1bb494	-0.03801401
228	0xbd41a3a0	-0.047275186
229	0xbcb99b0c	-0.02265694
230	0x3c6b25a8	0.01435224
231	0x3ca1cb28	0.019750193
232	0xbcc367f4	-0.02385328
233	0xbbcd9c30	-0.0062747225
234	0xbb462e00	-0.003023982
235	0xbb487680	-0.003058821
236	0x3d1737f2	0.036918588
237	0xbc130f10	-0.008975759
238	0xbd56c598	-0.052434534
239	0xbd6c56d2	-0.057699986
240	0x3d2eef06	0.04270842
241	0x3ceac494	0.028658189
242	0x3c541928	0.012945451
243	0x3d22d75c	0.039756164
244	0x3d79f0de	0.061020724
245	0x3ca11dfc	0.019667618
246	0xbd6f869c	-0.058477983
247	0x3d2f860c	0.042852446
248	0x3d5430d2	0.05180437
249	0xbd3dc95a	-0.046334602
250	0xbd7a83ca	-0.06116084
251	0xbd794bf0	-0.060863435
252	0xbd779d18	-0.06045255
253	0xbd4d47e4	-0.05011739
254	0xbc3c3ee0	-0.0114896
255	0x3bac6f80	0.0052623153

value_head.in_linear.bias f4 [512]
0	0xbcd3c6b0	-0.025851578
1	0x3cd6a240	0.026200414
2	0xbcf98b98	-0.030462071
3	0x3b94a540	0.004536301
4	0xbc76a3d8	-0.015053712
5	0xbd76c7f8	-0.0602493
6	0x3d7404bc	0.059574828
7	0xbd4ccb8e	-0.049998812
8	0xbd0b848e	-0.03406196
9	0xbcddbe2c	-0.02706822
10	0x3c66f2e8	0.014095999
11	0x3c9cdc48	0.019148007
12	0x3c72fd88	0.014830954
13	0xbd2565b8	-0.04038021
14	0xbd29e1ec	-0.04147522
15	0xbcab636c	-0.020921431
16	0x3d727f4a	0.059203424
17	0xbb1cdd40	-0.0023935586
18	0xbc704178	-0.0146640465
19	0xbcc4c00c	-0.024017356
20	0xbd09e66e	-0.03366702
21	0x3c5a0108	0.01330591
22	0xbccd5a48	-0.025067464
23	0xbd3de14e	-0.046357445
24	0xbd6ca4fc	-0.05777453
25	0xbcd7b19c	-0.026329808
26	0xbd66efd2	-0.056381054
27	0x3c360fb0	0.011112139
28	0x3cf8b920	0.030361712
29	0xbd5029ae	-0.050821
30	0xb9ee5400	-0.00045457482
31	0x3c3d3bd0	0.011549905
32	0x3d765b0e	0.06014543
33	0xbc7c8870	-0.015413389
34	0x3d783292	0.060595103
35	0x3c7ed4d8	0.015553676
36	0xbc91431c	-0.017732196
37	0xbcfcdf6c	-0.030868255
38	0xbc9ecdbc	-0.019385211
39	0x3d788fd8	0.060684055
40	0x3d534132	0.051575847
41	0xbc8a4d28	-0.016882494
42	0xbd14eb46	-0.036357187
43	0xbd20d0ea	-0.039261736
44	0xbcfca3d8	-0.030839846
45	0xbce917dc	-0.02845376
46	0x3d6bc0a0	0.05755675
47	0xbd04fdca	-0.032468595
48	0xbbeb5570	-0.007181816
49	0xbd709736	-0.058737956
50	0xbd4d68e2	-0.050148852
51	0xbb7dc260	-0.0038720593
52	0x3d69230a	0.05691818
53	0x3c86d234	0.016457655
54	0x3b9b41b0	0.004738055
55	0xbc4bd880	-0.012441754
56	0x3c440a28	0.011965312
57	0x3c9a0be8	0.018804505
58	0xbca90654	-0.0206329
59	0x3d11982c	0.035545513
60	0xbd0a4f10	-0.033766806
61	0x3d67a88e	0.05655723
62	0x3d3e36b6	0.046438895
63	0x3d4602cc	0.04834251
64	0x3d1e7c64	0.038692847
65	0xbd0c61b6	-0.034272872
66	0xbb42a080	-0.0029697716
67	0x3c30b008	0.010784157
68	0x3d46b866	0.0485157
69	0xbb764480	-0.003757745
70	0xbd754aa2	-0.05988563
71	0xbd0c63de	-0.03427493
72	0xbca2f5b0	-0.019892544
73	0xbc0253a8	-0.0079545155
74	0xbd05d06e	-0.032669477
75	0xbb879650	-0.0041377917
76	0x3c9389c0	0.01801002
77	0x3d42d3a6	0.047565125
78	0xbc9327c4	-0.017963298
79	0x3d32762e	0.043569736
80	0xbd235ef2	-0.03988547
81	0xbc52b7f8	-0.012861244
82	0xbd7f73a4	-0.062366143
83	0x3d263d34	0.04058571
84	0x3d5fc56e	0.054631643
85	0xbd0a367e	-0.033743374
86	0xbcc2df1c	-0.023788027
87	0xbbe549b0	-0.0069973096
88	0x3cca4470	0.024690837
89	0xbd0a1ec4	-0.033720747
90	0xbcf9b2bc	-0.030480735
91	0x3c2c24a8	0.010506786
92	0xbcae05b4	-0.021242954
93	0x3cf8fb94	0.0303934
94	0xbd5e65ae	-0.054296188
95	0x3d470014	0.04858406
96	0xbcc0f3a4	-0.023553677
97	0x3d4aa2e6	0.04947176
98	0xbd07c772	-0.03314919
99	0xbc93f3c8	-0.01806058
100	0xbc5d1dd0	-0.013495877
101	0xbd634ec2	-0.05549503
102	0x3d283932	0.04107017
103	0x3cdd7e74	0.027037837
104	0x3a356600	0.0006919801
105	0x3c5a1988	0.013311751
106	0xbd281e9a	-0.04104481
107	0xbd2a5b10	-0.04159075
108	0x3d6dc494	0.0580488
109	0xbcbf698c	-0.023365758
110	0x3ce9d66c	0.028544627
111	0xbd40323a	-0.0469229
112	0x3cac7b70	0.021054953
113	0x3d313176	0.04326006
114	0x3d1f182c	0.03884141
115	0xbbedc6d0	-0.0072563663
116	0xbd47ff86	-0.04882767
117	0x3d14ceaa	0.036329903
118	0xbd14b528	-0.036305577
119	0x3ccef924	0.025265284
120	0xbd1efc9c	-0.038815126
121	0x3c9882e0	0.018617094
122	0xbd790e02	-0.060804375
123	0x3d2d1552	0.04225666
124	0xbccf721c	-0.025322966
125	0xbd045c1a	-0.032314397
126	0xbd29fa6c	-0.041498587
127	0xbcc03b50	-0.023465782
128	0x3d05eb30	0.032694995
129	0xbccecdc0	-0.025244594
130	0x3d0e146c	0.034687445
131	0x3c9f9adc	0.019483022
132	0xbd13e878	-0.03611037
133	0x3ca6e660	0.020373523
134	0x3cf56c94	0.029959
135	0x3c431730	0.011907384
136	0xbd4142ae	-0.04718273
137	0xbd0dc80a	-0.0346146
138	0xbb697c40	-0.0035627037
139	0x3ceae4e4	0.028673597
140	0xbb669660	-0.0035184845
141	0xbb809930	-0.0039245114
142	0xbc4f18e0	-0.012640208
143	0x3c1f8208	0.009735592
144	0xbcbb9088	-0.022896066
145	0x3d793630	0.060842693
146	0xbc457370	-0.012051448
147	0x3bd8db90	0.0066179708
148	0x3d6cd554	0.057820633
149	0xbd4b9cd2	-0.049710102
150	0xbd1cedd0	-0.038312733
151	0x3ca92504	0.020647533
152	0xbd2b4b9c	-0.041820154
153	0xbbb1b5f0	-0.0054233
154	0xbd7b48fe	-0.061348908
155	0x3d366d32	0.04453773
156	0x3d180706	0.037116073
157	0x3c98aaa8	0.018636063
158	0x3cf03608	0.02932264
159	0xbc98859c	-0.018618397
160	0xbccad52c	-0.024759851
161	0xbd3ffe7a	-0.046873547
162	0xbd0a2bb0	-0.03373307
163	0xbd6ecbc6	-0.058299802
164	0xbc6a6ca8	-0.014308132
165	0x3d459762	0.048240073
166	0xbd18dcda	-0.037319995
167	0x3d751740	0.059836626
168	0xbd311fc0	-0.04324317
169	0x3c0c4800	0.008562088
170	0x3d2e344e	0.04253035
171	0xbc874110	-0.016510516
172	0xbd3ae57e	-0.045629017
173	0xbd42e004	-0.04757692
174	0x3c6d4db0	0.014483854
175	0xbd5b9b86	-0.053615116
176	0xbd6de676	-0.058081113
177	0xbd4f2d2e	-0.050580196
178	0xbd6b6f48	-0.057479173
179	0xbbe0f630	-0.0068652853
180	0xbd0cffb2	-0.034423538
181	0x3d5d7816	0.0540696
182	0x3d0b827c	0.034059986
183	0x3be1e230	0.0068934187
184	0x3d618bbc	0.0550649
185	0x3c7c6d08	0.015406854
186	0x3d1e5b34	0.038661197
187	0x3d5bec00	0.053691864
188	0x3d139724	0.03603281
189	0x3cc1baa4	0.023648567
190	0xbd62cefe	-0.055373184
191	0xbd13d7bc	-0.036094412
192	0xbd37a51e	-0.044835202
193	0xbd343d6e	-0.044003896
194	0x3bd8f500	0.006621003
195	0x3d3f0b88	0.046641856
196	0x3cba4b1c	0.022740893
197	0xbd01260a	-0.031530418
198	0xbd7224bc	-0.059117064
199	0x3cd4feb4	0.026000358
200	0x3cbdd6e8	0.023173764
201	0x3d72ab7e	0.05924558
202	0x3bbe1a70	0.0058014914
203	0xba1c7c80	-0.00059694797
204	0xbcdf7f38	-0.027282342
205	0x3c872ae8	0.016499951
206	0xbc0c2828	-0.008554496
207	0x3d2aee16	0.041730963
208	0xbd4f1a7c	-0.050562367
209	0xbd439138	-0.047745913
210	0xbc306c48	-0.010768004
211	0x3c96d628	0.018412665
212	0x3d134076	0.035950147
213	0xbd3e24d2	-0.046421833
214	0xbd5f7676	-0.054556333
215	0x3c7fa640	0.015603602
216	0xbcdc1614	-0.026865996
217	0x3c286888	0.010278828
218	0xbc99f120	-0.018791735
219	0x3c431030	0.011905715
220	0x3a8191c0	0.0009885356
221	0xbd406dea	-0.046979822
222	0x3c062258	0.008186899
223	0x3c93c978	0.018040404
224	0xbd23388c	-0.03984885
225	0xbd372c76	-0.044720136
226	0xbd08df88	-0.0334163
227	0xbcc824cc	-0.024431609
228	0x3c6b7370	0.014370784
229	0x3ccc47e4	0.024936624
230	0x3d538fb6	0.051650725
231	0x3c08c1a0	0.008346945
232	0x3ca599f8	0.02021502
233	0xbd45b3d0	-0.048267186
234	0xbad32ac0	-0.0016110763
235	0xbd0a8412	-0.03381736
236	0x3b9c3a70	0.0047677085
237	0xbcaa2500	-0.020769596
238	0xbc98c164	-0.018646903
239	0xbad4c180	-0.0016231984
240	0xbcb7a8ac	-0.022419296
241	0xbd244968	-0.04010907
242	0xbd78cad0	-0.060740292
243	0x3affb5c0	0.0019509122
244	0x3d447430	0.047962368
245	0xbce231f4	-0.02761171
246	0xbce2b6ec	-0.027675115
247	0x3d14255e	0.03616845
248	0x3d6ac14e	0.057313256
249	0xbcc2f51c	-0.023798518
250	0xbd54beec	-0.05193989
251	0xbd6bdbf4	-0.05758281
252	0xbc4c4588	-0.012467749
253	0x3d01ec88	0.031719714
254	0xba879e80	-0.0010346919
255	0x3d51e442	0.051243074
