ckpt/it0030000.pth (torch, 715079 bytes, 10 tensors)

policy_head.linear_1.weight f4 [256, 81]
-0.09400678 -0.3490308 0.24226695 -0.16682218 -0.31060606 -0.11496858 -0.34161037 0.29217458
0.17924102 0.5022002 0.20179075 -0.08219092 0.2973346 -0.18365748 0.02209586 -0.011603508
0.18760303 0.006854222 -0.21082489 0.18243888 -0.26902547 -0.10640153 0.34758803 -0.17599109
0.36472806 0.10542526 0.14285775 0.6094503 -0.04745611 -0.16473608 -0.2417153 -0.109546326
0.20235005 0.41831112 0.27573615 0.152463 0.27604124 -0.040469553 0.3115636 -0.46105543
0.009227652 -0.037711248 0.15530416 0.103700995 -0.003748097 0.013224925 -0.1810064 0.1616005
-0.24135458 -0.040763088 -0.10990942 -0.05148801 -0.0074413465 -0.08137972 -0.019097637 0.2543171
-0.33036315 0.03097174 -0.22622931 -0.21663588 -0.19247429 -0.35383737 0.13776904 0.23945425
0.0066385656 -0.31867477 -0.063439675 0.09046264 -0.018726647 -0.04787415 0.02909453 0.12962456
-0.09144854 0.1674549 -0.26367852 0.14992906 0.062910475 -0.024305807 0.4849718 -0.1222532
-0.17262869 -0.011754617 -0.16849263 -0.30895704 0.44028494 0.43494588 -0.22273612 -0.03844651
-0.10886136 0.5561364 -0.3746144 -0.42606655 0.09753681 -0.1575542 0.05071109 -0.30435213
0.58158195 -0.13932563 0.18311366 -0.1191591 0.13685054 0.37511486 -0.31707248 -0.26239565
-0.07508219 0.16447549 -0.18853465 0.019082662 -0.21142128 -0.17458026 0.09918472 -0.45099908
0.34135172 -0.40695694 -0.23579295 -0.008066287 -0.34120482 0.06899615 -0.1829123 0.15225829
0.03840094 -0.06060135 0.09087782 -0.179634 -0.11173702 -0.03523233 -0.03021395 -0.21890843
0.034719758 0.20105596 -0.101877935 -0.081596784 0.058446515 -0.08627472 -0.07088841 0.38648897
-0.45507213 -0.420654 0.032747168 0.14412148 0.15431866 -0.28454918 0.0096298475 -0.25621006
0.01377519 -0.10520365 0.062742375 0.010308956 0.044760283 -0.026103295 -0.05685374 0.25555354
-0.020240748 -0.12089301 -0.37144476 -0.06140769 0.24784175 -0.02053825 0.0051080636 -0.3044274
-0.06333682 -0.1777182 0.099585734 -0.49425685 -0.26651216 0.26797372 0.23361945 -0.17504951
-0.17717062 -0.30346432 -0.18151501 -0.2724004 -0.12602176 -0.106842354 0.2666992 -0.12546852
-0.08325185 0.1468758 -0.18174376 -0.016274005 -0.34654516 0.36082506 0.10158029 0.33226168
-0.30841324 0.11849293 -0.21983051 0.058256634 0.2734452 0.264213 0.20371482 -0.25182554
0.1799342 0.17658283 -0.14543998 0.24810944 0.04257704 0.16023129 0.43030694 0.019835155
0.038437515 -0.0048428834 -0.08090097 0.03437708 0.28139147 0.02397542 -0.12856866 -0.15672112
0.14863351 0.3392235 0.20071754 -0.086351305 0.045712713 -0.17491134 0.11809414 0.07818015
0.070396066 0.10440147 0.15801421 -0.20441958 0.0844941 -0.32801592 -0.123305246 0.08247269
-0.24539271 0.36986947 0.15833417 0.17744957 -0.24464785 -0.0016183358 -0.0014491386 0.048086714
-0.039184492 0.029349381 -0.01781297 0.22783715 0.15961048 0.14551094 0.0135280015 0.12709542
0.08747701 0.0011281344 -0.082691975 0.040126957 -0.03431546 -0.3528525 0.74771065 -0.03827038
0.18210739 0.34536868 0.4289569 0.2170577 -0.476437 -0.05933682 0.56631905 -0.12509695
00000000: a086 c0bd 2ab4 b2be d414 783e 6fd3 2abe
00000010: c207 9fbe a674 ebbd 8ee7 aebe e897 953e
00000020: f58a 373e 3190 003f 3ca2 4e3e b753 a8bd
00000030: 3e3c 983e b510 3cbe 6102 b53c a41c 3ebc
00000040: 021b 403e 6299 e03b 7be2 57be 42d1 3a3e
00000050: b5bd 89be 0ce9 d9bd 0ff7 b13e 0237 34be
00000060: a3bd ba3e 33e9 d73d 4d49 123e ef04 1c3f
00000070: 5761 42bd 93b0 28be 3784 77be d359 e0bd
00000080: da34 4f3e e02c d63e 4a2d 8d3e 431f 1c3e
00000090: 4755 8d3e 67c3 25bd 4485 9f3e 750f ecbe
000000a0: 942f 173c 1c77 1abd 0e08 1f3e 3061 d43d
000000b0: a2a2 75bb 5bad 583c be59 39be 9a7a 253e
000000c0: a825 77be 32f7 26bd 3118 e1bd 17e5 52bd
000000d0: 8ad6 f3bb 69aa a6bd a672 9cbc da35 823e
000000e0: 5c25 a9be 72b8 fd3c a8a8 67be ccd5 5dbe
000000f0: fb17 45be 2c2a b5be 5413 0d3e 7f33 753e
00000100: 5388 d93b 5729 a3be a9ec 81bd 7a44 b93d
00000110: a068 99bc af17 44bd a757 ee3c 4dbc 043e
00000120: 5f49 bbbd 4c79 2b3e df00 87be 0187 193e
00000130: 35d7 803d f91c c7bc 394e f83e e35f fabd
00000140: 93c5 30be 7096 40bc 5589 2cbe 9e2f 9ebe
00000150: 076d e13e 3ab1 de3e f014 64be 167a 1dbd
00000160: b4f2 debd f55e 0e3f 75cd bfbe 6525 dabe
00000170: 61c1 c73d e355 21be 6fb6 4f3d 0bd4 9bbe
00000180: 8ee2 143f 61ab 0ebe 2682 3b3e b009 f4bd
00000190: 8c22 0c3e 0e0f c03e 5357 a2be b958 86be
000001a0: b1c4 99bd 436c 283e 3a0f 41be 3e53 9c3c
000001b0: d27e 58be 2bc5 32be 5c21 cb3d 5ae9 e6be
000001c0: a7c5 ae3e a95c d0be b573 71be 7628 04bc
000001d0: 66b2 aebe da4d 8d3d 5d4d 3bbe 99e9 1b3e
000001e0: 4e4a 1d3d 1f39 78bd 271e ba3d faf1 37be
000001f0: 61d6 e4bd c74f 10bd 3f83 f7bc 8829 60be
00000200: 4e36 0e3d 9de1 4d3e 61a5 d0bd 371c a7bd
00000210: 9d65 6f3d cdb0 b0bd f12d 91bd e2e1 c53e
00000220: 37ff e8be f65f d7be e521 063d 9594 133e
00000230: b605 1e3e 6eb0 91be 82c6 1d3c f72d 83be
00000240: 56b1 613c 0375 d7bd 137f 803d e5e6 283c
00000250: 8f56 373d 94d6 d5bc 78df 68bd ead7 823e
00000260: edcf a5bc c196 f7bd 022e bebe a186 7bbd
00000270: 3aca 7d3e d53f a8bc 8b61 a73b e8dd 9bbe
00000280: bcb6 81bd c3fb 35be 9bf3 cb3d 3c0f fdbe
00000290: 4874 88be da33 893e f039 6f3e 2e40 33be
000002a0: 376c 35be ad5f 9bbe 12df 39be 1178 8bbe
000002b0: d90b 01be 2ad0 dabd cc8c 883e d27a 00be
000002c0: f27f aabd 9c66 163e 091b 3abe 1051 85bc
000002d0: 5e6e b1be 10be b83e 5409 d03d 341e aa3e
000002e0: 57e8 9dbe 6cac f23d 401b 61be 829e 6e3d
000002f0: 0201 8c3e ed46 873e 9e9a 503e 47ef 80be
00000300: ac40 383e 21d2 343e 38ee 14be 6710 7e3e
00000310: 4365 2e3d ac13 243e 3151 dc3e 567d a23c
00000320: a870 1d3d 0db1 9ebb 68af a5bd fbce 0c3d
00000330: 8b12 903e 1a68 c43c 81a7 03be 807b 20be
00000340: 6233 183e b4ae ad3e e688 4d3e f4d8 b0bd
00000350: 413d 3b3d f51b 33be 57db f13d ea1c a03d
00000360: d02b 903d 70d0 d53d 7ace 213e 5e53 51be
00000370: 3e0b ad3d b4f1 a7be 7687 fcbd 71e7 a83d
00000380: 3a48 7bbe 885f bd3e 5a22 223e 57b5 353e
00000390: f784 7abe 571e d4ba 06f1 bdba 93f6 443d
000003a0: eb7f 20bd 1d6e f03c 81ec 91bc 244e 693e
000003b0: ee70 233e d200 153e 8da4 5d3c 4d25 023e
000003c0: 2627 b33d e9dd 933a 695a a9bd 2a5c 243d
000003d0: 5e8e 0cbd 15a9 b4be f769 3f3f 67c1 1cbd
000003e0: 5c7a 3a3e 2ad4 b03e 3da0 db3e 6044 5e3e
000003f0: 8def f3be 2a0b 73bd 49fa 103f 6a19 00be

policy_head.linear_1.bias f4 [256]
0.32775745 -0.39386404 0.23638366 0.47550178 0.24248466 -0.37859073 0.38170975 0.014640439
0.33623353 0.2857392 -0.22672246 0.16858153 -0.0072802403 -0.019185096 -0.34779066 0.35826376
0.09621872 0.057104476 -0.31948328 -0.017945211 0.35919702 -0.13785812 0.10913964 -0.32534158
0.17377402 -0.23271182 0.29243058 -0.028537309 0.37977353 0.031885054 0.102931105 -0.22864625
-0.5581163 -0.25896347 -0.44824034 -0.20278955 0.1385627 0.11906427 -0.40971527 -0.092703044
-0.28735587 -0.48579946 -0.38250038 -0.15529282 0.24172707 0.5115543 -0.17653462 0.08880755
-0.15280372 0.12954837 0.29800862 -0.119488284 0.19960241 0.13796969 0.015862584 -0.12840912
-0.10587846 0.34034532 -0.18768032 0.0945046 -0.10398106 0.32939827 -0.2602083 -0.20484255
-0.05752539 0.07806848 0.16484612 -0.3773423 -0.007480943 -0.4910829 0.23168495 -0.4763156
-0.26815638 0.40720123 -0.41904473 -0.21675079 0.23928201 -0.6010218 0.1946967 0.114380166
-0.18176381 -0.008803674 0.19683196 -0.17083833 -0.39105234 0.28197238 -0.20521791 -0.32216087
-0.1425542 -0.26476467 -0.15356484 -0.2416955 0.41711614 0.07455239 -0.29874957 0.16292116
0.12928505 -0.39773384 0.06590272 0.17099652 0.2691208 0.023871085 -0.04189652 0.06724082
0.37663653 -0.20050134 0.09777564 -0.12129423 -0.11880408 0.055832844 -0.036722563 0.10044421
0.11371178 -0.027917737 0.019212926 0.12260236 0.0002644802 -0.06242093 -0.27066335 0.24288025
-0.34653017 0.25906944 -0.20006995 0.2893309 0.07790416 0.15440287 0.18886878 -0.16449457
-0.060230166 -0.16435076 -0.22438431 0.2596822 0.022210047 0.15427808 0.359974 0.07430299
0.12088768 0.2138501 -0.5025117 0.10429135 -0.12660484 0.12157612 0.30499214 -0.08985377
-0.20923787 -0.16320302 -0.28408086 -0.08736751 -0.28259343 0.023736348 0.40369865 -0.15318178
0.15816736 0.284633 0.172512 -0.16996548 0.22578639 0.047354463 -0.110589884 -0.084466554
-0.082935415 0.13369837 0.023692457 -0.2266094 0.2921476 -0.30568916 0.4476288 0.023981646
0.4136449 -0.180789 -0.49590474 0.014626894 0.08079139 0.09147462 -0.37275115 -0.4229005
-0.09344894 -0.10630644 0.21080747 0.06724674 -0.0117655825 0.071555436 0.16734678 0.53911215
0.2319728 -0.38474804 0.12557502 0.18407512 -0.22808376 -0.19578528 0.15906632 -0.19577825
-0.51531476 -0.3538686 0.02329081 0.28812224 0.09877604 -0.042464025 0.3929828 -0.08744036
0.5192554 0.068019815 0.2942913 0.32648757 -0.22586599 -0.04491108 -0.29302242 -0.042408463
0.0024397776 0.03377872 -0.2644126 0.21451646 0.39940894 -0.30975157 -0.17637801 0.3652711
-0.13629991 -0.26398033 -0.18723011 0.19333757 -0.04154347 0.1349311 0.24397779 -0.45550144
0.50305325 -0.2541566 0.16673873 0.015388799 0.1542429 -0.017103544 0.29028958 0.38272494
-0.17701165 0.3978634 -0.07436231 -0.17519079 -0.06894744 0.035228062 -0.09737201 -0.23166001
0.4074625 0.3078917 -0.49968076 -0.027309237 -0.07475675 -0.04321877 0.15196538 -0.115549505
-0.18984087 0.23755448 0.11894692 -0.16869836 -0.11810769 0.24650335 0.05626987 -0.03421014
00000000: d3cf a73e 8ca8 c9be 8f0e 723e f874 f33e
00000010: e64d 783e a5d6 c1be 766f c33e 74de 6f3c
00000020: cd26 ac3e 694c 923e ef29 68be a3a0 2c3e
00000030: 158f eebb 102a 9dbc 9e11 b2be 596e b73e
00000040: 520e c53d 62e6 693d 5093 a3be d601 93bc
00000050: ace8 b73e ae2a 0dbe 9b84 df3d 2c93 a6be
00000060: d1f1 313e 024c 6ebe 76b9 953e 13c7 e9bc
00000070: ad71 c23e e799 023d 8bcd d23d 3e22 6abe
00000080: b6e0 0ebf dc96 84be c27f e5be 10a8 4fbe
00000090: 61e3 0d3e f8d7 f33d 33c6 d1be 18db bdbd
000000a0: 4f20 93be b5ba f8be 17d7 c3be 1505 1fbe
000000b0: 4d87 773e 39f5 023f 7ec5 34be bce0 b53d
000000c0: 9478 1cbe 54a8 043e 9694 983e 46b6 f4bd
000000d0: 9364 4c3e ed47 0d3e 40f2 813c ae7d 03be
000000e0: ced6 d8bd be41 ae3e 452f 40be a18b c13d
000000f0: 06f4 d4bd e4a6 a83e 063a 85be 3fc2 51be
00000100: be9f 6bbd 5ee2 9f3d 6ccd 283e 0333 c1be
00000110: b322 f5bb 386f fbbe d23e 6d3e a3df f3be
00000120: cb4b 89be ae7c d03e 088d d6be ebf3 5dbe
00000130: 5806 753e 91dc 19bf 925e 473e 2640 ea3d
00000140: 4b20 3abe 493d 10bc 518e 493e 3ef0 2ebe
00000150: 0338 c8be af5e 903e a524 52be 45f2 a4be
00000160: baf9 11be 3c8f 87be 1a40 1dbe 067f 77be
00000170: 3f90 d53e ecae 983d b4f5 98be ced4 263e
00000180: 4d63 043e c5a3 cbbe 01f8 863d b619 2f3e
00000190: 34ca 893e 4b8d c33c af9b 2bbd 8eb5 893d
000001a0: 81d6 c03e 3950 4dbe 983e c83d 1c69 f8bd
000001b0: 8e4f f3bd fbb0 643d 666a 16bd b2b5 cd3d
000001c0: b9e1 e83d bdb3 e4bc 6d64 9d3c f216 fb3d
000001d0: eea9 8a39 17ad 7fbd 6394 8abe 9ab5 783e
000001e0: 676c b1be c0a4 843e 23df 4cbe 2e23 943e
000001f0: 378c 9f3d c91b 1e3e d166 413e 4471 28be
00000200: e8b3 76bd 914b 28be 00c5 65be 11f5 843e
00000210: d8f1 b53c 13fb 1d3e 834e b83e 2b2c 983d
00000220: f693 f73d 85fb 5a3e 9ba4 00bf b496 d53d
00000230: b3a4 01be e7fc f83d ee27 9c3e 4105 b8bd
00000240: 7442 56be b11e 27be 0c73 91be bded b2bd
00000250: 16b0 90be bb72 c23c 97b1 ce3e afdb 1cbe
00000260: a0f6 213e 6bbb 913e fca6 303e 6e0b 2ebe
00000270: 8c34 673e c1f6 413d f37c e2bd cdfc acbd
00000280: 0bda a9bd 3ae8 083e af16 c23c 4b0c 68be
00000290: 5f94 953e 4a83 9cbe 9a2f e53e 2875 c43c
000002a0: 44c9 d33e c020 39be 3ae7 fdbe a4a5 6f3c
000002b0: f575 a53d 0c57 bb3d 3dd9 bebe 6a86 d8be
000002c0: 2862 bfbd 31b7 d9bd eadd 573e a9b8 893d
000002d0: 6ec4 40bc a88b 923d f45c 2b3e 4103 0a3f
000002e0: 478a 6d3e b2fd c4be bd96 003e 307e 3c3e
000002f0: ca8e 69be f07b 48be 48e2 223e 187a 48be
00000300: abeb 03bf 442e b5be 5ecc be3c c284 933e
00000310: 184b ca3d c2ee 2dbd 0b35 c93e ee13 b3bd
00000320: eced 043f f94d 8b3d 59ad 963e 6129 a73e
00000330: 6a49 67be aef4 37bd 0907 96be 7fb4 2dbd
00000340: ade4 1f3b 8e5b 0a3d 1761 87be 34aa 5b3e
00000350: 547f cc3e c297 9ebe 709c 34be d004 bb3e
00000360: 3492 0bbe 6e28 87be 40b9 3fbe 49fa 453e
00000370: 7c29 2abd 612b 0a3e 50d5 793e 7c37 e9be
00000380: 19c8 003f d020 82be 8fbd 2a3e 4d21 7c3c
00000390: daf1 1d3e bb1c 8cbc d6a0 943e 86f4 c33e
000003a0: 8b42 35be c0b4 cb3e 444b 98bd 3765 33be
000003b0: 5134 8dbd 4d4b 103d fa6a c7bd 4838 6dbe
000003c0: ed9e d03e fba3 9d3e 28d6 ffbe 9fb7 dfbc
000003d0: 111a 99bd 2a06 31bd d09c 1b3e 38a5 ecbd
000003e0: a565 42be 7b41 733e 719a f33d 43bf 2cbe
000003f0: 72e2 f1bd 606b 7c3e 3c7b 663d ef1f 0cbd

policy_head.pos_embed.weight f4 [256, 1]
0.16736186 0.24900256 0.05130953 -0.32798204 -0.30208725 0.08686176 -0.23502938 0.1372161
-0.15177453 0.3388984 -0.39620405 0.19385815 0.44968304 0.4195143 -0.024740776 0.119097374
-0.47298524 -0.16803074 0.0859403 0.29247865 -0.334137 -0.41867527 0.46479443 0.21849856
0.28198305 0.05812232 -0.0010358136 0.12952994 0.17453128 0.08223798 -0.3014362 -0.033378597
0.20722999 0.3910798 0.32759926 -0.24839342 0.009996727 0.36850575 0.12165074 -0.097526714
0.2654359 0.19861598 0.17407954 0.44585323 0.16126716 -0.09248718 -0.3051453 -0.25039634
-0.027349439 0.38720825 -0.6135702 -0.13627821 0.3827708 0.15622294 -0.17591985 0.3787813
0.20974693 -0.06282326 0.14894336 0.48426834 0.3841182 0.2627856 0.39552134 -0.055144936
0.1824656 0.38220116 0.36348587 0.48730063 -0.25065917 0.35083598 -0.4663053 0.18265724
0.25268728 -0.056817286 0.24311203 0.14951238 0.11749811 0.4611811 0.39361483 0.23321004
-0.36336786 -0.40396616 0.036746684 -0.15783402 0.13299759 0.27638748 -0.22827159 -0.015055965
-0.023028536 0.22765514 0.513191 0.022598548 -0.074587956 0.24934436 0.52266014 0.35499367
0.21028605 0.0049130055 -0.22484306 0.29206213 0.08134208 0.08456154 -0.32381704 0.1610668
0.04244697 -0.10172556 0.07210579 0.14121097 0.10025247 -0.06159442 -0.13074371 -0.2550593
0.47439158 -0.2515373 0.05239006 -0.17211862 0.35284632 0.41427985 -0.12840514 -0.4550278
0.31610715 0.12777987 -0.054307558 0.008014579 -0.53996485 0.2996259 0.18548018 0.3949889
-0.005082983 -0.4125315 0.07238072 -0.25341392 0.4879096 0.28717116 -0.039001796 0.09254657
-0.31797224 -0.37910572 0.25269118 0.28235176 0.044140294 0.011891412 -0.0784065 0.44425553
0.46402118 -0.15800789 -0.27080697 -0.408934 -0.09532319 -0.11500628 -0.02584758 0.20344216
0.121351086 -0.2250887 0.32543457 -0.073141105 0.23328204 0.20562111 -0.17084235 -0.098807015
-0.49288827 0.3148658 -0.37196553 0.40006799 -0.01723525 0.028053379 -0.3395434 0.40992185
-0.3964375 0.65838605 0.14181273 -0.016111266 0.40538502 -0.46522555 0.06539948 0.20610206
-0.3812551 0.137652 0.07420574 -0.036418997 0.03425173 -0.5333962 -0.15958379 -0.45852906
0.025729984 -0.14915602 -0.3868795 0.53151995 -0.45520246 0.33008215 -0.015076745 0.08362181
0.5257232 0.20755798 0.097976714 -0.047236398 0.58088905 0.2599068 -0.23051411 -0.15611419
-0.12607892 0.05536965 -0.15641318 -0.052489202 0.41281268 0.11576811 0.17881434 0.14513315
0.6864391 -0.20459948 0.36766103 0.1753612 -0.23997404 0.073420174 0.19078323 -0.008908425
-0.0146038635 0.13433918 0.18756959 0.32873014 -0.3076969 -0.0015757559 -0.2801963 0.7042234
-0.07062205 0.0420627 -0.23826212 0.17883064 -0.34839103 -0.16731274 -0.25149623 -0.21661752
-0.50594926 -0.038409498 0.363447 0.20418732 -0.33915967 0.40988854 -0.7046916 -0.39385238
-0.19952457 0.30081505 0.29133245 0.4122498 0.24870488 0.31501877 -0.016557736 -0.06931572
0.3149234 0.31217358 -0.36363804 0.4070835 0.32548285 -0.008777112 0.31617633 0.03153643
00000000: e860 2b3e 87fa 7e3e f129 523d 43ed a7be
00000010: 2eab 9abe 94e4 b13d 8bab 70be 6182 0c3e
00000020: c86a 1bbe 1784 ad3e 42db cabe c082 463e
00000030: db3c e63e 94ca d63e 2bad cabc 53e9 f33d
00000040: 1f2b f2be 4010 2cbe 7801 b03d c3bf 953e
00000050: 0114 abbe 9b5c d6be 89f9 ed3e 16be 5f3e
00000060: 1560 903e ab11 6e3d 23c4 87ba 7fa3 043e
00000070: 54b8 323e 636c a83d d855 9abe ffb7 08bd
00000080: 1934 543e 9d3b c83e 17bb a73e d85a 7ebe
00000090: 50c9 233c c9ac bc3e 0624 f93d 16bc c7bd
000000a0: 37e7 873e fd61 4b3e e841 323e e046 e43e
000000b0: 3823 253e eb69 bdbd 013c 9cbe f333 80be
000000c0: ee0b e0bc 2940 c63e f012 1dbf 848c 0bbe
000000d0: 89fa c33e e8f8 1f3e 5524 34be 9fef c13e
000000e0: e6c7 563e 7ba9 80bd 9c84 183e 05f2 f73e
000000f0: 24ab c43e d68b 863e c681 ca3e a8df 61bd
00000100: 43d8 3a3e dfaf c33e d21a ba3e 787f f93e
00000110: 6656 80be c6a0 b33e 91bf eebe 800a 3b3e
00000120: 3a60 813e 3eb9 68bd 5cf2 783e c619 193e
00000130: d9a2 f03d ee1f ec3e e287 c93e 9dce 6e3e
00000140: 5a0b babe a7d4 cebe b183 163d 3e9f 21be
00000150: 8530 083e a982 8d3e 07c0 69be 4bad 76bc
00000160: 57a6 bcbc 6e1e 693e 7c60 033f 9720 b93c
00000170: 92c1 98bd 2154 7f3e 0ecd 053f bbc1 b53e
00000180: 3a55 573e 47fd a03b 423d 66be 2b89 953e
00000190: ad96 a63d 9a2e ad3d 59cb a5be b2ee 243e
000001a0: e0dc 2d3d 7e55 d0bd 33ac 933d 9c99 103e
000001b0: 2b51 cd3d 6e4a 7cbd aee1 05be 2297 82be
000001c0: 74e3 f23e 7fc9 80be f696 563d dd3f 30be
000001d0: 46a8 b43e 7d1c d43e a37c 03be 67f9 e8be
000001e0: ccd8 a13e bad8 023e 9a71 5ebd 954f 033c
000001f0: 233b 0abf 9168 993e 84ee 3d3e fc3b ca3e
00000200: 278f a6bb 5437 d3be 583c 943d 78bf 81be
00000210: 49cf f93e 1908 933e 59c0 1fbd 0e89 bd3d
00000220: 42cd a2be 251a c2be bd60 813e 6990 903e
00000230: 74cc 343d 32d4 423c 9693 a0bd 7675 e33e
00000240: 2f94 ed3e d2cc 21be 36a7 8abe cc5f d1be
00000250: ce38 c3bd 6a88 ebbd 4ebe d3bc 2453 503e
00000260: eb86 f83d a77d 66be 5c9f a63e 01cb 95bd
00000270: 7de1 6e3e 578e 523e 4cf1 2ebe 555b cabd
00000280: da5b fcbe 1736 a13e 4472 bebe b6d5 cc3e
00000290: f030 8dbc 33d0 e53c a2d8 adbe 47e1 d13e
000002a0: dbf9 cabe fd8b 283f 5b37 113e c6fb 83bc
000002b0: a08e cf3e 0b32 eebe 2af0 853d 6b0c 533e
000002c0: de33 c3be a5f4 0c3e 2ef9 973d 162c 15bd
000002d0: 8b4b 0c3d a78c 08bf ef69 23be 52c4 eabe
000002e0: b0c7 d23c 5bbc 18be 1215 c6be b111 083f
000002f0: 4c10 e9be 8700 a93e 7404 77bc e941 ab3d
00000300: cc95 063f 148a 543e 04a8 c83d f47a 41bd
00000310: 25b5 143f 8112 853e e40b 6cbe 66dc 1fbe
00000320: d51a 01be 49cb 623d c72a 20be ebfe 56bd
00000330: 2f5c d33e d517 ed3d 1b1b 373e c99d 143e
00000340: 79ba 2f3f 8782 51be 113e bc3e e391 333e
00000350: c1bb 75be 515d 963d ae5c 433e a5f4 11bc
00000360: 0b45 6fbc 3690 093e 3e12 403e 514f a83e
00000370: 738a 9dbe 9889 ceba e475 8fbe fc47 343f
00000380: 4ba2 90bd f049 2c3d fcfa 73be 611f 373e
00000390: 4f60 b2be 0854 2bbe 1dc4 80be fcd0 5dbe
000003a0: e485 01bf 4753 1dbd ba15 ba3e 7b16 513e
000003b0: 56a6 adbe e9dc d13e ab66 34bf 05a7 c9be
000003c0: 2b50 4cbe 6e04 9a3e 8729 953e 6812 d33e
000003d0: 7eac 7e3e 244a a13e 17a4 87bc 66f5 8dbd
000003e0: a43d a13e 37d5 9f3e c42e babe 406d d03e
000003f0: b0a5 a63e e0cd 0fbc dde1 a13e 582c 013d

policy_head.pos_embed.bias f4 [256]
-0.5871629 0.316797 -0.49950406 -0.34331542 -0.03328908 0.491069 -0.24495958 -0.09570125
-0.20541395 -0.6248938 0.56368876 -0.30840588 -0.46392262 -0.40985838 0.5130815 -0.6745493
0.3092779 0.11101012 0.5160928 -0.2438008 -0.0027254035 0.58437216 -0.6321764 0.15292865
-0.6842641 0.13743937 -0.57202226 -0.046093028 -0.55663735 -0.12252784 0.12303642 0.4482655
0.50507087 0.051876932 0.31542945 0.5612026 -0.14542164 -0.6035546 0.457915 0.31563926
0.2726326 0.51281476 0.3101255 0.028810678 -0.6188594 -0.52667475 0.5536998 0.11774184
0.22562125 -0.3952831 0.29233056 0.44929507 -0.7618461 -0.42429572 0.004383077 -0.28816724
-0.124598406 -0.37986797 0.09375657 -0.7843683 -0.2149685 -0.62072307 -0.14086522 0.35435757
-0.06524657 -0.52372515 -0.63547456 0.08030627 0.2911171 0.28754675 0.22315988 0.30844072
0.19618426 -0.46800792 0.2732814 0.21307947 -0.5417062 0.22006114 -0.7061312 -0.37121364
0.528592 0.48492187 -0.2169355 0.2922261 0.29588428 -0.44534832 0.6014415 0.42272094
0.19650361 0.02113438 -0.08623393 0.23051113 -0.5329338 -0.37638623 -0.052506138 -0.67847544
-0.37902662 0.48206213 0.22571933 -0.44145933 -0.21657653 -0.093159005 0.2656962 -0.21706846
-0.51263875 0.17778163 -0.15518866 0.02678474 -0.04445144 0.119180754 0.14513521 0.17724691
-0.5994148 0.17768261 -0.08976538 0.13451129 -0.37879243 -0.46616808 0.48516163 0.28993988
0.32216784 -0.3220814 0.45277914 -0.3687416 0.48643145 -0.7153298 -0.51111454 -0.1968708
0.06300576 0.6976358 0.08963525 -0.21311377 -0.5768243 -0.6015455 -0.43564144 -0.445534
0.05326032 0.14693 0.35851085 -0.46341202 0.108279794 -0.1533551 -0.28816092 -0.0380731
-0.27581054 0.4974624 0.69644326 0.46999836 0.5898543 0.15573834 -0.5824674 0.009773224
-0.5647087 -0.24969737 -0.50739884 0.13208202 -0.67694724 -0.24523263 0.3859082 0.011839905
0.56041807 -0.4299555 0.40701467 -0.011944336 -0.6468489 0.37395003 -0.34788936 -0.51929975
-0.17531854 -0.36413112 0.44910032 0.019966265 -0.58505726 0.47463012 0.44819656 0.31458652
0.50913984 0.021790031 -0.39745688 -0.19511992 -0.0677941 0.5985403 -0.14759536 -0.21804878
-0.360315 0.52876353 0.26629508 -0.80625075 0.7065503 0.058419783 -0.20831439 0.3288118
-0.0064112404 0.3068465 -0.10273444 -0.29142618 -0.70757776 -0.19216517 -0.31784037 0.25106034
-0.47426546 -0.06279143 -0.20905821 -0.25410408 -0.035232086 -0.097321525 0.25933054 0.086451136
-0.8545271 0.20597586 0.010283695 -0.3570619 -0.30720264 0.17505753 0.0004402331 -0.56873703
0.46432865 0.071370035 0.1741269 -0.55323243 0.45230538 -0.1701426 0.038644545 -0.03777092
-0.548178 0.30816907 0.0045306995 -0.45367983 0.14217809 0.30922076 -0.015622205 -0.3369068
0.69384545 -0.6069769 -0.24376851 0.20880975 0.62059724 -0.6547915 0.92793757 0.71317303
-0.44341913 -0.6236784 0.49570197 -0.29457095 -0.3517737 -0.37546045 -0.15397683 0.19052684
-0.018294057 -0.55083835 0.31481525 -0.25209048 0.04798369 -0.29954663 -0.41713643 -0.16620612
00000000: 4f50 16bf 3733 a23e ffbe ffbe 0ac7 afbe
00000010: 215a 08bd 656d fb3e afd6 7abe 04ff c3bd
00000020: 0958 52be 0af9 1fbf e84d 103f 60e7 9dbe
00000030: 4487 edbe f5d8 d1be 4f59 033f 43af 2cbf
00000040: ac59 9e3e 4659 e33d a81e 043f eba6 79be
00000050: af9c 32bb 6a99 153f 50d6 21bf 5499 1c3e
00000060: ef2b 2fbf e8bc 0c3e 0d70 12bf 0bcc 3cbd
00000070: c97f 0ebf e0ef fabd 85fa fb3d 0e83 e53e
00000080: 534c 013f e87c 543d f87f a13e f9aa 0f3f
00000090: 69e9 14be 8e82 1abf d673 ea3e 789b a13e
000000a0: 8096 8b3e d447 033f c5c8 9e3e 5f04 ec3c
000000b0: 926d 1ebf 28d4 06bf 45bf 0d3f a222 f13d
000000c0: 4209 673e 8c62 cabe 5aac 953e 010a e63e
000000d0: 5908 43bf 4a3d d9be ea9f 8f3b a88a 93be
000000e0: 732d ffbd 0e7e c2be 7203 c03d 5ccc 48bf
000000f0: b420 5cbe b5e7 1ebf f93e 10be 5b6e b53e
00000100: fe9f 85bd da12 06bf 76ae 22bf 9d77 a43d
00000110: 4d0d 953e 5439 933e 0684 643e f1eb 9d3e
00000120: 87e4 483e bc9e efbe 8aeb 8b3e 8131 5a3e
00000130: 42ad 0abf b557 613e 04c5 34bf b70f bebe
00000140: ce51 073f ae47 f83e 5724 5ebe a99e 953e
00000150: 257e 973e b204 e4be 12f8 193f e16e d83e
00000160: 3e38 493e 0222 ad3c 6a9b b0bd 1c0b 6c3e
00000170: 596e 08bf b2b5 c0be ad10 57bd 91b0 2dbf
00000180: c70f c2be d9d0 f63e f822 673e f506 e2be
00000190: 3dc6 5dbe 26ca bebd 5509 883e 3247 5ebe
000001a0: 4b3c 03bf 630c 363e c7e9 1ebe ac6b db3c
000001b0: b712 36bd 0a15 f43d 539e 143e 3780 353e
000001c0: 4073 19bf 6ef2 353e e9d6 b7bd 54bd 093e
000001d0: 15f1 c1be 95ad eebe 1b67 f83e 0073 943e
000001e0: 2ff3 a43e dae7 a4be abd2 e73e b3cb bcbe
000001f0: 8b0d f93e db1f 37bf 67d8 02bf 8098 49be
00000200: 2a09 813d 4398 323f b092 b73d 7f3a 5abe
00000210: c2aa 13bf e3fe 19bf 650c dfbe 081d e4be
00000220: 7e27 5a3d d174 163e bc8e b73e 5744 edbe
00000230: ccc1 dd3d 1f09 1dbe d489 93be 8af2 1bbd
00000240: 0a37 8dbe 64b3 fe3e 1b4a 323f a0a3 f03e
00000250: b100 173f df79 1f3e 951c 15bf df1f 203c
00000260: c090 10bf abb0 7fbe e4e4 01bf 8240 073e
00000270: 6a4c 2dbf 431e 7bbe c295 c53e 29fc 413c
00000280: 8f77 0f3f 2123 dcbe 3a64 d03e 2db2 43bc
00000290: e497 25bf 6176 bf3e 8e1e b2be d4f0 04bf
000002a0: b486 33be 656f babe 7af0 e53e 4b90 a33c
000002b0: 50c6 15bf b802 f33e 057a e53e 7c11 a13e
000002c0: fd56 023f 0281 b23c 787f cbbe 84cd 47be
000002d0: a2d7 8abd f039 193f 3d23 17be 2e48 5fbe
000002e0: 357b b8be 0c5d 073f d457 883e 7366 4ebf
000002f0: 7be0 343f 9549 6f3d 5e50 55be 055a a83e
00000300: 6215 d2bb fc1a 9d3e 6f66 d2bd d035 95be
00000310: d123 35bf f2c6 44be f9bb a2be fb8a 803e
00000320: ecd2 f2be cb98 80bd 5b13 56be ee19 82be
00000330: 854f 10bd 8250 c7bd f9c6 843e 4b0d b13d
00000340: 4ac2 5abf 56eb 523e f17c 283c d1d0 b6be
00000350: aa49 9dbe 4842 333e 16cf e639 c098 11bf
00000360: 7cbc ed3e 742a 923d 524e 323e a4a0 0dbf
00000370: 9294 e73e dd39 2ebe be49 1e3d aeb5 1abd
00000380: 6555 0cbf 56c8 9d3e 4376 943b b948 e8be
00000390: 2297 113e 2f52 9e3e 47f4 7fbc 0c7f acbe
000003a0: db9f 313f d762 1bbf 749e 79be 39d2 553e
000003b0: 76df 1e3f 6aa0 27bf 518d 6d3f 8292 363f
000003c0: d507 e3be 63a9 1fbf a6cc fd3e 01d2 96be
000003d0: af1b b4be 5a3c c0be 1aac 1dbe 7819 433e
000003e0: 6bdd 95bc be03 0dbf 772f a13e 0112 81be
000003f0: 8c8a 443d 2d5e 99be e892 d5be f031 2abe

policy_head.linear_2.weight f4 [81, 256]
-0.014264365 -0.074282736 -0.07783073 -0.008785917 -0.01725426 -0.04288017 -0.012709387 -0.04563998
-0.062043883 -0.08695852 0.024777833 -0.000119178556 -0.040057767 -0.03630843 -0.088079326 -0.015310502
-0.011431425 -0.025027653 -0.00056486 -0.07318693 -0.03632537 -0.052935425 0.024595039 0.002349133
-0.058753517 -0.01593526 -0.055300526 -0.025729956 -0.07523733 -0.07648526 -0.06927606 -0.018916698
-0.075924344 0.006056067 -0.047903266 -0.00923625 -0.009771778 -0.061968707 -0.031345244 0.02402666
-0.03603979 -0.060647067 -0.004700775 -0.08579634 -0.003966033 -0.006276279 -0.007778715 0.0008679167
-0.0608024 -0.018681664 -0.0900584 -0.00993006 0.018330062 -0.06983161 0.026824137 0.0081961425
-0.03303488 -0.04441106 -0.05005805 -0.089748695 -0.04064074 -0.03283705 -0.027494056 -0.10381256
-0.042939465 -0.09412768 -0.017739931 -0.00025719288 -0.07334527 -0.026752584 -0.053136867 -0.07898663
-0.059331313 -0.026484964 0.020422537 -0.05205373 -0.09545133 -0.07506264 0.012384306 -0.091549255
-0.017790418 -0.038353067 -0.011375045 -0.09089111 -0.04970962 0.0012957562 -0.027538082 -0.085201226
-0.032829206 -0.0592183 0.015200972 -0.010399065 -0.08158302 -0.040655836 -0.054747086 -0.042601567
0.017074056 -0.0060163825 -0.09805393 0.005929124 -0.003630061 0.007076546 -0.1203286 -0.02415866
-0.0798665 -0.02760404 -0.0595892 -0.014252821 -0.0104210805 -0.05250079 -0.048930377 -0.027200723
0.01116922 -0.037897903 -0.039330345 -0.068075 -0.06568747 -0.062814355 -0.06917907 -0.013457508
-0.016481724 -0.030510433 -0.0004780134 -0.0201626 -0.110236265 -0.00522871 0.007349666 -0.05764628
0.00040197 -0.043200284 -0.041360598 -0.09302623 0.0025403653 -0.07639892 0.0012487841 -0.014272022
-0.020369172 -0.02435815 -0.06927074 -0.08710811 -0.008444316 -0.0010541189 -0.048632544 -0.0033233433
-0.026213316 -0.030079957 0.010811171 -0.08716518 -0.06394224 -0.07630044 0.013192041 0.0221669
-0.056635745 -0.11463089 -0.10501596 0.0123741375 -0.043897066 -0.058123507 -0.101714276 -0.0755404
0.03371084 -0.04682192 -0.04580155 0.0064528324 0.024293972 -0.036595184 -0.09159179 -0.005148954
-0.046097293 -0.07771704 0.016758535 -0.01916798 -0.09832892 -0.0588383 -0.0049215313 -0.12654157
0.018320756 0.021423524 -0.08186892 -0.0837983 -0.09397217 -0.10855901 0.013997416 0.011821381
-0.07768942 -0.02013724 -0.029398441 -0.019077357 -0.04042193 -0.038835444 -0.08387535 -0.047896836
0.027039248 0.020636423 -0.097723395 0.010861203 -0.0077087153 -0.018727593 -0.077442214 -0.026935615
-0.012983384 -0.073889196 -0.08022047 -0.052690055 0.008413654 -0.0041568247 -0.10911953 -0.042407434
-0.010490024 0.018652963 0.0077315057 -0.050777283 -0.09231836 -0.062153608 0.031682044 0.0032107634
-0.069784336 -0.09130272 -0.11314677 -0.022356229 -0.072988614 -0.05384229 -0.03350091 -0.09648302
-0.002887349 -0.03639386 -0.07550403 -0.09351435 -0.036560595 -0.088164255 -0.025383884 -0.004367117
-0.028277406 -0.041714277 -0.013859934 -0.014790366 -0.034941386 -0.09628422 0.0032303382 -0.00019219663
-0.0023300974 -0.06918134 -0.055210505 -0.07492736 -0.10725158 -0.031124882 -0.042632848 -0.043909926
-0.08804492 -0.07120636 0.014504875 -0.10101714 -0.005897213 -0.072546825 -0.09958535 -0.053909454
00000000: 15b5 69bc 8c21 98bd b865 9fbd cff2 0fbc
00000010: ce58 8dbc 1ea3 2fbd 083b 50bc fdf0 3abd
00000020: ba21 7ebd 4f17 b2bd e2fa ca3c 80ef f9b8
00000030: 9d13 24bd 26b8 14bd ef62 b4bd e6d8 7abc
00000040: df4a 3bbc cb06 cdbc 1d13 14ba 07e3 95bd
00000050: e9c9 14bd d1d2 58bd 897b c93c e9f3 193b
00000060: 87a7 70bd aa8a 82bc ce82 62bd a1c7 d2bc
00000070: 0716 9abd 4ea4 9cbd 9be0 8dbd 31f7 9abc
00000080: 397e 9bbd f971 c63b 3736 44bd a453 17bc
00000090: cf19 20bc e6d2 7dbd df63 00bd 8fd3 c43c
000000a0: 759e 13bd 0f69 78bd f508 9abb feb5 afbd
000000b0: 7ff5 81bb 3fa9 cdbb 97e4 febb e784 633a
000000c0: f00b 79bd 4a0a 99bc 8a70 b8bd b1b1 22bc
000000d0: ed28 963c e003 8fbd 4bbe db3c 1d49 063c
000000e0: 954f 07bd 5fe8 35bd ab09 4dbd 2ace b7bd
000000f0: e876 26bd 2480 06bd 373b e1bc ae9b d4bd
00000100: 4be1 2fbd 03c6 c0bd 5553 91bc d8d7 86b9
00000110: 0b36 96bd 3c28 dbbc 0ba6 59bd bec3 a1bd
00000120: 6405 73bd fff6 d8bc 2a4d a73c 4b36 55bd
00000130: fd7b c3bd 71ba 99bd 8be7 4a3c 2d7e bbbd
00000140: 36bd 91bc 1b18 1dbd 665e 3abc 1e25 babd
00000150: 519c 4bbd 5dd6 a93a 8b97 e1bc fb7d aebd
00000160: eb77 06bd e38e 72bd 7f0d 793c d760 2abc
00000170: 0015 a7bd bc86 26bd 7b3e 60bd fb7e 2ebd
00000180: e4de 8b3c 1325 c5bb 80d0 c8bd 1949 c23b
00000190: 51e6 6dbb 5fe2 e73b d76e f6bd 62e8 c5bc
000001a0: 0c91 a3bd de21 e2bc ce13 74bd aa84 69bc
000001b0: 2ebd 2abc 120b 57bd 386b 48bd 0dd4 debc
000001c0: 1bff 363c d53a 1bbd db18 21bd e86a 8bbd
000001d0: 2787 86bd d0a4 80bd c2ad 8dbd e17c 5cbc
000001e0: ae04 87bc 04f1 f9bc df9d fab9 092c a5bc
000001f0: 8dc3 e1bd 9955 abbb 78d5 f03b 811e 6cbd
00000200: 80bf d239 c8f2 30bd bb69 29bd 8984 bebd
00000210: 427c 263b 0977 9cbd 3eae a33a 33d5 69bc
00000220: 40dd a6bc be8a c7bc d1dd 8dbd bd65 b2bd
00000230: 075a 0abc 5c2a 8aba eb32 47bd 73cc 59bb
00000240: 4fbd d6bc 3e6a f6bc 5621 313c a883 b2bd
00000250: 26f4 82bd 6843 9cbd 6e23 583c 5c97 b53c
00000260: e2fa 67bd 9ac3 eabd 9c12 d7bd e5bc 4a3c
00000270: 69cd 33bd ea12 6ebd 934f d0bd edb4 9abd
00000280: 6114 0a3d 57c8 3fbd 689a 3bbd 4872 d33b
00000290: 2704 c73c d5e4 15bd 7a94 bbbd 8fb8 a8bb
000002a0: 84d0 3cbd 1d2a 9fbd 3249 893c 2b06 9dbc
000002b0: ac60 c9bd 6e00 71bd cc44 a1bb 1d94 01be
000002c0: 6915 963c 6380 af3c e4aa a7bd 719e abbd
000002d0: 7b74 c0bd 3054 debd 6b55 653c 77ae 413c
000002e0: a11b 9fbd daf6 a4bc 00d5 f0bc 1e48 9cbc
000002f0: 7791 25bd ea11 1fbd d7c6 abbd 792f 44bd
00000300: 6a81 dd3c b70d a93c 3423 c8bd 30f3 313c
00000310: 6499 fcbb 9c6a 99bc 069a 9ebd 14a8 dcbc
00000320: 42b8 54bc 3853 97bd a14a a4bd 87d1 57bd
00000330: 6cd9 093c f935 88bb 0f7a dfbd 6bb3 2dbd
00000340: 5ade 2bbc 19ce 983c 9258 fd3b d7fb 4fbd
00000350: 6911 bdbd c894 7ebd 08c5 013d ac6b 523b
00000360: 17eb 8ebd ecfc babd 7eb9 e7bd 6924 b7bc
00000370: 0e7b 95bd bc89 5cbd 4038 09bd e498 c5bd
00000380: ae39 3dbb ba11 15bd dba1 9abd 7484 bfbd
00000390: 90c0 15bd 768f b4bd ddf1 cfbc 081a 8fbb
000003a0: 05a6 e7bc 97dc 2abd c714 63bc 4b53 72bc
000003b0: b31e 0fbd a930 c5bd 15b4 533b 6488 49b9
000003c0: 8cb4 18bb f2ae 8dbd 6924 62bd 8473 99bd
000003d0: b7a6 dbbd 9cf9 febc c89f 2ebd e5da 33bd
000003e0: e550 b4bd a4d4 91bd dba5 6d3c 13e2 cebd
000003f0: 683d c1bb 6e93 94bd 67f3 cbbd 29d0 5cbd

policy_head.linear_2.bias f4 [81]
0.008282746 -0.004097146 0.07364381 -0.08984508 -0.02629821 0.051671784 0.0053200135 -0.0038304303
0.0636827 -0.067168534 -0.033606246 -0.05530322 0.028633425 0.009857102 -0.04500476 -0.026869694
0.049422618 0.01132984 0.027956612 -0.003157832 -0.049566753 -0.10084699 0.01549561 0.054639157
-0.039331116 -0.022574518 0.010187025 -0.026930764 0.054366253 -0.07947461 -0.0017350232 0.0064410786
-0.015294836 -0.008182793 0.04673446 -0.04616931 -0.08715036 0.028202936 0.029732602 -0.036505617
0.032717343 -0.011205811 -0.040565107 0.006138549 0.086647615 0.033364907 0.059520233 0.021955743
0.0072689075 0.013366324 0.1008014 0.0045110206 0.021865966 0.047069795 -0.04634088 -0.060281884
0.019608842 -0.027933612 0.048507065 0.048447415 0.018629577 0.0019774258 0.04994365 -0.007423546
-0.033924893 0.06487314 0.060964055 0.07148905 0.0475248 0.05883886 -0.017769985 0.05704884
-0.036823545 0.054171674 0.051211514 0.044280812 0.039097104 0.04375387 -0.031289782 0.06789015
0.07259531
00000000: 5bb4 073c 5a41 86bb 91d2 963d b300 b8bd
00000010: 586f d7bc cba5 533d 8253 ae3b f507 7bbb
00000020: 136c 823d a88f 89bd b4a6 09bd a185 62bd
00000030: a590 ea3c af7f 213c e956 38bd d51d dcbc
00000040: 5f6f 4a3d cba0 393c 4405 e53c a1f3 4ebb
00000050: 8206 4bbd de88 cebd 4de1 7d3c 4fcd 5f3d
00000060: aa19 21bd 32ee b8bc 7be7 263c e89d dcbc
00000070: 26af 5e3d 96c3 a2bd b869 e3ba af0f d33b
00000080: 3197 7abc 1f11 06bc a26c 3f3d 081c 3dbd
00000090: e37b b2bd d809 e73c c991 f33c ea86 15bd
000000a0: 9f02 063d 9498 37bc 9927 26bd e225 c93b
000000b0: 4e74 b13d a4a9 083d 7dcb 733d 88dc b33c
000000c0: 0430 ee3b 6dfe 5a3c f770 ce3d 2fd1 933b
000000d0: 4120 b33c 42cc 403d efcf 3dbd 23ea 76bd
000000e0: b9a2 a03c 08d5 e4bc 58af 463d cc70 463d
000000f0: 0e9d 983c b397 013b b691 4c3d 3841 f3bb
00000100: d4f4 0abd 35dc 843d 72b5 793d da68 923d
00000110: 5da9 423d 0401 713d 5c92 91bc 0bac 693d
00000120: 49d4 16bd 1ee3 5d3d 2ac3 513d cc5f 353d
00000130: 4924 203d 4237 333d b729 00bd fe09 8b3d
00000140: daac 943d

value_head.in_linear.weight f4 [512, 256]
0.022177272 0.06003984 0.037059978 0.00057599694 -0.02572269 -0.041095518 0.022942893 -0.038993433
0.02041468 -0.006947629 -0.019851223 0.04749149 0.05551806 -0.005028002 -0.019226357 -0.022716485
-0.0067779943 0.00029149652 -0.04650733 -0.02854491 0.04135284 0.016327493 0.05225043 -0.0060208365
-0.014744416 -0.030239947 0.047605373 0.032165468 -0.044354476 -0.028964944 -0.02465266 -0.0061403513
-0.017142989 0.004859127 0.0308633 0.040868185 -0.04684809 0.031073883 0.038069353 0.01054208
-0.0045644417 -0.019201256 -0.033003747 0.02771762 -0.013319097 0.022651047 0.03138078 -0.041388154
0.050772525 -0.036235504 0.03540816 0.023133598 -0.032795407 -0.01981835 -0.024791062 0.029721014
-0.009564757 -0.00011251867 0.021508455 0.051519334 0.004568346 0.0057953447 -0.031234637 0.0054851994
-0.05909232 -0.033688203 -0.062262245 0.02917958 0.0183305 -0.04889913 0.03288655 -0.052363403
-0.013337448 -0.054562725 -0.05972004 0.053009808 0.012042835 -0.042319454 -0.053826936 0.05195979
-0.051881522 -0.052045666 0.025245056 -0.010164231 -0.043153696 -0.062493898 -0.040521942 -0.00037650764
0.0012245774 0.017053947 0.061560936 0.013176911 0.054919258 0.018748358 0.035129428 -0.025057025
-0.005172357 -0.0016346201 -0.03835901 -0.043213286 -0.013883837 0.028550848 0.029436238 0.005471945
-0.048167065 0.049174502 0.054358095 0.011466019 0.02895306 -0.040614627 0.00761541 -0.005655147
-0.02848804 0.06074255 -0.043008134 -0.00075499713 0.021202452 -0.030873418 0.041939877 0.026733987
0.0113988 0.025646396 -0.015831895 -0.019213505 -0.0507612 0.048662588 -0.046727657 -0.04716111
0.016214453 0.023505196 0.02157481 0.024880372 -0.013677105 -0.04639613 0.034602642 0.022552095
-0.0027162284 -0.011562794 0.047149673 -0.0053882375 0.04812178 0.028929822 -0.060148016 0.04266735
0.05416108 0.022729099 0.03310599 0.060885794 0.05233527 -0.0036055893 -0.030791163 0.00991828
-0.029494256 0.0054775625 0.055260934 0.03581413 -0.02609995 0.019994952 0.023377113 -0.051769324
0.03433484 0.024314225 0.04407298 0.04737682 0.030051991 0.0149958655 -0.010413691 -0.008343503
-0.04258895 -0.024889134 -0.015809499 0.048450164 -0.009346195 -0.052600823 -0.045695692 0.021007322
0.027566925 -0.014401533 0.0028639361 0.0099586025 0.048523813 -0.047257073 0.04998759 -0.037217878
-0.038153216 -0.04722148 -0.033559285 0.043004982 0.023611069 0.010834634 0.021699138 -0.004916467
-0.05119253 -0.03460241 -0.054150335 -0.05422754 -0.05666334 0.05249229 0.027737036 -0.0022007003
0.004625924 -0.054206945 0.010100417 0.001047492 -0.044852994 -0.05865381 -0.032342084 -0.038865276
0.027812272 -0.009442173 -0.06237281 -0.0013203472 -0.006924562 -0.027297087 0.00923039 0.015496977
-0.0077311173 -0.036013007 0.015547417 0.034166493 -0.038047582 0.037690803 -0.014876813 -0.0031405985
0.027400851 -0.013089761 0.01881326 -0.03801401 -0.047275186 -0.02265694 0.01435224 0.019750193
-0.02385328 -0.0062747225 -0.003023982 -0.003058821 0.036918588 -0.008975759 -0.052434534 -0.057699986
0.04270842 0.028658189 0.012945451 0.039756164 0.061020724 0.019667618 -0.058477983 0.042852446
0.05180437 -0.046334602 -0.06116084 -0.060863435 -0.06045255 -0.05011739 -0.0114896 0.0052623153
00000000: 1cad b53c 56ec 753d 34cc 173d 80fe 163a
00000010: 64b8 d2bc c653 28bd bcf2 bb3c 94b7 1fbd
00000020: b03c a73c f0a8 e3bb 089f a2bc 7086 423d
00000030: e866 633d f0c1 a4bb 9880 9dbc ec17 babc
00000040: f019 debb 00d4 9839 787e 3ebd 04d7 e9bc
00000050: 9861 293d 3cc1 853c 8c04 563d 704a c5bb
00000060: 9092 71bc c4b9 f7bc dafd 423d f0bf 033d
00000070: 0aad 35bd e447 edbc 60f4 c9bc 0035 c9bb
00000080: 746f 8cbc 5039 9f3b 08d5 fc3c 6665 273d
00000090: c8e3 3fbd a88e fe3c 9cee 1b3d b0b8 2c3c
000000a0: 5091 95bb f44b 9dbc f02e 07bd 1010 e33c
000000b0: 5838 5abc b08e b93c 2289 003d a086 29bd
000000c0: daf6 4f3d ae6b 14bd 2608 113d ac82 bd3c
000000d0: 7a54 06bd 185a a2bc a016 cbbc 7c79 f33c
000000e0: 80b5 1cbc 00f8 ebb8 8032 b03c f005 533d
000000f0: 10b2 953b e0e6 bd3b c8df ffbc 30bd b33b
00000100: ca0a 72bd a4fc 09bd b206 7fbd 040a ef3c
00000110: d829 963c 744a 48bd 0cb4 063d 027b 56bd
00000120: 5085 5abc 2a7d 5fbd 009d 74bd d020 593d
00000130: 504f 453c 2a57 2dbd a279 5cbd cad3 543d
00000140: b881 54bd d62d 55bd b8ce ce3c e087 26bc
00000150: eec1 30bd 9af9 7fbd 56fa 25bd 0066 c5b9
00000160: 0082 a03a b8b4 8b3c 5227 7c3d f8e3 573c
00000170: 04f3 603d 2896 993c e0e3 0f3d 6444 cdbc
00000180: e07c a9bb c040 d6ba 561e 1dbd 6a00 31bd
00000190: 0879 63bc 78e3 e93c 4424 f13c 004e b33b
000001a0: d44a 45bd 346b 493d 98a6 5e3d f8db 3b3c
000001b0: f82e ed3c 865b 26bd b08a f93b d04e b9bb
000001c0: c05f e9bc 2ecd 783d 4c29 30bd 00eb 45ba
000001d0: c4b0 ad3c 40ea fcbc 26c9 2b3d 3c01 db3c
000001e0: 08c2 3a3c 6418 d23c e4b1 81bc a465 9dbc
000001f0: faea 4fbd 6c52 473d 8065 3fbd 022c 41bd
00000200: 2cd4 843c f88d c03c a8bd b03c ecd1 cb3c
00000210: f015 60bc de09 3ebd 80bb 0d3d 2cbf b83c
00000220: c002 32bb e071 3dbc 0420 413d d08f b0bb
00000230: 581b 453d 3cfe ec3c c45d 76bd f6c3 2e3d
00000240: 02d8 5d3d 6032 ba3c 269a 073d 6263 793d
00000250: 825d 563d c04b 6cbb c03d fcbc 4880 223c
00000260: f09d f1bc 207d b33b 4a59 623d d6b1 123d
00000270: 90cf d5bc 74cc a33c 5c81 bf3c 120c 54bd
00000280: b0a2 0c3d a02e c73c de85 343d 320e 423d
00000290: 982f f63c 38b1 753c 309e 2abc 30b3 08bc
000002a0: c071 2ebd 4ce4 cbbc ec82 81bc ae73 463d
000002b0: c820 19bc f673 57bd 682b 3bbd 8c17 ac3c
000002c0: 08d4 e13c 68f4 6bbc e0b0 3b3b 6829 233c
000002d0: e8c0 463d a290 41bd cabf 4c3d c671 18bd
000002e0: 8c46 1cbd 506b 41bd 7675 09bd fe25 303d
000002f0: 006c c13c c083 313c 64c2 b13c 501a a1bb
00000300: 42af 51bd 42bb 0dbd becc 5dbd b21d 5ebd
00000310: d217 68bd 2802 573d c838 e33c a039 10bb
00000320: 1095 973b 1a08 5ebd 387c 253c 004c 893a
00000330: c6b7 37bd fa3e 70bd 2279 04bd 3231 1fbd
00000340: 90d6 e33c 58b3 1abc a27a 7fbd 800f adba
00000350: 70e7 e2bb 249e dfbc 103b 173c 08e7 7d3c
00000360: 5055 fdbb 6082 13bd 98ba 7e3c 2af2 0b3d
00000370: c8d7 1bbd ac61 1a3d e0bd 73bc 80d2 4dbb
00000380: c077 e03c 7076 56bc 441e 9a3c 94b4 1bbd
00000390: a0a3 41bd 0c9b b9bc a825 6b3c 28cb a13c
000003a0: f467 c3bc 309c cdbb 002e 46bb 8076 48bb
000003b0: f237 173d 100f 13bc 98c5 56bd d256 6cbd
000003c0: 06ef 2e3d 94c4 ea3c 2819 543c 5cd7 223d
000003d0: def0 793d fc1d a13c 9c86 6fbd 0c86 2f3d
000003e0: d230 543d 5ac9 3dbd ca83 7abd f04b 79bd
000003f0: 189d 77bd e447 4dbd e03e 3cbc 806f ac3b

value_head.in_linear.bias f4 [512]
-0.025851578 0.026200414 -0.030462071 0.004536301 -0.015053712 -0.0602493 0.059574828 -0.049998812
-0.03406196 -0.02706822 0.014095999 0.019148007 0.014830954 -0.04038021 -0.04147522 -0.020921431
0.059203424 -0.0023935586 -0.0146640465 -0.024017356 -0.03366702 0.01330591 -0.025067464 -0.046357445
-0.05777453 -0.026329808 -0.056381054 0.011112139 0.030361712 -0.050821 -0.00045457482 0.011549905
0.06014543 -0.015413389 0.060595103 0.015553676 -0.017732196 -0.030868255 -0.019385211 0.060684055
0.051575847 -0.016882494 -0.036357187 -0.039261736 -0.030839846 -0.02845376 0.05755675 -0.032468595
-0.007181816 -0.058737956 -0.050148852 -0.0038720593 0.05691818 0.016457655 0.004738055 -0.012441754
0.011965312 0.018804505 -0.0206329 0.035545513 -0.033766806 0.05655723 0.046438895 0.04834251
0.038692847 -0.034272872 -0.0029697716 0.010784157 0.0485157 -0.003757745 -0.05988563 -0.03427493
-0.019892544 -0.0079545155 -0.032669477 -0.0041377917 0.01801002 0.047565125 -0.017963298 0.043569736
-0.03988547 -0.012861244 -0.062366143 0.04058571 0.054631643 -0.033743374 -0.023788027 -0.0069973096
0.024690837 -0.033720747 -0.030480735 0.010506786 -0.021242954 0.0303934 -0.054296188 0.04858406
-0.023553677 0.04947176 -0.03314919 -0.01806058 -0.013495877 -0.05549503 0.04107017 0.027037837
0.0006919801 0.013311751 -0.04104481 -0.04159075 0.0580488 -0.023365758 0.028544627 -0.0469229
0.021054953 0.04326006 0.03884141 -0.0072563663 -0.04882767 0.036329903 -0.036305577 0.025265284
-0.038815126 0.018617094 -0.060804375 0.04225666 -0.025322966 -0.032314397 -0.041498587 -0.023465782
0.032694995 -0.025244594 0.034687445 0.019483022 -0.03611037 0.020373523 0.029959 0.011907384
-0.04718273 -0.0346146 -0.0035627037 0.028673597 -0.0035184845 -0.0039245114 -0.012640208 0.009735592
-0.022896066 0.060842693 -0.012051448 0.0066179708 0.057820633 -0.049710102 -0.038312733 0.020647533
-0.041820154 -0.0054233 -0.061348908 0.04453773 0.037116073 0.018636063 0.02932264 -0.018618397
-0.024759851 -0.046873547 -0.03373307 -0.058299802 -0.014308132 0.048240073 -0.037319995 0.059836626
-0.04324317 0.008562088 0.04253035 -0.016510516 -0.045629017 -0.04757692 0.014483854 -0.053615116
-0.058081113 -0.050580196 -0.057479173 -0.0068652853 -0.034423538 0.0540696 0.034059986 0.0068934187
0.0550649 0.015406854 0.038661197 0.053691864 0.03603281 0.023648567 -0.055373184 -0.036094412
-0.044835202 -0.044003896 0.006621003 0.046641856 0.022740893 -0.031530418 -0.059117064 0.026000358
0.023173764 0.05924558 0.0058014914 -0.00059694797 -0.027282342 0.016499951 -0.008554496 0.041730963
-0.050562367 -0.047745913 -0.010768004 0.018412665 0.035950147 -0.046421833 -0.054556333 0.015603602
-0.026865996 0.010278828 -0.018791735 0.011905715 0.0009885356 -0.046979822 0.008186899 0.018040404
-0.03984885 -0.044720136 -0.0334163 -0.024431609 0.014370784 0.024936624 0.051650725 0.008346945
0.02021502 -0.048267186 -0.0016110763 -0.03381736 0.0047677085 -0.020769596 -0.018646903 -0.0016231984
-0.022419296 -0.04010907 -0.060740292 0.0019509122 0.047962368 -0.02761171 -0.027675115 0.03616845
0.057313256 -0.023798518 -0.05193989 -0.05758281 -0.012467749 0.031719714 -0.0010346919 0.051243074
00000000: b0c6 d3bc 40a2 d63c 988b f9bc 40a5 943b
00000010: d8a3 76bc f8c7 76bd bc04 743d 8ecb 4cbd
00000020: 8e84 0bbd 2cbe ddbc e8f2 663c 48dc 9c3c
00000030: 88fd 723c b865 25bd ece1 29bd 6c63 abbc
00000040: 4a7f 723d 40dd 1cbb 7841 70bc 0cc0 c4bc
00000050: 6ee6 09bd 0801 5a3c 485a cdbc 4ee1 3dbd
00000060: fca4 6cbd 9cb1 d7bc d2ef 66bd b00f 363c
00000070: 20b9 f83c ae29 50bd 0054 eeb9 d03b 3d3c
00000080: 0e5b 763d 7088 7cbc 9232 783d d8d4 7e3c
00000090: 1c43 91bc 6cdf fcbc bccd 9ebc d88f 783d
000000a0: 3241 533d 284d 8abc 46eb 14bd ead0 20bd
000000b0: d8a3 fcbc dc17 e9bc a0c0 6b3d cafd 04bd
000000c0: 7055 ebbb 3697 70bd e268 4dbd 60c2 7dbb
000000d0: 0a23 693d 34d2 863c b041 9b3b 80d8 4bbc
000000e0: 280a 443c e80b 9a3c 5406 a9bc 2c98 113d
000000f0: 104f 0abd 8ea8 673d b636 3e3d cc02 463d
00000100: 647c 1e3d b661 0cbd 80a0 42bb 08b0 303c
00000110: 66b8 463d 8044 76bb a24a 75bd de63 0cbd
00000120: b0f5 a2bc a853 02bc 6ed0 05bd 5096 87bb
00000130: c089 933c a6d3 423d c427 93bc 2e76 323d
00000140: f25e 23bd f8b7 52bc a473 7fbd 343d 263d
00000150: 6ec5 5f3d 7e36 0abd 1cdf c2bc b049 e5bb
00000160: 7044 ca3c c41e 0abd bcb2 f9bc a824 2c3c
00000170: b405 aebc 94fb f83c ae65 5ebd 1400 473d
00000180: a4f3 c0bc e6a2 4a3d 72c7 07bd c8f3 93bc
00000190: d01d 5dbc c24e 63bd 3239 283d 747e dd3c
000001a0: 0066 353a 8819 5a3c 9a1e 28bd 105b 2abd
000001b0: 94c4 6d3d 8c69 bfbc 6cd6 e93c 3a32 40bd
000001c0: 707b ac3c 7631 313d 2c18 1f3d d0c6 edbb
000001d0: 86ff 47bd aace 143d 28b5 14bd 24f9 ce3c
000001e0: 9cfc 1ebd e082 983c 020e 79bd 5215 2d3d
000001f0: 1c72 cfbc 1a5c 04bd 6cfa 29bd 503b c0bc
00000200: 30eb 053d c0cd cebc 6c14 0e3d dc9a 9f3c
00000210: 78e8 13bd 60e6 a63c 946c f53c 3017 433c
00000220: ae42 41bd 0ac8 0dbd 407c 69bb e4e4 ea3c
00000230: 6096 66bb 3099 80bb e018 4fbc 0882 1f3c
00000240: 8890 bbbc 3036 793d 7073 45bc 90db d83b
00000250: 54d5 6c3d d29c 4bbd d0ed 1cbd 0425 a93c
00000260: 9c4b 2bbd f0b5 b1bb fe48 7bbd 326d 363d
00000270: 0607 183d a8aa 983c 0836 f03c 9c85 98bc
00000280: 2cd5 cabc 7afe 3fbd b02b 0abd c6cb 6ebd
00000290: a86c 6abc 6297 453d dadc 18bd 4017 753d
000002a0: c01f 31bd 0048 0c3c 4e34 2e3d 1041 87bc
000002b0: 7ee5 3abd 04e0 42bd b04d 6d3c 869b 5bbd
000002c0: 76e6 6dbd 2e2d 4fbd 486f 6bbd 30f6 e0bb
000002d0: b2ff 0cbd 1678 5d3d 7c82 0b3d 30e2 e13b
000002e0: bc8b 613d 086d 7c3c 345b 1e3d 00ec 5b3d
000002f0: 2497 133d a4ba c13c fece 62bd bcd7 13bd
00000300: 1ea5 37bd 6e3d 34bd 00f5 d83b 880b 3f3d
00000310: 1c4b ba3c 0a26 01bd bc24 72bd b4fe d43c
00000320: e8d6 bd3c 7eab 723d 701a be3b 807c 1cba
00000330: 387f dfbc e82a 873c 2828 0cbc 16ee 2a3d
00000340: 7c1a 4fbd 3891 43bd 486c 30bc 28d6 963c
00000350: 7640 133d d224 3ebd 7676 5fbd 40a6 7f3c
00000360: 1416 dcbc 8868 283c 20f1 99bc 3010 433c
00000370: c091 813a ea6d 40bd 5822 063c 78c9 933c
00000380: 8c38 23bd 762c 37bd 88df 08bd cc24 c8bc
00000390: 7073 6b3c e447 cc3c b68f 533d a0c1 083c
000003a0: f899 a53c d0b3 45bd c02a d3ba 1284 0abd
000003b0: 703a 9c3b 0025 aabc 64c1 98bc 80c1 d4ba
000003c0: aca8 b7bc 6849 24bd d0ca 78bd c0b5 ff3a
000003d0: 3074 443d f431 e2bc ecb6 e2bc 5e25 143d
000003e0: 4ec1 6a3d 1cf5 c2bc ecbe 54bd f4db 6bbd
000003f0: 8845 4cbc 88ec 013d 809e 87ba 42e4 513d
