ckpt/it0040000.pth (torch, 715079 bytes, 10 tensors)

policy_head.linear_1.weight f4 [256, 81]
00000000: a086 c0bd 0ac1 bbbe dfa6 423e 3602 1cbe
00000010: 66f8 b0be 62a6 efbd 3d93 b1be 89fc 943e
00000020: 29b9 1c3e 44c4 053f fcaa 2f3e d125 b2bd
00000030: 2713 a13e 6257 53be 987e 143d 6f97 f8bc
00000040: 83af 4d3e 2370 2e3c 7873 57be 3ee2 3d3e
00000050: fbf8 93be 695b d2bd fef7 b83e 1d26 2dbe
00000060: 020f c23e 16a6 e83d 6e30 1c3e 715a 193f
00000070: b3a4 43bd b825 3bbe 4c07 6cbe 9972 c0bd
00000080: 53c7 7d3e 5515 d33e d801 963e 8120 173e
00000090: 90d2 963e 12b7 03bd a731 af3e e4ea f9be
000000a0: ea59 01bb f9ef f4bc 7890 283e aeb2 ee3d
000000b0: 1a57 81bb b08e 2fbc d88a 2cbe 7f9f 2b3e
000000c0: 4dc8 81be c19d 3fbd ccb2 e3bd aaa2 94bd
000000d0: dc24 a7bb fdd0 b3bd 4f02 4ebd 4988 8e3e
000000e0: ca8d a4be 10ef 1e3c 1b8a 6cbe a619 7ebe
000000f0: cb47 52be 146c bcbe 661e 203e acd1 7d3e
00000100: 6102 c03c 35fd aabe 583e 6abd f1f3 a93d
00000110: 5c92 15bc db1d 21bd 63d5 2e3d 0ed1 1c3e
00000120: af6c 91bd f526 3f3e 508d 83be adf8 253e
00000130: 080d b03d 5836 eabc 9418 063f 845d 0cbe
00000140: 18dd 3ebe 7096 40bc 577f 31be 44eb 98be
00000150: c8fe df3e 9cde e43e 6972 78be cb2a 28bd
00000160: 7dba f5bd a0e5 1a3f 6f1d c4be 0179 e5be
00000170: 55cd 9a3d 5264 01be 1501 903d 6b95 a0be
00000180: 9cfb 193f f8e6 23be b219 4c3e fdbb d2bd
00000190: 287f 113e d747 be3e 9ce8 afbe 2f0a 89be
000001a0: ded3 b3bd d9fc 2d3e 6e75 47be e51a ae3c
000001b0: 6bfb 54be a137 46be 1856 ad3d 88dd eebe
000001c0: de41 bd3e 52fb dcbe 1d33 54be df69 343c
000001d0: e267 b1be b7b0 b93d 3131 55be 8d25 253e
000001e0: 60f2 373d 8572 69bd b4bd a23d 7b52 37be
000001f0: cfda d9bd 2909 3ebd cdb7 c1bc 7de5 75be
00000200: af04 533d ad9c 5e3e 87fe dabd 8be7 adbd
00000210: 5676 303d 6579 e9bd e249 a9bd 5190 d63e
00000220: 34e7 f0be 4b09 dabe ce0e 203d 5b11 1e3e
00000230: 96f0 1b3e 98ed 9abe 85ee 933c 959c 79be
00000240: bf0d 1d3c 20db d2bd a32a dd3d f149 ddbb
00000250: 6e9e 3c3d 2c4d 52bd 71a4 38bd dac7 8c3e
00000260: ca34 29bd e3d8 f8bd e1fe cdbe 5833 6bbd
00000270: b9b3 753e 2859 58bd 368f f33b b9c8 9bbe
00000280: 0a49 48bd 2eea 2cbe 9bf3 cb3d c64b f3be
00000290: 7b02 86be 6f7b 813e efbd 773e 5816 3dbe
000002a0: 58c7 28be 246e 9ebe bd04 22be 3726 86be
000002b0: 94c7 f2bd 7d22 d7bd e7c7 853e 174b 03be
000002c0: 986c 97bd 919b 213e dc37 38be 66c6 69bc
000002d0: 956f a3be c410 b93e c9fd d13d a9d9 ae3e
000002e0: 4be1 a5be 112b 013e 5302 5abe eb17 763d
000002f0: 8ae5 903e 9835 703e 40de 443e 906c 81be
00000300: cbfb 353e d5fe 3a3e 3d6c 12be 2c47 823e
00000310: f612 5e3d f384 233e 2b41 df3e 5012 7a3c
00000320: efa8 063d 4cf2 55ba f03d 97bd af28 8a3d
00000330: f7aa 9c3e a52a ed3c 2b9c 1bbe 4fae 1fbe
00000340: e45f 073e bd62 ac3e c186 4d3e f1e3 bdbd
00000350: df76 583d 062a 37be e6b3 fb3d 32fc a03d
00000360: 530d 813d e89c cb3d b7bc 213e f93a 48be
00000370: dc35 b73d 9f4c aabe 3256 e2bd 7125 b03d
00000380: 286a 76be 7c80 bb3e 75d4 1e3e b314 353e
00000390: fd79 7cbe 5f15 2a3c 1dc1 85bc 529b 8a3d
000003a0: bb67 1cbd 5e4c 213d deae d6bc 32fd 6c3e
000003b0: c066 323e 6ae3 043e 37c7 c23c feb5 153e
000003c0: a5d3 a43d 8a19 8d3a ee33 c7bd 2a5c 243d
000003d0: 5843 34bd eeec bfbe c608 463f 8696 5ebd
000003e0: 333d 5b3e 9dbe aa3e 63a8 ec3e 2bf1 5d3e
000003f0: 9cfa f8be 4fb4 53bd abfa 123f 7c49 10be
-0.09400678 -0.36670715 0.19008969 -0.15235218 -0.34564513 -0.11701657 -0.34682646 0.2909892
0.15305008 0.522526 0.17155069 -0.08698619 0.31459925 -0.20638803 0.03625354 -0.030345647
0.20086484 0.010646853 -0.21040142 0.18543336 -0.28900895 -0.10271341 0.36126703 -0.1690907
0.37902075 0.113598034 0.1525285 0.5990363 -0.04776449 -0.18276107 -0.23049659 -0.09396858
0.24783067 0.41227213 0.29298282 0.14758493 0.2945752 -0.03215701 0.3421757 -0.4881202
-0.001973743 -0.029899584 0.1646136 0.11655174 -0.003947151 -0.010715172 -0.1684984 0.16760062
-0.2534813 -0.046781305 -0.11118087 -0.07257588 -0.0051008295 -0.08780096 -0.05029517 0.27838352
-0.32139426 0.009700552 -0.23099558 -0.24814472 -0.205352 -0.36801207 0.15636596 0.24787015
0.023438634 -0.33396307 -0.057188362 0.08298481 -0.009129133 -0.039335113 0.04268397 0.15314123
-0.07100808 0.18667205 -0.2569375 0.16208144 0.085962355 -0.028590366 0.52381253 -0.13707548
-0.18639028 -0.011754617 -0.17333733 -0.29866993 0.4374907 0.44701087 -0.24262394 -0.041056436
-0.119984604 0.6050663 -0.38303706 -0.4481888 0.07558695 -0.12635925 0.070314564 -0.31363997
0.6014955 -0.16006076 0.19931677 -0.10289762 0.14208663 0.37164184 -0.34357154 -0.26765582
-0.08780645 0.16990985 -0.1947839 0.021253059 -0.20799033 -0.19357158 0.08463687 -0.4665339
0.36964315 -0.43160492 -0.20722623 0.01101157 -0.3464957 0.09066909 -0.20819546 0.16127606
0.04490888 -0.05699398 0.07946339 -0.17902558 -0.106374376 -0.046395455 -0.023647213 -0.24013324
0.05151814 0.21739455 -0.106930785 -0.08491429 0.043081604 -0.11400107 -0.08266045 0.4190698
-0.47051394 -0.42585215 0.03907662 0.15436308 0.15228495 -0.30259395 0.01805807 -0.24376138
0.009585797 -0.10295701 0.10799148 -0.0067531993 0.046049528 -0.051343128 -0.0450787 0.27496225
-0.04131011 -0.12150743 -0.4023352 -0.057422012 0.2399434 -0.0528194 0.0074328436 -0.30426577
-0.04889778 -0.16886207 0.099585734 -0.47518748 -0.26173767 0.25289485 0.24193548 -0.18465555
-0.16482294 -0.30943406 -0.1582212 -0.2620103 -0.11854473 -0.10504625 0.26129076 -0.12821613
-0.073937595 0.15782 -0.17990059 -0.014268493 -0.31921068 0.36145604 0.10253484 0.34150437
-0.32398447 0.12614085 -0.21289949 0.060081404 0.28300124 0.23457944 0.19225407 -0.2527814
0.17771833 0.18261273 -0.14299102 0.25444925 0.0542173 0.15968685 0.43604407 0.015263155
0.03287595 -0.000816141 -0.073848605 0.06746041 0.30599186 0.028950999 -0.15196292 -0.15593837
0.13220173 0.3366908 0.20070936 -0.09271992 0.05284774 -0.17887124 0.12290172 0.078606024
0.063013695 0.09942037 0.15794645 -0.19553746 0.0894582 -0.33261582 -0.11051597 0.086008914
-0.24063933 0.36621463 0.15510733 0.17683677 -0.2465591 0.010381072 -0.016327435 0.06767906
-0.038184863 0.03937947 -0.02620643 0.23143461 0.17422009 0.12977377 0.023776634 0.14620206
0.080481805 0.0010765058 -0.09726702 0.040126957 -0.044009537 -0.3748545 0.7735714 -0.05434277
0.21410064 0.3334855 0.4622222 0.2167403 -0.486287 -0.051685628 0.5741374 -0.14090532

policy_head.linear_1.bias f4 [256]
00000000: 9333 b23e 1558 d0be c9ab 823e 6d6f fa3e
00000010: b622 763e 3d56 c5be eb85 c33e 3cc1 cf3c
00000020: dfad a53e 077e 943e 5677 73be d4ef 283e
00000030: 83cc da3c 0e61 80bc 06f0 b7be 61f7 c23e
00000040: d8c7 ad3d f7d8 173d 7a49 acbe 3590 b3bc
00000050: 010d b63e c7c0 20be 3174 043e 83da a4be
00000060: 68f8 5c3e 9e70 68be dba6 9b3e 9b7c 05bd
00000070: 1d3e c93e 81f7 be3c a44e d33d dfcd 7ebe
00000080: f1fc 11bf 1f13 8bbe e3a3 e8be eda8 53be
00000090: ef39 0e3e 4f14 0e3e b318 d9be f562 d5bd
000000a0: b77c 9ebe 3d9d fcbe 5295 c3be 0070 35be
000000b0: a402 863e c83f 043f d9ac 41be a63d 9f3d
000000c0: 3e36 2cbe 5ec8 0a3e b8ba 903e 43cf 03be
000000d0: 88a1 5e3e d824 1f3e 9a0c 7c3c c3dd fdbd
000000e0: 7853 d2bd 4b40 b03e d93e 4bbe 10ef ee3d
000000f0: 842e c5bd 8c93 ad3e 5899 81be be09 52be
00000100: ec09 77bd 3391 d03d b05b 353e 59e5 c5be
00000110: 23cc 01bc 3cbf f9be 179e 533e ed6b f4be
00000120: 2a50 8bbe 1679 d43e cc43 dbbe 870f 66be
00000130: 9fea 883e a9de 1abf cf38 6e3e 60d6 ea3d
00000140: 259c 47be 979b c1bc 1f2d 4c3e a1d9 3fbe
00000150: ec9a c9be 3adc 923e e4ac 67be 2570 a5be
00000160: 73f9 16be 9a44 81be d10e 2ebe 429c 74be
00000170: ffbb dc3e 84ee a93d 53e2 9dbe b446 3e3e
00000180: 07ea 0b3e ad09 d3be f776 523d 61a7 343e
00000190: 4f55 863e f3c4 9f3c bbdd 5cbd 2065 733d
000001a0: cc12 c33e 6cf3 46be 59d0 d03d 0ae5 e2bd
000001b0: 7f35 e8bd 2922 503d 1a8b 41bd 96f6 b33d
000001c0: d1a1 f33d fb5c 18bd 997a 8d3c 8962 d83d
000001d0: 3036 483c 196f 2bbd 4802 8fbe 7367 733e
000001e0: cf4b b0be e04b 833e bd59 52be 2429 9b3e
000001f0: d47a 763d 95d9 3c3e 73f2 513e ae05 1fbe
00000200: 7f3c 39bd 72f2 46be 749a 57be 7f09 823e
00000210: 2ce7 3a3d edbb 2e3e ef70 c03e f339 cb3d
00000220: 26c1 013e 5d05 543e 415a 01bf 3b97 c73d
00000230: 1f11 0bbe 2ec3 ec3d 3b0a 9d3e 0081 d8bd
00000240: a920 46be c160 3fbe 5fac a0be 9201 ddbd
00000250: 586d 9abe fcaa 143c 76ae d13e ccd3 1cbe
00000260: c458 3b3e 2323 973e 5d86 373e 61b7 29be
00000270: cdd3 6e3e 8182 4f3d 40e4 dbbd 75af 97bd
00000280: 7acf b2bd 1a04 083e 18e8 a136 34c3 65be
00000290: ca84 a03e 2530 9dbe cca5 ea3e e7c6 3a3d
000002a0: dc70 d73e 4219 33be 3f84 02bf 6529 a73c
000002b0: adf6 c63d f262 8a3d d3e0 cdbe b4e2 ddbe
000002c0: 9b5c f9bd 891d cbbd 8bb2 603e 4549 ab3d
000002d0: e822 8cbb 4585 4a3d 241c 2e3e 229e 0c3f
000002e0: 15eb 763e feed c8be 12b2 e53d 1e75 503e
000002f0: 2d0d 73be 61d1 49be 022b 1f3e 2a66 48be
00000300: a55d 01bf ed60 bebe 4ce8 213c b139 963e
00000310: aaa0 e13d ac61 18bd 1168 c83e 4ad0 cebd
00000320: 67c2 073f 514e 703d 9320 943e 4f50 aa3e
00000330: 8b2d 71be 23df 06bd e4e3 9cbe 793c 55bd
00000340: 5798 643c f5b9 b53c 9b1f 8dbe 790f 4f3e
00000350: 8d06 d23e 70e7 95be f275 2fbe bfd1 c63e
00000360: d6ca 22be 1295 81be 2566 4cbe 40de 5c3e
00000370: 93ea 84bd fc47 133e 29fc 633e 6c03 efbe
00000380: 3a6d 023f b512 87be 3bd5 343e 1ddd 503d
00000390: a3e8 0a3e 29a1 0abd ac56 8f3e 94da cb3e
000003a0: cfbc 3dbe c0a4 dd3e a7cb 91bd 0415 41be
000003b0: 3000 b8bd f7a0 883d 21a3 febd 43ae 6bbe
000003c0: 6f0b da3e 710c a13e 1c7f 05bf 444a 20bd
000003d0: 14ae 52bd 20a6 0dbd 800f 1c3e 57d4 ddbd
000003e0: b03f 42be 2f25 6c3e d3b1 f33d 4ce3 1dbe
000003f0: 6c3d 15be 6d59 7d3e 351e 6c3d 0085 94bc
0.34804973 -0.406922 0.25521687 0.48913136 0.24036679 -0.38542357 0.3818811 0.025360696
0.32359216 0.290024 -0.23775992 0.16497737 0.026708847 -0.01567128 -0.3592531 0.3807936
0.08485383 0.03707215 -0.33649808 -0.02191935 0.35556796 -0.15698539 0.12934949 -0.3219796
0.21579134 -0.2269921 0.30400738 -0.032589536 0.393052 0.023311378 0.10317734 -0.24883221
-0.5702658 -0.27163026 -0.45437536 -0.20669909 0.13889287 0.13874935 -0.42401657 -0.10419265
-0.30954525 -0.49338713 -0.3819986 -0.17718506 0.2617389 0.5165982 -0.18913592 0.077754304
-0.16817567 0.13552997 0.28267455 -0.12872033 0.21741307 0.15541399 0.015383864 -0.12395813
-0.10269827 0.34424052 -0.19848193 0.11666691 -0.09628013 0.33901632 -0.25312304 -0.20511529
-0.060312197 0.101839446 0.17710757 -0.3865154 -0.007922205 -0.48778713 0.20665775 -0.4773859
-0.27209598 0.4149863 -0.42825162 -0.2246686 0.26741502 -0.60496 0.23263858 0.1146667
-0.19493158 -0.023633761 0.19939087 -0.18735363 -0.3937601 0.28683645 -0.22624546 -0.32312122
-0.14743595 -0.2524765 -0.1699784 -0.23887733 0.4311218 0.08297446 -0.30836734 0.18581659
0.13663493 -0.4121832 0.051382985 0.17641975 0.2623696 0.019503092 -0.053922396 0.059422612
0.38100278 -0.19428796 0.10195989 -0.11078842 -0.113383286 0.050813828 -0.0472518 0.08787267
0.118960984 -0.037198048 0.017270373 0.10565669 0.012219951 -0.041853998 -0.27931428 0.23769931
-0.34432837 0.25643826 -0.20542045 0.30304825 0.06017573 0.18442376 0.20502643 -0.1552951
-0.04522371 -0.19428423 -0.21055013 0.2539787 0.04563062 0.17063875 0.37586161 0.09923162
0.12671337 0.20705171 -0.5052834 0.09745642 -0.1358075 0.11560665 0.30671868 -0.1057148
-0.19348396 -0.18689252 -0.3138151 -0.10791315 -0.30161548 0.009073969 0.40953416 -0.15315169
0.1829558 0.29518995 0.1792235 -0.1657386 0.23322983 0.050661568 -0.107368946 -0.07406513
-0.08730979 0.13282815 4.825193e-06 -0.22437745 0.3135131 -0.30700794 0.45829618 0.045599844
0.42078292 -0.17490104 -0.5098304 0.02040548 0.097150184 0.067571536 -0.4021059 -0.43337023
-0.12175866 -0.09917743 0.21943109 0.083635844 -0.004276622 0.049443502 0.17002922 0.5492879
0.24113114 -0.39244074 0.11215605 0.20357177 -0.23735495 -0.19708778 0.1554375 -0.19570222
-0.50533515 -0.37183324 0.009882044 0.2934089 0.11016972 -0.037202522 0.39141896 -0.10098322
0.5303101 0.05866844 0.28931102 0.33264396 -0.2355253 -0.032927644 -0.30642617 -0.052059624
0.013952336 0.022183398 -0.27563176 0.20220746 0.41020623 -0.29278135 -0.17134836 0.388319
-0.15897688 -0.25309044 -0.1996084 0.21569157 -0.06490054 0.14382929 0.2226416 -0.46682298
0.50947917 -0.2638146 0.17659466 0.05099212 0.13565306 -0.0338451 0.27995813 0.398152
-0.18529056 0.43289757 -0.07118922 -0.18855673 -0.08984411 0.066713266 -0.12433458 -0.23015694
0.42586848 0.31454805 -0.5214708 -0.039133325 -0.051435545 -0.034582257 0.15240288 -0.10831516
-0.18969607 0.2306106 0.11899152 -0.15418738 -0.14574212 0.24741144 0.057645995 -0.018129826

policy_head.pos_embed.weight f4 [256, 1]
00000000: 1902 243e 63d8 5f3e 73b6 813d c17f 9bbe
00000010: 588a 8dbe 6352 a33d 33a2 4ebe 1312 0b3e
00000020: b2ce 00be ea5b b03e ec91 b3be 0bb0 433e
00000030: e39a d13e 59ed ca3e d75c 9bbc 1e98 d23d
00000040: 6822 d8be ea6b ffbd f2fd a73d 1fdd 8b3e
00000050: dce9 97be 6247 c7be 7daa dc3e 2f62 3f3e
00000060: 203a 893e eb70 4a3d a307 f03c 14e4 023e
00000070: f2bf 2b3e e4a2 b93d e3fd 81be cb51 a7bc
00000080: 5383 383e 63a9 bc3e 1832 963e 2926 62be
00000090: 11bc 383c 683b ae3e 7032 e43d 7391 abbd
000000a0: 476a 7e3e b36f 283e 568d 0f3e 10b2 d43e
000000b0: 8432 203e 8ba2 c7bd 0ea1 96be 16d0 67be
000000c0: 7e97 a2bc c3fd b33e 5345 12bf 21c8 fcbd
000000d0: 221a b43e af2e 183e 9d02 26be 7949 b03e
000000e0: 629d 593e b837 44bd 0a4f 113e c704 ea3e
000000f0: bfb2 ad3e a143 803e 1148 c23e 5ab1 84bd
00000100: 55c3 253e 91ce c13e 6f37 a73e 5e5f e83e
00000110: 4fbd 82be 8e2c 9c3e 2b26 d3be 65be 363e
00000120: 3af7 703e ca07 0dbd a060 603e 7a09 063e
00000130: a100 e43d f7f8 dd3e d629 b73e 416e 533e
00000140: 5c7c a7be 3430 c5be 7299 353d a07e 0dbe
00000150: 4439 dc3d 348a 7f3e d733 41be 3546 0fbd
00000160: be4b b4bc d43b 5d3e 0973 ef3e 7edd d73c
00000170: 3b32 9cbd 5650 753e 723d f53e 5804 af3e
00000180: 7900 483e 823f e83b bb53 4abe 047c 8c3e
00000190: ceea 993d bc06 ad3d bc1e 8dbe 65f6 1c3e
000001a0: 37a1 603d f4fa f4bd 0bb0 bf3d 1850 033e
000001b0: 637c b43d 5d93 42bd 95ea f8bd 6b6d 81be
000001c0: 2ea0 dd3e 434c 66be 7e24 843d 7365 13be
000001d0: f525 aa3e 6a25 bf3e bfab 06be 99dd d4be
000001e0: 4590 943e bbfa f43d 4cc1 62bd deb1 ba3c
000001f0: ca56 f6be fea7 8b3e 27a8 303e 7f5f bb3e
00000200: 49f3 96bc 0484 c5be 54d1 9b3d d547 56be
00000210: b3aa ea3e 93ec 8f3e f7d9 f9bc f47d bc3d
00000220: e167 9cbe fc27 b8be 2005 6b3e 8c6c 843e
00000230: b346 583d 2180 8b3c c39a 5fbd 9322 cc3e
00000240: ed2c df3e 4c86 23be 07f0 7bbe e224 babe
00000250: e724 d0bd f9f9 bdbd 4391 67bc c2f6 3f3e
00000260: 5040 fd3d c7a9 52be c2a7 953e f79c 5fbd
00000270: 03ad 733e 004f 463e 1ddb 32be 7917 d7bd
00000280: cd65 e2be a4b3 923e a179 adbe 1db9 b83e
00000290: 3c1d 2f3c 1532 1f3d bcda 92be 14c6 b93e
000002a0: 0a10 babe cc9d 1a3f 4a52 143e fafc 58bc
000002b0: 935e c53e 4497 d5be 1a09 493d 882a 453e
000002c0: 2b84 afbe 9b7f 003e 91ca b63d 3cd5 f9bc
000002d0: a12b e63c b6b8 fcbe ebb2 0bbe 2505 d0be
000002e0: 3231 013d 9fa7 0abe d015 a7be dcfc f83e
000002f0: 8642 d3be 2330 9e3e 4586 23bc 4e22 963d
00000300: 39e7 fd3e 685d 3e3e 7445 c73d fa9a 17bd
00000310: 0eea 0b3f 03f4 743e 3189 35be 18d3 febd
00000320: 2e37 02be 00d3 853d a6bc 06be 0f17 26bd
00000330: 4cfa bf3e 7687 de3d 9bcd 1d3e 0009 043e
00000340: d9fd 243f 88a9 28be 8c2a b53e 2153 303e
00000350: af74 5cbe 56bc 643d 92bf 2f3e 09e8 393c
00000360: 3cd2 eebc 14ff f23d d6dc 273e e0f8 9c3e
00000370: 4a67 8fbe 46d0 93bb fa65 74be cdba 223f
00000380: 42e3 34bd 1f64 443d 6df8 57be 1aa7 1d3e
00000390: c325 92be a571 05be f468 65be 04be 41be
000003a0: dca1 ecbe 631e 35bd d556 a53e c19a 3f3e
000003b0: f36f 99be 2077 c03e cf34 25bf 786c bbbe
000003c0: a9d2 2fbe 5339 8c3e de85 8d3e 7cb3 bb3e
000003d0: 53de 673e 5b74 9a3e 3b6c ecbc 37e9 8abd
000003e0: 0756 973e 2ff8 923e 51a5 a9be 851d c33e
000003f0: d3b5 953e 195f 3a3c 40ed a43e c932 c83c
0.16016425 0.21859889 0.063336276 -0.30370906 -0.2764461 0.079746984 -0.20179062 0.13581114
-0.12578848 0.34445125 -0.35072267 0.19110124 0.40938482 0.39634207 -0.018965168 0.1028292
-0.4221375 -0.12471755 0.08202733 0.2731714 -0.29670608 -0.38921648 0.43098822 0.18689798
0.26802158 0.049424093 0.029300516 0.12782317 0.1677244 0.09064272 -0.25389013 -0.020424744
0.18018846 0.36847982 0.29335093 -0.2208487 0.011275307 0.34029698 0.11142433 -0.083773516
0.24845229 0.1644886 0.14018759 0.415421 0.1564427 -0.097477995 -0.2941975 -0.22637972
-0.019847628 0.35154542 -0.5713703 -0.12342859 0.35176188 0.14861558 -0.16211934 0.34431055
0.21251443 -0.0479047 0.14190307 0.4570677 0.33925435 0.25051597 0.37945607 -0.064791396
0.16187795 0.3785291 0.3265948 0.4538526 -0.25535056 0.30502743 -0.41240057 0.17846067
0.2353181 -0.034431256 0.2191186 0.13089553 0.111329325 0.43354008 0.35774106 0.20647527
-0.32712066 -0.3851334 0.04433579 -0.13817835 0.1075311 0.24955064 -0.18867432 -0.034979064
-0.022008773 0.21604854 0.46767452 0.026350733 -0.07626768 0.23956427 0.47898442 0.34183002
0.1953143 0.007087649 -0.19758503 0.27438366 0.075154886 0.0844855 -0.2756251 0.15328367
0.054841246 -0.11961928 0.093597494 0.12823522 0.088127874 -0.047503818 -0.12154118 -0.25278792
0.4328627 -0.22490029 0.06452273 -0.14394169 0.33232084 0.37333232 -0.13151453 -0.41575316
0.2901632 0.119618855 -0.055360124 0.022789892 -0.4811309 0.27276605 0.17251645 0.36596295
-0.018426554 -0.38577282 0.076082855 -0.20925839 0.45833358 0.2811018 -0.030499442 0.09203711
-0.30548003 -0.35968006 0.22951174 0.25864065 0.0528018 0.01702887 -0.05459095 0.39870128
0.43588963 -0.15969199 -0.24603282 -0.36356264 -0.101632886 -0.09276194 -0.014133754 0.18746474
0.12365782 -0.20572577 0.29229552 -0.054593053 0.23796467 0.19366074 -0.17466398 -0.10502524
-0.44218293 0.2865268 -0.33881858 0.3607873 0.010688122 0.03886612 -0.28682506 0.36283934
-0.36340362 0.6039703 0.14484516 -0.013243908 0.38548717 -0.4171697 0.049080946 0.19254506
-0.34280524 0.12548678 0.08925355 -0.030497186 0.028096976 -0.49359673 -0.1364247 -0.40628925
0.031541057 -0.13540505 -0.3263383 0.48630416 -0.4126169 0.308961 -0.009980743 0.07330762
0.4959047 0.18590319 0.09730044 -0.03701303 0.54654014 0.23921208 -0.17728116 -0.12442607
-0.12716362 0.06534386 -0.13157901 -0.040549334 0.3749565 0.10865681 0.15410464 0.12894058
0.6444984 -0.16470921 0.35384023 0.17219211 -0.21528886 0.055843674 0.17162922 0.011346825
-0.029152982 0.118650585 0.16392836 0.30658627 -0.2800849 -0.004510912 -0.23867026 0.63566285
-0.044162042 0.047947045 -0.2109086 0.15395775 -0.28544435 -0.13031633 -0.22403318 -0.18920141
-0.4621724 -0.044218432 0.3229281 0.18711378 -0.29968223 0.37590885 -0.64533705 -0.36606193
-0.17170204 0.27387485 0.27641195 0.36660373 0.22643404 0.30166897 -0.028860202 -0.067827635
0.2955782 0.28704974 -0.3313394 0.3810846 0.29240283 0.011375212 0.32212257 0.024438279

policy_head.pos_embed.bias f4 [256]
00000000: 7f1e 11bf ad83 9b3e 631a f6be 95cc a8be
00000010: a206 11bd cded f73e 7ea9 7abe 800a aebd
00000020: 184a 5fbe 66e0 1ebf 7b7a 0d3f e9bf 9fbe
00000030: 3b20 dcbe 770c d0be 336a 003f d4ea 26bf
00000040: 2088 983e 9f52 ba3d 2d87 ff3e bab8 7dbe
00000050: 1c38 d0bb cab3 103f c1a9 1cbf 360b 203e
00000060: 406a 24bf 4c98 123e a279 0fbf 1965 4dbd
00000070: b319 0bbf a83f 06be 957b fc3d 272d db3e
00000080: e75f fc3e 7c9b 203d d75b 9e3e e2aa 0e3f
00000090: db92 14be a878 15bf 5621 e33e 8fb9 9b3e
000000a0: 153a 803e 9556 013f 8a0a 9f3e 3bb2 e23b
000000b0: ba4d 19bf 9989 05bf 8285 0a3f 8c7f da3d
000000c0: 984b 573e b052 c7be 7cd2 8d3e 0d50 e13e
000000d0: 4579 3ebf e04e d0be e0df 7f3b 2643 91be
000000e0: 2aaa f8bd 817f c0be 3be4 a93d cc1f 43bf
000000f0: f33d 54be 7971 1cbf 11fe 08be c94a b53e
00000100: 3f55 8bbd 46fa ffbe ff8a 1fbf b2ad 913d
00000110: 5bd3 943e 50e9 943e 4be3 4a3e a75f 9d3e
00000120: c6db 443e 54a2 ebbe c634 873e e515 523e
00000130: ce79 03bf 314f 5d3e 7b0e 2bbf 2aea bdbe
00000140: e6f2 033f 31b0 f03e 8985 5bbe 002a 8d3e
00000150: 3c1b 963e 2687 e1be 1596 143f 01f1 d73e
00000160: 8538 443e 89e6 083d d338 d2bd e0ed 6e3e
00000170: a2d8 04bf c565 bcbe ad74 7ebd 14d4 27bf
00000180: 1b4c bebe f16a ef3e e044 583e 0740 dfbe
00000190: 8bb0 64be 40bc c7bd 09e1 813e b848 66be
000001a0: 3d1e 02bf 3069 3c3e 01a1 1abe 40be 183d
000001b0: c0de 1fbd accd e93d 4fd6 093e 7ea0 283e
000001c0: 2c1b 18bf 8271 2c3e 2bd1 bbbd 19c6 f03d
000001d0: 1ed2 bbbe bf25 e4be 36f9 f33e f4cb 913e
000001e0: c713 a63e ba40 a6be 8615 e53e bdc5 b5be
000001f0: eaf9 ef3e 8170 2fbf db6a fdbe ea2c 40be
00000200: bdc4 9f3d 7bee 2a3f cbe7 d33d 1d12 60be
00000210: b0ab 0dbf 9ece 15bf f9e9 d6be 7159 d7be
00000220: d104 723d a97e 0f3e 0623 b63e 51c4 f0be
00000230: b6e8 ca3d ee25 23be 87a7 92be fde9 5cbd
00000240: 0b26 85be 8692 f23e 82ad 2a3f 9e1e e63e
00000250: 4b22 123f 6676 103e 1d9e 13bf 0b9d 203c
00000260: 1638 0abf 57e1 74be fc2c 00bf 8f94 0b3e
00000270: c764 2bbf 3cbb 77be fe3b c73e 2734 b63c
00000280: 2c59 0e3f fe94 dcbe 3a43 c43e cd1e 1fbc
00000290: 9a1f 20bf 86c9 be3e 5ca8 acbe e3cf febe
000002a0: d337 2cbe 6c6b b7be 03cf de3e c9e6 d23c
000002b0: 7b96 11bf c0c5 e63e 6f72 d63e 32b5 9b3e
000002c0: 8e2f f63e 99e7 ec3c 2115 c7be 2705 37be
000002d0: 6b02 77bd da90 133f 0c64 14be 3cdd 54be
000002e0: f3ca b3be 1165 053f 1d79 813e 8e68 49bf
000002f0: dc80 323f 0cf3 693d a407 59be 3a64 a83e
00000300: 9edf 693b 53e8 933e 86dc edbd e180 92be
00000310: 2339 32bf 6963 3fbe f388 a3be 8737 733e
00000320: 172a edbe 9fbf 93bd 252d 5bbe 45e6 7dbe
00000330: 19e0 37bd bac5 aebd 33d4 7b3e 1b49 9d3d
00000340: d5cf 57bf a60b 473e 1142 75ba 3d1e bdbe
00000350: 71c2 97be 9aa2 443e d33c b33b 78b2 0bbf
00000360: 6420 e23e eb77 a83d 6da1 253e 96e7 07bf
00000370: f89e db3e 421d 25be 5dc9 8d3c f815 49bd
00000380: 44b0 0abf 71d6 983e d8b6 6b3c 3a0e d6be
00000390: e41b fd3d b8bf 953e 159a d4bc fe98 a4be
000003a0: 2a81 2f3f 9e6a 12bf b05e 76be 6c22 483e
000003b0: db85 193f 1f91 1fbf 11a6 663f f4f4 363f
000003c0: 539b d9be 3bf5 1dbf 6ca4 f23e 96df 9cbe
000003d0: aa2a a8be 76d0 bbbe 6a39 1dbe 0882 4a3e
000003e0: 85ae 94bc ebca 0ebf 7835 a13e b647 73be
000003f0: 43b2 a63c f4e6 98be 85de d4be 78ba 19be
-0.5668716 0.30373898 -0.48067006 -0.32968584 -0.035406716 0.48423615 -0.24478719 -0.084980965
-0.21805608 -0.62061155 0.55265015 -0.31201103 -0.4299334 -0.4063451 0.5016205 -0.6520207
0.29791355 0.0909779 0.49907818 -0.24777499 -0.006354345 0.56524336 -0.61196524 0.15629277
-0.64224625 0.14315909 -0.5604497 -0.050145242 -0.5433609 -0.1311022 0.12328259 0.42807886
0.49291918 0.03921078 0.30929443 0.55729496 -0.14509146 -0.5838723 0.4436137 0.30415007
0.25044313 0.5052274 0.31062728 0.0069182194 -0.59884226 -0.5216308 0.54109967 0.10668859
0.2102493 -0.38930273 0.2769965 0.44006386 -0.7440379 -0.40685177 0.0039043352 -0.28371543
-0.12141831 -0.37597278 0.08295485 -0.76220393 -0.20726757 -0.61110646 -0.13378169 0.3540862
-0.06803369 -0.4999563 -0.62321466 0.07113208 0.290675 0.29084253 0.19813268 0.3073704
0.19224462 -0.46022284 0.2640745 0.20516165 -0.51357734 0.2161224 -0.6681897 -0.37092716
0.5154251 0.47009423 -0.21437658 0.27571106 0.29317653 -0.44048423 0.58041507 0.4217606
0.19162185 0.03342298 -0.102647446 0.2333293 -0.51893055 -0.36796394 -0.06212299 -0.6555798
-0.3716744 0.46761277 0.21120024 -0.43603536 -0.22332971 -0.09752703 0.25367 -0.22488678
-0.5082739 0.18399501 -0.1510048 0.03729081 -0.03903079 0.11416182 0.13460658 0.16467473
-0.5941646 0.16840175 -0.09170755 0.11756534 -0.36683744 -0.44560048 0.4765107 0.28475916
0.32436964 -0.32471257 0.44742984 -0.35502425 0.46870357 -0.6853104 -0.49495587 -0.18767133
0.07801197 0.6677014 0.103469454 -0.2188191 -0.553401 -0.585184 -0.41975382 -0.42060426
0.059086625 0.14013161 0.35573596 -0.47024778 0.09907667 -0.15932438 -0.28643438 -0.053934086
-0.26005587 0.47377414 0.66671 0.44945234 0.57083577 0.14107665 -0.57663137 0.009803067
-0.5399183 -0.23914085 -0.5006864 0.1363089 -0.6695065 -0.24192518 0.38912958 0.022241665
0.55604815 -0.43082422 0.3833254 -0.009711933 -0.6254822 0.37263125 -0.33722198 -0.4976798
-0.1681817 -0.35824144 0.43517312 0.025744813 -0.5687024 0.45072746 0.4188418 0.3041168
0.48083156 0.028919028 -0.38883308 -0.17873059 -0.06030504 0.576429 -0.1449129 -0.20787519
-0.35115775 0.5210734 0.25287715 -0.7867516 0.69727874 0.057116553 -0.21194321 0.32888967
0.0035686265 0.28888187 -0.11614327 -0.28613952 -0.69618434 -0.18690266 -0.3194042 0.23751651
-0.46321175 -0.07214283 -0.2140394 -0.24794872 -0.04489145 -0.08533807 0.24592666 0.076799594
-0.843015 0.19438037 -0.0009355853 -0.36937132 -0.29640535 0.19202653 0.0054698973 -0.54569197
0.44165337 0.082259975 0.1617486 -0.5308775 0.4289472 -0.16124442 0.017307932 -0.049093217
-0.5417521 0.29851106 0.014386855 -0.4180773 0.12358835 0.29247832 -0.025952378 -0.32147974
0.68556464 -0.57193935 -0.24059558 0.19544381 0.5996987 -0.6233081 0.9009715 0.7146752
-0.42501315 -0.61702317 0.4739107 -0.30639333 -0.3284505 -0.3668248 -0.15353933 0.19776165
-0.018149624 -0.5577838 0.31486106 -0.23757824 0.020348674 -0.29863703 -0.4157602 -0.15012538

policy_head.linear_2.weight f4 [81, 256]
00000000: 6c88 a2bc 6723 a2bd 6a1b a6bd f9d7 64bc
00000010: a5e9 a8bc 321a 3ebd e411 a9bc 2eb0 49bd
00000020: 93a0 86bd 6fd2 b9bd 4932 923c f2b8 e5bb
00000030: aa65 31bd 2bda 2abd f211 bcbd 0a9c 91bc
00000040: 4ab4 73bc 57d3 f0bc ae5b a1bb 3e51 9ebd
00000050: 7c63 23bd 7cc9 69bd f2f7 9a3c c41d 23bb
00000060: c555 82bd 9aea a0bc 6ccc 6abd b7a3 03bd
00000070: 4389 a1bd 3549 a3bd 5cfd 9abd 7a0d cbbc
00000080: 8a99 a0bd 5948 a739 c1e0 56bd 905a 74bc
00000090: b4b5 67bc f3cc 87bd d686 0fbd 29a1 943c
000000a0: 70b1 26bd 6728 81bd 5a7d 21bc 0c43 b6bd
000000b0: 55de 10bc 3bc7 2bbc 1089 44bc 335c bbbb
000000c0: 9734 82bd fa7e b0bc 6a5a c1bd 8e3e 82bc
000000d0: 70d2 703c 3b48 94bd 9613 b93c cdd7 8a3b
000000e0: dbeb 1ebd eff1 4cbd d86c 5cbd 6dcc bcbd
000000f0: f281 33bd a58e 1dbd 1a0a f9bc ecd4 d9bd
00000100: f248 38bd ed5a c7bd e865 b8bc fc53 e0bb
00000110: 0008 9cbd 439b f6bc 2ece 6dbd a4d3 a9bd
00000120: f203 83bd 3584 f7bc b469 5e3c f308 69bd
00000130: 34f7 c8bd 00f7 9ebd cf11 023c 1561 c2bd
00000140: 0053 b9bc 342b 38bd 8a47 8cbc 5897 c4bd
00000150: ea6f 5cbd 5a8d 5fbb 4b4c 0bbd bbfc b5bd
00000160: c338 14bd 4507 84bd 7fa2 313c 4a37 7fbc
00000170: 2d30 adbd f86c 38bd 4198 74bd cd5c 3fbd
00000180: 3301 313c 0921 3dbc 3463 cebd d881 49b9
00000190: 5219 09bc 240b b639 d09d fcbd 5f8d e9bc
000001a0: 1419 aabd dac2 f9bc d221 80bd 99d4 95bc
000001b0: 9aab 74bc 44c0 65bd 7879 58bd fd01 00bd
000001c0: bc99 f63b 3e94 2bbd 9b1b 2ebd 241a 90bd
000001d0: 4476 8ebd 0b86 88bd bdc0 93bd 5f5b 8abc
000001e0: 459e b1bc f5ff 14bd 5af5 01bc 8ab8 d6bc
000001f0: 40b4 e9bd f890 17bc 5cfa a23a f0f5 7abd
00000200: 3e59 8dbb ac89 40bd c14f 3cbd d136 c8bd
00000210: e9dd 11bb 4842 a0bd 4c30 86bb 01c6 a0bc
00000220: 716d d4bc 8554 edbc 4073 97bd 8fc4 b9bd
00000230: 33b5 58bc 9d6a dfbb 582e 54bd c18c 17bc
00000240: c20a f2bc af3a 0abd 8113 9d3b f9eb b6bd
00000250: 00c2 8abd bdaa a3bd 05be f33b af60 943c
00000260: 0132 74bd 957c eebd c0f3 ddbd 08a2 d43b
00000270: c9f9 4bbd 2308 7bbd 5a1b d6bd 1847 a0bd
00000280: 90c4 ea3c bb5b 53bd 4839 4ebd 1b92 3d3b
00000290: 1162 9d3c df39 25bd 72d5 bfbd 0cc0 22bc
000002a0: 71ec 4bbd fd90 a6bd b702 4f3c 9cfd b7bc
000002b0: d9a2 cfbd f36b 82bd 4165 22bc dcb9 03be
000002c0: 1adf 463c 12ea 5a3c 6d41 afbd 4172 b2bd
000002d0: 073c c7bd 07e6 e6bd 6eae c53b 01f3 c73b
000002e0: e894 a6bd 3709 ddbc 385a 0fbd d339 ccbc
000002f0: 10b6 31bd d07a 35bd af0b b2bd 2c7a 58bd
00000300: bdde bb3c 0827 773c 8ede d1bd 02a8 f03b
00000310: 5726 57bc b03e c6bc 3dc0 a5bd 67b0 09bd
00000320: 69c1 9bbc 8941 9ebd a7fe abbd 6fb0 68bd
00000330: d5d9 ac3b 2eb6 1bbc 74aa e7bd 100e 3dbd
00000340: 4505 7ebc 9556 2f3c a446 733a 99d0 5dbd
00000350: ef99 c2bd 539f 88bd 17a9 c93c 6938 28bb
00000360: 3031 96bd 9ffa bfbd d222 eebd 301f debc
00000370: 5c00 9dbd 8b17 6abd d303 1dbd 98b8 cdbd
00000380: 1c2b bdbb 44b6 27bd cb62 a0bd c635 c4bd
00000390: e8ce 23bd ef91 bbbd 42cd f5bc f5de 09bc
000003a0: f0ca 02bd 7011 35bd 0c53 9bbc 94dd 9cbc
000003b0: 562c 28bd 5ac3 cabd 0fca 37bb 36da dfbb
000003c0: 1b06 04bc c248 99bd 028a 79bd 11b5 9ebd
000003d0: 11cc e0bd 70c1 11bd ed86 35bd c417 43bd
000003e0: cb25 bdbd 6d6e 9bbd 1c03 c03b 8ca4 d8bd
000003f0: 3c5e 29bc 96df 9abd 18e9 d2bd 7700 6bbd
-0.019840442 -0.07916909 -0.081106976 -0.0139675075 -0.020619223 -0.0464117 -0.020638414 -0.049240284
-0.06573596 -0.0907334 0.017846243 -0.0070105726 -0.043309845 -0.041711967 -0.0918311 -0.0177746
-0.014874527 -0.02939765 -0.004924259 -0.077303395 -0.039889798 -0.057076916 0.018917058 -0.0024889568
-0.063640155 -0.019643117 -0.05732386 -0.032138553 -0.07887509 -0.079729475 -0.07567856 -0.0247867
-0.07841785 0.00031906625 -0.052460436 -0.01491417 -0.0141424425 -0.06630888 -0.0350407 0.018143253
-0.04069656 -0.06306534 -0.009856546 -0.08899507 -0.008842071 -0.010484512 -0.011995569 -0.005717778
-0.06357687 -0.021544922 -0.09441073 -0.015898969 0.01469861 -0.07240339 0.022592347 0.0042371512
-0.038799148 -0.050035413 -0.05381474 -0.092186786 -0.043825097 -0.038466115 -0.030400325 -0.10636315
-0.04499144 -0.097341396 -0.02250953 -0.006845949 -0.076187134 -0.030103331 -0.058057956 -0.0829232
-0.06397237 -0.030214408 0.013575006 -0.0568933 -0.09812775 -0.07761955 0.007938816 -0.09491173
-0.022622585 -0.044963077 -0.017123956 -0.09599179 -0.053817667 -0.0034111352 -0.034008306 -0.08886095
-0.036186945 -0.06446699 0.010841965 -0.015577147 -0.084564544 -0.045025796 -0.059715513 -0.04671936
0.010803509 -0.011543521 -0.10077515 -0.00019217224 -0.008367853 0.00034722046 -0.12334788 -0.028509794
-0.083055645 -0.03048842 -0.06256451 -0.018289851 -0.014933491 -0.056091562 -0.052850217 -0.031251896
0.007525651 -0.04188942 -0.042506795 -0.07036236 -0.06956151 -0.06666192 -0.07214496 -0.016889272
-0.021681914 -0.036376912 -0.0079320315 -0.026211042 -0.11411333 -0.009250872 0.0012434232 -0.0612697
-0.004313617 -0.047006294 -0.045974497 -0.097760804 -0.0022257513 -0.07825142 -0.004095113 -0.019625666
-0.025931092 -0.028970966 -0.07395029 -0.09070694 -0.013226795 -0.006818129 -0.05180201 -0.009249867
-0.029546145 -0.03374737 0.004793585 -0.08931727 -0.06775284 -0.0799155 0.0074384236 0.018112509
-0.059618 -0.11644856 -0.10837507 0.006489042 -0.04979876 -0.061287057 -0.10454436 -0.0782606
0.028658181 -0.051601153 -0.050347596 0.0028926197 0.0192118 -0.040338393 -0.09366883 -0.009933483
-0.049786035 -0.08133123 0.012634925 -0.022459798 -0.101384826 -0.06368246 -0.009911836 -0.12863868
0.0121381525 0.013361471 -0.08557401 -0.087131985 -0.09728246 -0.11274343 0.0060327565 0.0061019664
-0.0813387 -0.026981933 -0.03499815 -0.024929916 -0.04338652 -0.044306576 -0.08693635 -0.052850887
0.022933358 0.015084989 -0.10247527 0.007344247 -0.0131316995 -0.024199814 -0.08093307 -0.033615496
-0.019013124 -0.077273436 -0.083981805 -0.056808885 0.005274991 -0.009503884 -0.11311808 -0.04615599
-0.015504186 0.010701795 0.00092802406 -0.054154012 -0.09502017 -0.06671014 0.024616761 -0.0025668389
-0.073336005 -0.09373974 -0.11627735 -0.02711448 -0.07666084 -0.05715136 -0.038333725 -0.10044974
-0.0057729613 -0.040945306 -0.07831343 -0.09580569 -0.039992243 -0.09158694 -0.030005101 -0.0084149735
-0.031931818 -0.044206083 -0.018960498 -0.019148625 -0.041057907 -0.099005416 -0.002804402 -0.0068314327
-0.008058096 -0.074845806 -0.06092263 -0.077493794 -0.109764226 -0.035584867 -0.04431813 -0.047630087
-0.09235724 -0.075894214 0.0058597457 -0.1057826 -0.010337409 -0.07562177 -0.10298365 -0.05737349

policy_head.linear_2.bias f4 [81]
00000000: a0de 913b 72e0 37bc 500d 9e3d 6a2c cfbd
00000010: 672a 06bd 820f 4e3d 2569 83ba 9d47 25bc
00000020: bd09 833d cf23 b2bd 9397 17bd d3f9 6bbd
00000030: 5a36 ed3c 960b 2d3c e8c4 2fbd 4fd6 b8bc
00000040: c44a 473d 5b70 8c3c c405 9e3c 87d3 63bc
00000050: 0b0e 59bd b055 eabd 7013 aa3c 3844 573d
00000060: 0a08 50bd 67cd d3bc a20a 7a3c 65f4 d9bc
00000070: b240 4b3d adc5 adbd 865c 8ebb bcec 1b3c
00000080: e145 94bc f515 62bc 64f9 453d 41b3 2cbd
00000090: a3ad bdbd 825a e73c 7513 003d 81c8 fabc
000000a0: 228c 3a3d e119 f1ba 32da 34bd 7db4 913c
000000b0: 8881 c23d 91bd de3c 0cde 5d3d f9d0 a93c
000000c0: dea7 753c b71b 983c f049 dd3d e6c0 f33b
000000d0: cbf7 d43c 80c2 6e3d 14a2 60bd ed9a 84bd
000000e0: 24f1 453c bb3d f4bc 8566 4a3d f342 5d3d
000000f0: a451 3d3c ddf5 fe3b dd52 493d 0b19 8cbc
00000100: fbd6 24bd b2cf 8f3d af66 893d df1c 9e3d
00000110: 6111 673d d4ec 773d 72b9 bfbb 0ca7 853d
00000120: d666 24bd adb6 5a3d ca2c 533d 2cc7 2e3d
00000130: 5ec4 413d f378 503d 7aea d6bc 6607 a23d
00000140: 2234 a83d
0.004451588 -0.0112229455 0.07717383 -0.10115893 -0.03275528 0.05030776 -0.0010025842 -0.010087875
0.06398342 -0.08698236 -0.037009787 -0.057611298 0.02895658 0.010561844 -0.042912394 -0.022563128
0.048655286 0.017143419 0.019289859 -0.0139054125 -0.052991908 -0.11442125 0.020761222 0.052555293
-0.050788917 -0.02585478 0.015261324 -0.026605794 0.049622245 -0.08484969 -0.0043445257 0.009516891
-0.018099727 -0.01379918 0.04833354 -0.042163137 -0.09261634 0.0282414 0.031268556 -0.030613186
0.045543797 -0.0018394553 -0.0441534 0.017786259 0.094973624 0.027190002 0.05416684 0.020729529
0.014993636 0.018567903 0.10805118 0.007438767 0.025997063 0.05829096 -0.05484207 -0.06474862
0.012081418 -0.029814592 0.049414176 0.054018926 0.011555109 0.007780774 0.04915129 -0.017101785
-0.040244084 0.070220366 0.067090385 0.077203505 0.05641306 0.06052859 -0.005850964 0.06526002
-0.040137134 0.05339687 0.051556386 0.042670414 0.04730641 0.050896596 -0.026234854 0.079115674
0.082130685

value_head.in_linear.weight f4 [512, 256]
00000000: 1cad b53c 56ec 753d 34cc 173d 80fe 163a
00000010: 64b8 d2bc c653 28bd bcf2 bb3c 94b7 1fbd
00000020: b03c a73c f0a8 e3bb 089f a2bc 7086 423d
00000030: e866 633d f0c1 a4bb 9880 9dbc ec17 babc
00000040: f019 debb 00d4 9839 787e 3ebd 04d7 e9bc
00000050: 9861 293d 3cc1 853c 8c04 563d 704a c5bb
00000060: 9092 71bc c4b9 f7bc dafd 423d f0bf 033d
00000070: 0aad 35bd e447 edbc 60f4 c9bc 0035 c9bb
00000080: 746f 8cbc 5039 9f3b 08d5 fc3c 6665 273d
00000090: c8e3 3fbd a88e fe3c 9cee 1b3d b0b8 2c3c
000000a0: 5091 95bb f44b 9dbc f02e 07bd 1010 e33c
000000b0: 5838 5abc b08e b93c 2289 003d a086 29bd
000000c0: daf6 4f3d ae6b 14bd 2608 113d ac82 bd3c
000000d0: 7a54 06bd 185a a2bc a016 cbbc 7c79 f33c
000000e0: 80b5 1cbc 00f8 ebb8 8032 b03c f005 533d
000000f0: 10b2 953b e0e6 bd3b c8df ffbc 30bd b33b
00000100: ca0a 72bd a4fc 09bd b206 7fbd 040a ef3c
00000110: d829 963c 744a 48bd 0cb4 063d 027b 56bd
00000120: 5085 5abc 2a7d 5fbd 009d 74bd d020 593d
00000130: 504f 453c 2a57 2dbd a279 5cbd cad3 543d
00000140: b881 54bd d62d 55bd b8ce ce3c e087 26bc
00000150: eec1 30bd 9af9 7fbd 56fa 25bd 0066 c5b9
00000160: 0082 a03a b8b4 8b3c 5227 7c3d f8e3 573c
00000170: 04f3 603d 2896 993c e0e3 0f3d 6444 cdbc
00000180: e07c a9bb c040 d6ba 561e 1dbd 6a00 31bd
00000190: 0879 63bc 78e3 e93c 4424 f13c 004e b33b
000001a0: d44a 45bd 346b 493d 98a6 5e3d f8db 3b3c
000001b0: f82e ed3c 865b 26bd b08a f93b d04e b9bb
000001c0: c05f e9bc 2ecd 783d 4c29 30bd 00eb 45ba
000001d0: c4b0 ad3c 40ea fcbc 26c9 2b3d 3c01 db3c
000001e0: 08c2 3a3c 6418 d23c e4b1 81bc a465 9dbc
000001f0: faea 4fbd 6c52 473d 8065 3fbd 022c 41bd
00000200: 2cd4 843c f88d c03c a8bd b03c ecd1 cb3c
00000210: f015 60bc de09 3ebd 80bb 0d3d 2cbf b83c
00000220: c002 32bb e071 3dbc 0420 413d d08f b0bb
00000230: 581b 453d 3cfe ec3c c45d 76bd f6c3 2e3d
00000240: 02d8 5d3d 6032 ba3c 269a 073d 6263 793d
00000250: 825d 563d c04b 6cbb c03d fcbc 4880 223c
00000260: f09d f1bc 207d b33b 4a59 623d d6b1 123d
00000270: 90cf d5bc 74cc a33c 5c81 bf3c 120c 54bd
00000280: b0a2 0c3d a02e c73c de85 343d 320e 423d
00000290: 982f f63c 38b1 753c 309e 2abc 30b3 08bc
000002a0: c071 2ebd 4ce4 cbbc ec82 81bc ae73 463d
000002b0: c820 19bc f673 57bd 682b 3bbd 8c17 ac3c
000002c0: 08d4 e13c 68f4 6bbc e0b0 3b3b 6829 233c
000002d0: e8c0 463d a290 41bd cabf 4c3d c671 18bd
000002e0: 8c46 1cbd 506b 41bd 7675 09bd fe25 303d
000002f0: 006c c13c c083 313c 64c2 b13c 501a a1bb
00000300: 42af 51bd 42bb 0dbd becc 5dbd b21d 5ebd
00000310: d217 68bd 2802 573d c838 e33c a039 10bb
00000320: 1095 973b 1a08 5ebd 387c 253c 004c 893a
00000330: c6b7 37bd fa3e 70bd 2279 04bd 3231 1fbd
00000340: 90d6 e33c 58b3 1abc a27a 7fbd 800f adba
00000350: 70e7 e2bb 249e dfbc 103b 173c 08e7 7d3c
00000360: 5055 fdbb 6082 13bd 98ba 7e3c 2af2 0b3d
00000370: c8d7 1bbd ac61 1a3d e0bd 73bc 80d2 4dbb
00000380: c077 e03c 7076 56bc 441e 9a3c 94b4 1bbd
00000390: a0a3 41bd 0c9b b9bc a825 6b3c 28cb a13c
000003a0: f467 c3bc 309c cdbb 002e 46bb 8076 48bb
000003b0: f237 173d 100f 13bc 98c5 56bd d256 6cbd
000003c0: 06ef 2e3d 94c4 ea3c 2819 543c 5cd7 223d
000003d0: def0 793d fc1d a13c 9c86 6fbd 0c86 2f3d
000003e0: d230 543d 5ac9 3dbd ca83 7abd f04b 79bd
000003f0: 189d 77bd e447 4dbd e03e 3cbc 806f ac3b
0.022177272 0.06003984 0.037059978 0.00057599694 -0.02572269 -0.041095518 0.022942893 -0.038993433
0.02041468 -0.006947629 -0.019851223 0.04749149 0.05551806 -0.005028002 -0.019226357 -0.022716485
-0.0067779943 0.00029149652 -0.04650733 -0.02854491 0.04135284 0.016327493 0.05225043 -0.0060208365
-0.014744416 -0.030239947 0.047605373 0.032165468 -0.044354476 -0.028964944 -0.02465266 -0.0061403513
-0.017142989 0.004859127 0.0308633 0.040868185 -0.04684809 0.031073883 0.038069353 0.01054208
-0.0045644417 -0.019201256 -0.033003747 0.02771762 -0.013319097 0.022651047 0.03138078 -0.041388154
0.050772525 -0.036235504 0.03540816 0.023133598 -0.032795407 -0.01981835 -0.024791062 0.029721014
-0.009564757 -0.00011251867 0.021508455 0.051519334 0.004568346 0.0057953447 -0.031234637 0.0054851994
-0.05909232 -0.033688203 -0.062262245 0.02917958 0.0183305 -0.04889913 0.03288655 -0.052363403
-0.013337448 -0.054562725 -0.05972004 0.053009808 0.012042835 -0.042319454 -0.053826936 0.05195979
-0.051881522 -0.052045666 0.025245056 -0.010164231 -0.043153696 -0.062493898 -0.040521942 -0.00037650764
0.0012245774 0.017053947 0.061560936 0.013176911 0.054919258 0.018748358 0.035129428 -0.025057025
-0.005172357 -0.0016346201 -0.03835901 -0.043213286 -0.013883837 0.028550848 0.029436238 0.005471945
-0.048167065 0.049174502 0.054358095 0.011466019 0.02895306 -0.040614627 0.00761541 -0.005655147
-0.02848804 0.06074255 -0.043008134 -0.00075499713 0.021202452 -0.030873418 0.041939877 0.026733987
0.0113988 0.025646396 -0.015831895 -0.019213505 -0.0507612 0.048662588 -0.046727657 -0.04716111
0.016214453 0.023505196 0.02157481 0.024880372 -0.013677105 -0.04639613 0.034602642 0.022552095
-0.0027162284 -0.011562794 0.047149673 -0.0053882375 0.04812178 0.028929822 -0.060148016 0.04266735
0.05416108 0.022729099 0.03310599 0.060885794 0.05233527 -0.0036055893 -0.030791163 0.00991828
-0.029494256 0.0054775625 0.055260934 0.03581413 -0.02609995 0.019994952 0.023377113 -0.051769324
0.03433484 0.024314225 0.04407298 0.04737682 0.030051991 0.0149958655 -0.010413691 -0.008343503
-0.04258895 -0.024889134 -0.015809499 0.048450164 -0.009346195 -0.052600823 -0.045695692 0.021007322
0.027566925 -0.014401533 0.0028639361 0.0099586025 0.048523813 -0.047257073 0.04998759 -0.037217878
-0.038153216 -0.04722148 -0.033559285 0.043004982 0.023611069 0.010834634 0.021699138 -0.004916467
-0.05119253 -0.03460241 -0.054150335 -0.05422754 -0.05666334 0.05249229 0.027737036 -0.0022007003
0.004625924 -0.054206945 0.010100417 0.001047492 -0.044852994 -0.05865381 -0.032342084 -0.038865276
0.027812272 -0.009442173 -0.06237281 -0.0013203472 -0.006924562 -0.027297087 0.00923039 0.015496977
-0.0077311173 -0.036013007 0.015547417 0.034166493 -0.038047582 0.037690803 -0.014876813 -0.0031405985
0.027400851 -0.013089761 0.01881326 -0.03801401 -0.047275186 -0.02265694 0.01435224 0.019750193
-0.02385328 -0.0062747225 -0.003023982 -0.003058821 0.036918588 -0.008975759 -0.052434534 -0.057699986
0.04270842 0.028658189 0.012945451 0.039756164 0.061020724 0.019667618 -0.058477983 0.042852446
0.05180437 -0.046334602 -0.06116084 -0.060863435 -0.06045255 -0.05011739 -0.0114896 0.0052623153

value_head.in_linear.bias f4 [512]
00000000: b0c6 d3bc 40a2 d63c 988b f9bc 40a5 943b
00000010: d8a3 76bc f8c7 76bd bc04 743d 8ecb 4cbd
00000020: 8e84 0bbd 2cbe ddbc e8f2 663c 48dc 9c3c
00000030: 88fd 723c b865 25bd ece1 29bd 6c63 abbc
00000040: 4a7f 723d 40dd 1cbb 7841 70bc 0cc0 c4bc
00000050: 6ee6 09bd 0801 5a3c 485a cdbc 4ee1 3dbd
00000060: fca4 6cbd 9cb1 d7bc d2ef 66bd b00f 363c
00000070: 20b9 f83c ae29 50bd 0054 eeb9 d03b 3d3c
00000080: 0e5b 763d 7088 7cbc 9232 783d d8d4 7e3c
00000090: 1c43 91bc 6cdf fcbc bccd 9ebc d88f 783d
000000a0: 3241 533d 284d 8abc 46eb 14bd ead0 20bd
000000b0: d8a3 fcbc dc17 e9bc a0c0 6b3d cafd 04bd
000000c0: 7055 ebbb 3697 70bd e268 4dbd 60c2 7dbb
000000d0: 0a23 693d 34d2 863c b041 9b3b 80d8 4bbc
000000e0: 280a 443c e80b 9a3c 5406 a9bc 2c98 113d
000000f0: 104f 0abd 8ea8 673d b636 3e3d cc02 463d
00000100: 647c 1e3d b661 0cbd 80a0 42bb 08b0 303c
00000110: 66b8 463d 8044 76bb a24a 75bd de63 0cbd
00000120: b0f5 a2bc a853 02bc 6ed0 05bd 5096 87bb
00000130: c089 933c a6d3 423d c427 93bc 2e76 323d
00000140: f25e 23bd f8b7 52bc a473 7fbd 343d 263d
00000150: 6ec5 5f3d 7e36 0abd 1cdf c2bc b049 e5bb
00000160: 7044 ca3c c41e 0abd bcb2 f9bc a824 2c3c
00000170: b405 aebc 94fb f83c ae65 5ebd 1400 473d
00000180: a4f3 c0bc e6a2 4a3d 72c7 07bd c8f3 93bc
00000190: d01d 5dbc c24e 63bd 3239 283d 747e dd3c
000001a0: 0066 353a 8819 5a3c 9a1e 28bd 105b 2abd
000001b0: 94c4 6d3d 8c69 bfbc 6cd6 e93c 3a32 40bd
000001c0: 707b ac3c 7631 313d 2c18 1f3d d0c6 edbb
000001d0: 86ff 47bd aace 143d 28b5 14bd 24f9 ce3c
000001e0: 9cfc 1ebd e082 983c 020e 79bd 5215 2d3d
000001f0: 1c72 cfbc 1a5c 04bd 6cfa 29bd 503b c0bc
00000200: 30eb 053d c0cd cebc 6c14 0e3d dc9a 9f3c
00000210: 78e8 13bd 60e6 a63c 946c f53c 3017 433c
00000220: ae42 41bd 0ac8 0dbd 407c 69bb e4e4 ea3c
00000230: 6096 66bb 3099 80bb e018 4fbc 0882 1f3c
00000240: 8890 bbbc 3036 793d 7073 45bc 90db d83b
00000250: 54d5 6c3d d29c 4bbd d0ed 1cbd 0425 a93c
00000260: 9c4b 2bbd f0b5 b1bb fe48 7bbd 326d 363d
00000270: 0607 183d a8aa 983c 0836 f03c 9c85 98bc
00000280: 2cd5 cabc 7afe 3fbd b02b 0abd c6cb 6ebd
00000290: a86c 6abc 6297 453d dadc 18bd 4017 753d
000002a0: c01f 31bd 0048 0c3c 4e34 2e3d 1041 87bc
000002b0: 7ee5 3abd 04e0 42bd b04d 6d3c 869b 5bbd
000002c0: 76e6 6dbd 2e2d 4fbd 486f 6bbd 30f6 e0bb
000002d0: b2ff 0cbd 1678 5d3d 7c82 0b3d 30e2 e13b
000002e0: bc8b 613d 086d 7c3c 345b 1e3d 00ec 5b3d
000002f0: 2497 133d a4ba c13c fece 62bd bcd7 13bd
00000300: 1ea5 37bd 6e3d 34bd 00f5 d83b 880b 3f3d
00000310: 1c4b ba3c 0a26 01bd bc24 72bd b4fe d43c
00000320: e8d6 bd3c 7eab 723d 701a be3b 807c 1cba
00000330: 387f dfbc e82a 873c 2828 0cbc 16ee 2a3d
00000340: 7c1a 4fbd 3891 43bd 486c 30bc 28d6 963c
00000350: 7640 133d d224 3ebd 7676 5fbd 40a6 7f3c
00000360: 1416 dcbc 8868 283c 20f1 99bc 3010 433c
00000370: c091 813a ea6d 40bd 5822 063c 78c9 933c
00000380: 8c38 23bd 762c 37bd 88df 08bd cc24 c8bc
00000390: 7073 6b3c e447 cc3c b68f 533d a0c1 083c
000003a0: f899 a53c d0b3 45bd c02a d3ba 1284 0abd
000003b0: 703a 9c3b 0025 aabc 64c1 98bc 80c1 d4ba
000003c0: aca8 b7bc 6849 24bd d0ca 78bd c0b5 ff3a
000003d0: 3074 443d f431 e2bc ecb6 e2bc 5e25 143d
000003e0: 4ec1 6a3d 1cf5 c2bc ecbe 54bd f4db 6bbd
000003f0: 8845 4cbc 88ec 013d 809e 87ba 42e4 513d
-0.025851578 0.026200414 -0.030462071 0.004536301 -0.015053712 -0.0602493 0.059574828 -0.049998812
-0.03406196 -0.02706822 0.014095999 0.019148007 0.014830954 -0.04038021 -0.04147522 -0.020921431
0.059203424 -0.0023935586 -0.0146640465 -0.024017356 -0.03366702 0.01330591 -0.025067464 -0.046357445
-0.05777453 -0.026329808 -0.056381054 0.011112139 0.030361712 -0.050821 -0.00045457482 0.011549905
0.06014543 -0.015413389 0.060595103 0.015553676 -0.017732196 -0.030868255 -0.019385211 0.060684055
0.051575847 -0.016882494 -0.036357187 -0.039261736 -0.030839846 -0.02845376 0.05755675 -0.032468595
-0.007181816 -0.058737956 -0.050148852 -0.0038720593 0.05691818 0.016457655 0.004738055 -0.012441754
0.011965312 0.018804505 -0.0206329 0.035545513 -0.033766806 0.05655723 0.046438895 0.04834251
0.038692847 -0.034272872 -0.0029697716 0.010784157 0.0485157 -0.003757745 -0.05988563 -0.03427493
-0.019892544 -0.0079545155 -0.032669477 -0.0041377917 0.01801002 0.047565125 -0.017963298 0.043569736
-0.03988547 -0.012861244 -0.062366143 0.04058571 0.054631643 -0.033743374 -0.023788027 -0.0069973096
0.024690837 -0.033720747 -0.030480735 0.010506786 -0.021242954 0.0303934 -0.054296188 0.04858406
-0.023553677 0.04947176 -0.03314919 -0.01806058 -0.013495877 -0.05549503 0.04107017 0.027037837
0.0006919801 0.013311751 -0.04104481 -0.04159075 0.0580488 -0.023365758 0.028544627 -0.0469229
0.021054953 0.04326006 0.03884141 -0.0072563663 -0.04882767 0.036329903 -0.036305577 0.025265284
-0.038815126 0.018617094 -0.060804375 0.04225666 -0.025322966 -0.032314397 -0.041498587 -0.023465782
0.032694995 -0.025244594 0.034687445 0.019483022 -0.03611037 0.020373523 0.029959 0.011907384
-0.04718273 -0.0346146 -0.0035627037 0.028673597 -0.0035184845 -0.0039245114 -0.012640208 0.009735592
-0.022896066 0.060842693 -0.012051448 0.0066179708 0.057820633 -0.049710102 -0.038312733 0.020647533
-0.041820154 -0.0054233 -0.061348908 0.04453773 0.037116073 0.018636063 0.02932264 -0.018618397
-0.024759851 -0.046873547 -0.03373307 -0.058299802 -0.014308132 0.048240073 -0.037319995 0.059836626
-0.04324317 0.008562088 0.04253035 -0.016510516 -0.045629017 -0.04757692 0.014483854 -0.053615116
-0.058081113 -0.050580196 -0.057479173 -0.0068652853 -0.034423538 0.0540696 0.034059986 0.0068934187
0.0550649 0.015406854 0.038661197 0.053691864 0.03603281 0.023648567 -0.055373184 -0.036094412
-0.044835202 -0.044003896 0.006621003 0.046641856 0.022740893 -0.031530418 -0.059117064 0.026000358
0.023173764 0.05924558 0.0058014914 -0.00059694797 -0.027282342 0.016499951 -0.008554496 0.041730963
-0.050562367 -0.047745913 -0.010768004 0.018412665 0.035950147 -0.046421833 -0.054556333 0.015603602
-0.026865996 0.010278828 -0.018791735 0.011905715 0.0009885356 -0.046979822 0.008186899 0.018040404
-0.03984885 -0.044720136 -0.0334163 -0.024431609 0.014370784 0.024936624 0.051650725 0.008346945
0.02021502 -0.048267186 -0.0016110763 -0.03381736 0.0047677085 -0.020769596 -0.018646903 -0.0016231984
-0.022419296 -0.04010907 -0.060740292 0.0019509122 0.047962368 -0.02761171 -0.027675115 0.03616845
0.057313256 -0.023798518 -0.05193989 -0.05758281 -0.012467749 0.031719714 -0.0010346919 0.051243074
