ckpt/it0010000.pth (torch, 715079 bytes, 10 tensors)

policy_head.linear_1.weight f4 [256, 81]
00000000: a086 c0bd 4303 98be 07f8 ae3e cbb5 37be
00000010: 1d2e 75be e77e 12be 6313 b1be d6af 673e
00000020: 4c39 643e ca4d da3e 11ad 6b3e 36d2 30bd
00000030: 0a8a 433e 23a3 02be 0f21 f8bc 03a3 9e3b
00000040: 8b48 d73d 0fd9 60bc 3b0e 80be fd35 353e
00000050: 8d98 32be e0bd d5bd e7d6 833e 1338 10be
00000060: 3c34 853e bbcd 723d 502a f83d 85ac 0b3f
00000070: ca40 3cbd c9cf 16be 765a 5fbe 388d f1bd
00000080: 86af 993d 74c7 c03e 131c 1f3e ace9 003e
00000090: 09cc 483e 9647 aabd a5aa 533e eeb7 9cbe
000000a0: a37d 863c 6fdd afbc 2c94 f93d f1f3 9a3d
000000b0: 24f2 28bd 9024 0a3c a34a 47be 3c45 d03d
000000c0: 944e 30be 08cb 8bbd 6a21 8cbd 9799 9139
000000d0: f72d 15bd e50d 30bd 62e8 293e e4cc 163e
000000e0: 83ea b1be c4dd bd3d f8cb 35be 5c6b 14be
000000f0: 90bd fabd a8f0 4cbe 45ab b03c 07f4 593e
00000100: ff97 48bd 0278 53be d961 50bd 71c6 7d3d
00000110: ec04 24bd 3357 85bc 694e 533b 00c8 823d
00000120: b7a3 07be 6d89 8c3d 21c2 6dbe 0b66 833d
00000130: 72bc e63c 42ec c8bc 3fad 973e 04e7 b7bd
00000140: 4019 dbbd 7096 40bc e104 46be c311 8bbe
00000150: 77f6 d83e a0db cf3e a69e 06be 54b3 5bbd
00000160: ef8b 7fbd f358 cb3e 5164 aabe 0b33 a0be
00000170: 4688 be3d b2a3 64be 5d88 ddbc 44c6 5abe
00000180: de49 e23e 38aa 3ebd 3b0b d93d dde4 31be
00000190: 680a 0d3e 8c52 a63e 0531 49be 5105 3bbe
000001a0: c582 e6bc e088 453e cdec 08be e147 b13c
000001b0: 0aed 79be 8cf8 8bbd bda4 df3d 59c6 b7be
000001c0: 32a6 533e c566 8cbe 391e 69be a083 40bd
000001d0: e6cf 96be a934 e93c 68e6 e8bd c6ed 0c3e
000001e0: a5bf 06bd 1cb4 11bd a6d9 b13d ae95 0cbe
000001f0: ee5a b5bd edc0 9dbc adcc 31bd de27 ecbd
00000200: af2a dbbb a0a9 d83d 1468 98bd 5e3b 10bd
00000210: d202 883d 9bbe 06bd 8a8f 59bd 2279 a73e
00000220: b467 c2be c094 aebe d71f e73c 704f fa3d
00000230: f71c fa3d 0e39 4bbe 19e4 9ebc 59e7 42be
00000240: fa23 303d f030 9fbd b648 03bd 94b1 493d
00000250: 255d 183d 3509 2a3d 3f16 81bc e397 233e
00000260: 0005 03bd 84ba ccbd 68ce 7abe 6e1e cfbc
00000270: 4ebb 3b3e 6300 1f3d f42b eebc 3b51 64be
00000280: 1493 2ebd eca8 cabd 9bf3 cb3d c507 00bf
00000290: 0ea4 74be 57f3 843e 6068 2d3e 467d e9bd
000002a0: 79f8 66be ff53 8dbe 3a96 2bbe 8b65 90be
000002b0: e8ad 0abe eac1 e5bd 582c a03e 7529 f2bd
000002c0: 5d9e 40bd 4bef c93d 2d73 0dbe f5d6 24bd
000002d0: 41fb b4be 4bb4 ae3e ab0f 913d d919 913e
000002e0: 004f 74be 609e 9b3d 014d 3bbe b7f8 793d
000002f0: ef0b 4b3e 24f1 b03e fb0a 783e 3ff6 58be
00000300: ccb0 3f3e d937 ab3d b7b3 fcbd 19fa 5b3e
00000310: 6a89 833c 6a86 f73d 308f cb3e a088 a53d
00000320: 1bc6 df3d ecc4 d83c ce49 babd bd28 39bd
00000330: 00e3 343e c298 293d 7954 bcbd bdac 17be
00000340: 942f 153e 4c11 6f3e f935 113e 1b92 babd
00000350: 1236 463d bac0 10be e501 d53d 5649 9b3d
00000360: eb3d d43d 4dcd a73d 7b45 c43d 2b68 38be
00000370: de44 183d 4cba 7bbe 2fec d5bd 41aa 113d
00000380: a825 45be ae61 a43e 077c ba3d 624d e23d
00000390: 7045 35be 94f6 7ebc 0fcd 323d f660 353d
000003a0: ab01 47bd ba66 523d c641 273d b215 103e
000003b0: fe17 4a3d 1827 083e c460 14bd 5615 d13d
000003c0: 95c9 a83d ae2c 853c 6cbe 8fbd 2a5c 243d
000003d0: f3f9 543c c5b1 6dbe 0f95 173f 07c8 f43b
000003e0: f0ed 333d da37 b13e cd2e 903e 147c 183e
000003f0: acda c1be 47b7 53bd 57bf dc3e 9ff3 78bd
-0.09400678 -0.29689988 0.34173605 -0.17940442 -0.23943372 -0.14306222 -0.34585103 0.2262567
0.22287482 0.42637473 0.23015238 -0.043169223 0.19095626 -0.12757544 -0.030289201 0.00484121
0.10511883 -0.013723626 -0.25010857 0.17696376 -0.17441006 -0.104366064 0.25749895 -0.1408389
0.26016414 0.05927823 0.121174455 0.5456012 -0.045960225 -0.14727701 -0.21811852 -0.117945135
0.075041816 0.3765217 0.15538053 0.12589139 0.19609083 -0.08314435 0.20670564 -0.30609077
0.01641733 -0.021467892 0.12186465 0.075660594 -0.04124655 0.008431569 -0.19462065 0.101694554
-0.17217475 -0.068258345 -0.06842311 0.00027770989 -0.03642079 -0.042982 0.16592553 0.14726597
-0.3474923 0.09270814 -0.17753589 -0.1449408 -0.122431874 -0.20013678 0.021566043 0.21284495
-0.04897308 -0.20651248 -0.050874565 0.061956827 -0.040043756 -0.016276931 0.003224278 0.06385803
-0.13246046 0.068621494 -0.23218586 0.064159475 0.02816603 -0.024526719 0.29624364 -0.089796096
-0.106981754 -0.011754617 -0.19337799 -0.2716199 0.42375538 0.40597248 -0.13146457 -0.053637818
-0.06238931 0.397163 -0.3327966 -0.31288943 0.09303336 -0.2232807 -0.027042562 -0.21364695
0.4419698 -0.046549052 0.10597845 -0.1737246 0.13773501 0.32484853 -0.19647606 -0.18263747
-0.028138528 0.19290495 -0.13371582 0.02164072 -0.2440683 -0.06834516 0.10920093 -0.35893515
0.20668867 -0.27422157 -0.22765435 -0.047000527 -0.2945549 0.028467493 -0.113720715 0.13762578
-0.03289761 -0.035572156 0.08684091 -0.13728973 -0.08855234 -0.019257033 -0.043408085 -0.115310416
-0.006688438 0.105792284 -0.07441726 -0.035212867 0.06641163 -0.03289662 -0.053115405 0.32709605
-0.37969744 -0.34097862 0.028213425 0.12222183 0.12212556 -0.19845983 -0.019395875 -0.19033565
0.04300306 -0.07773006 -0.032051764 0.049241617 0.037198205 0.041512687 -0.015757678 0.15975909
-0.03198719 -0.099965125 -0.244928 -0.025283065 0.1833317 0.03881873 -0.029073693 -0.22296612
-0.042620733 -0.098955005 0.099585734 -0.50011855 -0.23890707 0.25966904 0.16934347 -0.11400847
-0.22555722 -0.27603146 -0.16756526 -0.2820247 -0.13542902 -0.11218627 0.31283832 -0.118243136
-0.047026027 0.09860095 -0.13813467 -0.04024406 -0.35347942 0.34121928 0.070830666 0.28340033
-0.23858261 0.07598567 -0.18291093 0.06102821 0.19828771 0.34558976 0.24222939 -0.21187685
0.18719786 0.083602615 -0.123389654 0.21482123 0.016056735 0.12086184 0.3975768 0.080827
0.109264575 0.026461087 -0.090961084 -0.045204867 0.17664719 0.041405447 -0.091957994 -0.14811988
0.14568931 0.23346442 0.14180745 -0.09109899 0.04839141 -0.1413602 0.10400752 0.07582347
0.103633724 0.08193455 0.09583565 -0.18008487 0.037175052 -0.24582785 -0.10445439 0.035562757
-0.19252646 0.32105774 0.091056876 0.11049916 -0.1770227 -0.0155617185 0.04365259 0.044281922
-0.048585575 0.0513675 0.04083421 0.14070776 0.049339287 0.13296163 -0.036225095 0.10209148
0.08241574 0.016256656 -0.07018742 0.040126957 0.012999046 -0.23212345 0.5921182 0.007470134
0.043928087 0.34612924 0.28160706 0.14891082 -0.37862146 -0.05168846 0.4311473 -0.06077921

policy_head.linear_1.bias f4 [256]
00000000: 4050 6a3e 30d2 89be 0dcf 273e 714d a53e
00000010: 6d93 573e bfa2 a5be 2c54 b23e aca3 853c
00000020: ee7b 993e 8980 8d3e 5e0f 71be ca88 5a3e
00000030: 7bb5 dfbd c152 cf3c 8add 82be 7bb7 6e3e
00000040: 496b aa3d 5d66 c83d 505d 8dbe 01f0 6e3d
00000050: 2c8f ad3e 6b82 91bd db32 893d bc41 8abe
00000060: 23bd 9e3c b799 59be 7274 733e 1e13 553d
00000070: 5ec0 953e 92ee c63d 53a6 aa3d bb6c bfbd
00000080: ca21 edbe 69fa 0cbe a732 c4be 58ba 3fbe
00000090: 5520 073e c622 c83c d8dc 8fbe c358 77bd
000000a0: bfcd efbd d270 d7be 9e63 b3be f703 90bc
000000b0: d4d0 033e 4eca c53e 5479 1cbe b530 4c3d
000000c0: 68f4 cabd c2e2 a63d bb22 813e d3cb adbd
000000d0: 9805 fc3d 7296 053e 326f d3bc f71b 22be
000000e0: 6a34 dcbd 0e20 8a3e 9842 ffbd 358c 983c
000000f0: aaae 90bd 46c5 8b3e 57ef 44be 12d1 57be
00000100: 9a72 26bd 266f 67bc 112a ea3d 689c 69be
00000110: 1e84 b2bd 4800 d2be 80a5 683e 105c dabe
00000120: 5160 4fbe cf66 aa3e 1e50 a8be 76a2 0dbe
00000130: 2498 a33d d0e2 dabe f1ad 713d 432e ac3d
00000140: 285e 05be a8f1 d0bc 8dfc 243e a9f6 1ebe
00000150: 9398 8dbe c20e 8d3e 9052 0abe efb7 97be
00000160: 1f46 e5bd 8f17 3bbe 55da 3bbd ab0c 6abe
00000170: 5fbe ac3e 4d21 753d ba50 4dbe 2ad5 ac3d
00000180: 414b 803d 2228 a1be 69e5 c73d 2b03 f43d
00000190: 5f03 823e ffba 953c f45f 84bc b8cb c63d
000001a0: ddcf a73e 91a7 6fbe 5e02 1e3d 9ab5 e2bd
000001b0: ebd8 10be 1ff4 833d 97cc 07bd 0fce ee3d
000001c0: 2d05 af3d 1748 06bd 917e 393b 5ede 473e
000001d0: e4f0 abbb 2056 84bd dabb 45be b694 183e
000001e0: 8194 84be 0be1 8f3e 7824 37be f763 2c3e
000001f0: 96bd bd3d bddb c63c cf08 ec3d 35fd 14be
00000200: a825 e8bd 7047 d6bd 117e 6fbe 2b14 783e
00000210: 60dd 6fbc dca4 a03d 1fff 873e 0e50 30bd
00000220: 81f8 983d 12a0 413e af75 c2be 3540 b03d
00000230: 9012 82bd aec0 043e d0ff 8c3e 9eaa 273d
00000240: c71e 3cbe 82c6 a3bd 62bf 5dbe 9cb5 49bd
00000250: b5a7 70be fe8b 973d a638 993e 5585 c8bd
00000260: c041 c33d 0185 343e 0b8b 2a3e b714 46be
00000270: 5b52 473e 882a 753d 0b57 b4bd 66c7 debd
00000280: b570 87bd 9c2a 353e 2963 c43d 7437 3fbe
00000290: 42d0 523e 0f3a 78be e1d0 a43e 1a36 a0bd
000002a0: c22e ad3e 5a90 e6bd 4325 bdbe f963 e53a
000002b0: 13d7 fd3c a112 e33d 4159 88be 6f41 a6be
000002c0: 8741 30bd 3c4d f5bd 0075 113e 992c 21bc
000002d0: 7ca0 6bbd 0e8e cf3d 1897 1c3d 7c60 da3e
000002e0: 7f69 283e cc38 97be d29d 2e3e 5e5e e53d
000002f0: ab29 46be 55a3 39be fb12 ef3d eb99 3abe
00000300: 3acd e0be 28de 5cbe b95a f33d 41be 863e
00000310: 06e0 063e 0619 4dbd 17b4 943e cd87 e0bc
00000320: baad e53e fc39 943d f3b1 7e3e fbe0 973e
00000330: 6b51 2dbe b921 20bd 1610 67be 04e8 ebbb
00000340: 9644 1ebd 6419 233d 4563 3fbe e55c 423e
00000350: eda8 963e a88c 9fbe a501 29be bf96 3c3e
00000360: 1270 2dbd 2692 7cbe 04a7 83bd eab6 1e3e
00000370: ffd3 fabb d0cc bd3d 2cb3 913e 1fa2 94be
00000380: 9fcc d53e a9fc 1cbe f380 3e3d d734 d6bd
00000390: 0c56 2a3e 37cb ee3c 24c5 8c3e 8336 743e
000003a0: 09b5 23be 3bb4 5d3e 031d dfbd ee86 0fbd
000003b0: eb93 903c 7497 c0bd 1411 8abd 2007 4abe
000003c0: a7eb 733e 1450 753e fc84 b9be e394 8eba
000003d0: beb5 1bbe 3a73 babd 3e97 b13d 4522 d3bd
000003e0: 1a6e 0bbe 7571 6d3e e281 9c3d d6f4 1cbe
000003f0: 47f9 3fbc 3049 293e afb8 4f3d 1541 9abd
0.22882175 -0.26918173 0.16387577 0.32285646 0.21052332 -0.32350728 0.34829843 0.016313396
0.29977363 0.27637127 -0.23541018 0.21341243 -0.109232865 0.025308015 -0.25559646 0.2331218
0.08321244 0.09785149 -0.27610254 0.058334354 0.33898294 -0.071049534 0.06699153 -0.27003276
0.019377297 -0.21250044 0.23774889 0.052020185 0.29248327 0.097134724 0.08332505 -0.093469106
-0.46314842 -0.13767399 -0.38319895 -0.18723428 0.13195927 0.024430644 -0.28098178 -0.060387384
-0.11709165 -0.42078263 -0.3503694 -0.017580016 0.1287263 0.3863091 -0.15280658 0.04985114
-0.09909898 0.08148719 0.2522181 -0.08486142 0.123057544 0.13045672 -0.025809858 -0.1583098
-0.10752185 0.2697758 -0.124638736 0.018621543 -0.070645645 0.27298945 -0.19231926 -0.21075848
-0.040636636 -0.014125621 0.11433805 -0.2281357 -0.087166056 -0.4101584 0.22719383 -0.42648363
-0.20251586 0.33281562 -0.32873625 -0.13831505 0.07988003 -0.4275117 0.059003774 0.08407261
-0.13024199 -0.025505856 0.16111965 -0.15523781 -0.27655467 0.27550322 -0.13508058 -0.29632518
-0.11195015 -0.18270706 -0.045862515 -0.22856395 0.33738992 0.05984621 -0.20050326 0.08439095
0.062643535 -0.3147593 0.097605534 0.11914667 0.25393197 0.018277643 -0.016159035 0.09706825
0.32775775 -0.23403765 0.038576476 -0.11069794 -0.14145248 0.06443047 -0.033154096 0.11660396
0.08545909 -0.032783594 0.00283042 0.1951842 -0.0052472223 -0.064617395 -0.19309941 0.14900479
-0.2589455 0.28101382 -0.17885005 0.16835009 0.09264676 0.024274701 0.115251176 -0.14549716
-0.11335307 -0.10462844 -0.23387934 0.24226443 -0.014640182 0.078439444 0.2656183 -0.043045096
0.07469273 0.18908718 -0.3798041 0.086059965 -0.06351197 0.12964126 0.2753892 0.040934198
-0.18371116 -0.07996847 -0.21655038 -0.04924546 -0.23501475 0.07399748 0.29926032 -0.09791056
0.09534025 0.17628862 0.16654603 -0.1934384 0.1946501 0.059855014 -0.08805665 -0.10877876
-0.06613294 0.17692035 0.09589226 -0.18673497 0.20587257 -0.24240898 0.32190612 -0.07822819
0.33824736 -0.112580016 -0.3694249 0.0017501108 0.030986344 0.110875376 -0.26630595 -0.32471797
-0.04303124 -0.11977622 0.14204788 -0.009837293 -0.057526097 0.10134517 0.03823003 0.42651737
0.16446494 -0.2953552 0.17052391 0.1119964 -0.19351833 -0.18128712 0.11673542 -0.18222778
-0.43906575 -0.21569121 0.11882538 0.26317027 0.13171396 -0.050072692 0.29043648 -0.027408505
0.44859105 0.07237622 0.2487257 0.29663834 -0.1692559 -0.03909466 -0.2256473 -0.0071992893
-0.038639627 0.039819136 -0.18690212 0.18980749 0.29425755 -0.31162 -0.16504534 0.1841688
-0.042343207 -0.24665126 -0.0642834 0.15499464 -0.0076546664 0.092675805 0.2845701 -0.2902994
0.41757676 -0.15330757 0.046509694 -0.10459297 0.16634387 0.029149635 0.27494156 0.2384892
-0.15987028 0.21650784 -0.108942054 -0.03504079 0.017648658 -0.094038874 -0.06741539 -0.1972928
0.23820363 0.23956329 -0.36234272 -0.0010878112 -0.15206048 -0.09104009 0.08671425 -0.10309271
-0.13616219 0.23187812 0.07641961 -0.15327772 -0.011717147 0.16531825 0.050713237 -0.07531945

policy_head.pos_embed.weight f4 [256, 1]
00000000: 0f1d 4c3e 51fe ed3e 48fe 8abc 984c fabe
00000010: 00d5 dfbe 9a71 103e 5f58 c7be 52fa 083e
00000020: 3247 92be 1ec0 9b3e 480d 0dbf 8257 5d3e
00000030: 75b5 173f 876d 003f d535 dcba 42e8 3f3e
00000040: 8f08 35bf 7616 b1be c956 353e 5ad7 c03e
00000050: 0ab8 fbbe f5b4 0abf 8a52 1c3f 5399 c43e
00000060: 226a c53e 9c94 083e be9f 2bbe c6f2 2e3e
00000070: 40c3 ec3d af40 163d 8ce2 f9be d057 85bd
00000080: 53fe b53e 751c 093f e8ba 063f c381 b2be
00000090: ee44 2dbd 3cf6 cf3e 9af3 1e3e b6db edbd
000000a0: d028 a93e 864b e13e 67c6 c73e 5780 113f
000000b0: 0429 133e b2ab dcbd 774a 8fbe 4e1c c1be
000000c0: f60c 9dbd 88d0 0c3f b040 42bf adee 1cbe
000000d0: 6562 ec3e 45e2 343e e921 8cbe 04f0 043f
000000e0: bae0 873e ba62 11be ed89 063e 9e53 103f
000000f0: e502 0c3f a41d a13e 30ff ed3e 6f9b 33bc
00000100: 0bf2 8d3e d36a bc3e ed0c f73e 6deb 1a3f
00000110: 1269 61be 40a1 123f d6e0 3bbf 0f2d a13e
00000120: e9f8 aa3e ff64 7fbe 4ac6 c33e e5c1 a63e
00000130: 01ec d93d 3c7f 253f 12e3 093f c6e5 a23e
00000140: c6de 0abf df04 d6be ee38 9f3c e8f8 30be
00000150: 5323 9c3e a7f7 b73e 6e8e ccbe 3ea3 d03d
00000160: 8a16 50b9 940b ae3e 2644 233f e772 e4bc
00000170: 0f25 65bd cf9e 913e 5a9e 323f 2dee e23e
00000180: cb92 903e cf83 1a3d 2d12 adbe 09c3 a73e
00000190: e661 e93d 2e0f 973d 3669 f4be 167c 1c3e
000001a0: eadd 96bd a80c aebc 1e66 33bc 02e5 7f3e
000001b0: 7fbe 443e 008d 0fbe c755 0abe ebe7 9cbe
000001c0: f478 103f 7c15 c2be b413 55bd 8587 aabe
000001d0: 33b9 fc3e 20f5 153f b868 81bd 7352 25bf
000001e0: 268d eb3e bb7d 163e 1aaa 3fbc 9396 5bbd
000001f0: 16ec 44bf e1ea e83e 892d 313e 9a10 103f
00000200: d291 173e 047a 0cbf 3443 113e 66ce f1be
00000210: 6331 1c3f 4496 b23e 1900 3dbe 6dd6 063e
00000220: 0934 c4be 8c48 0dbf 338b cc3e 0061 c13e
00000230: 0d25 6e3c cc58 c4bd 2622 67be 9abf 1c3f
00000240: bf46 1b3f a21a 1abe a899 d0be 1d9b 1dbf
00000250: 33be 503c 1a47 8abe 96d9 d9bd 36c9 9f3e
00000260: 08d5 923d cc4b 7ebe b7c3 d13e 43ed 23be
00000270: 9c85 2a3e 023b 413e cf1a 2ebe 07f6 84bd
00000280: ad72 2dbf db65 cf3e 91bc 03bf 63e0 103f
00000290: 788d 2abe e054 483d d95b 19bf f11b 1f3f
000002a0: d5b1 08bf 064e 5c3f 3c57 543e 7640 b3bc
000002b0: 007a 043f f868 2abf f734 503e f4d7 ba3e
000002c0: 823a 0dbf a43b 743e b7e8 f9bc 68fe 36bd
000002d0: 8f48 c33c 7c0e 35bf 94e8 a1be 7419 2bbf
000002e0: f3f2 4fbd ab12 67be 1173 1abf 547c 2c3f
000002f0: 969a 18bf 3827 d93e 89b8 08bd ee10 863e
00000300: 00fd 303f 9525 b33e 8a67 d93d b407 b0bd
00000310: 98ba 373f 241b c73e c534 febe 332b b1be
00000320: 7507 0abe bcfa d6bc c4aa 93be db1b debd
00000330: b0f4 103f c5ae 1e3e 0b0e 8a3e 7bdd 333e
00000340: 4a38 533f fa77 cdbe 8641 ce3e e2d7 e93d
00000350: 390d c3be ed73 2b3e 288e a83e 463a c8bd
00000360: 15bf d43c 3e6c 5d3e b2aa be3e 4510 ec3e
00000370: 2484 edbe fff7 98bc 957d 03bf 6bee 703f
00000380: 6ec9 91be 6bd0 e43d e2fc b0be 5fc8 a23e
00000390: c8f0 1bbf 7a3e c9be 310a c2be 2d23 d2be
000003a0: e791 1fbf 32f7 2dbd 9892 033f 300f 853e
000003b0: 058b f8be 0444 0d3f 7d60 62bf fba1 e9be
000003c0: fa01 d8be 4ec8 c13e d16c c73e 68e9 123f
000003d0: 08dd be3e cda4 b93e a2b0 0cbc 1829 7ebc
000003e0: 43b3 aa3e 69af d13e 6090 01bf 3397 f33e
000003f0: a4a8 fd3e fcce 2ebe e3c2 9d3e ca27 7f3d
0.1993296 0.4648309 -0.016966954 -0.4888656 -0.43717194 0.14105836 -0.3893461 0.1337674
-0.28569943 0.3042001 -0.5509839 0.21615413 0.59261256 0.50167125 -0.0016800711 0.18740943
-0.70716184 -0.3458745 0.17708887 0.376643 -0.49163848 -0.5418237 0.61063445 0.38398227
0.38557535 0.1333794 -0.16760156 0.17084798 0.115606785 0.03668278 -0.48805654 -0.065108895
0.35545596 0.53559047 0.52628946 -0.34864625 -0.042302065 0.4061755 0.15522614 -0.11614172
0.3303895 0.44002932 0.39018556 0.56836456 0.14371115 -0.10774936 -0.279865 -0.37716907
-0.07668488 0.55005693 -0.75879955 -0.15325423 0.4616882 0.1766444 -0.2736962 0.51928735
0.2653864 -0.14197817 0.13138552 0.5637759 0.54691917 0.31467927 0.46483755 -0.010962351
0.27723727 0.3680025 0.4825205 0.6051548 -0.22012737 0.572773 -0.7338995 0.3147969
0.33393028 -0.2494087 0.3823722 0.32569805 0.10640717 0.6464727 0.53862107 0.31815928
-0.54246175 -0.4180059 0.019436326 -0.1728245 0.304957 0.3593113 -0.39952415 0.10187386
-0.00019844822 0.33993208 0.6377586 -0.027886821 -0.055943545 0.28441474 0.69772875 0.4432234
0.28236994 0.03772336 -0.3380293 0.32765988 0.11395626 0.07375942 -0.4773652 0.1528171
-0.073665455 -0.02124627 -0.01094964 0.24989703 0.19213293 -0.14018631 -0.13509284 -0.3064569
0.5643456 -0.37907016 -0.052020743 -0.33306518 0.49360046 0.58577156 -0.06318802 -0.6457893
0.46006125 0.146964 -0.01169827 -0.053610396 -0.7692274 0.45491698 0.17302527 0.5627533
0.1480172 -0.5487368 0.14185792 -0.47227782 0.6101286 0.3488027 -0.18457069 0.13167734
-0.3832095 -0.5518882 0.3994995 0.37769318 0.014535201 -0.09587249 -0.2257162 0.6122986
0.60654825 -0.15049222 -0.4074223 -0.6156481 0.0127406595 -0.2700737 -0.10637204 0.312082
0.07169539 -0.24833602 0.4096963 -0.16008477 0.1665253 0.18870166 -0.17002414 -0.064922385
-0.67753106 0.40507397 -0.51459605 0.56592387 -0.16655529 0.048909068 -0.59905773 0.6215201
-0.5339635 0.86056554 0.20736402 -0.021881323 0.5174866 -0.6656642 0.20332704 0.36492884
-0.551674 0.23850876 -0.030506475 -0.044676214 0.02383831 -0.70725226 -0.31622756 -0.66835713
-0.050768804 -0.22565715 -0.6033183 0.6737721 -0.5961088 0.42412734 -0.03337911 0.2618479
0.6913605 0.3498961 0.10615452 -0.08595219 0.71769094 0.38887894 -0.49649635 -0.3460327
-0.13479407 -0.026242606 -0.2884122 -0.10845157 0.56623363 0.15496357 0.2696384 0.17564957
0.82507765 -0.40130597 0.40284365 0.114181295 -0.38096026 0.16743441 0.32920957 -0.0977674
0.025970021 0.21623322 0.37239605 0.46106163 -0.46389878 -0.018672941 -0.513635 0.94113797
-0.2847399 0.11172565 -0.34567934 0.31793496 -0.6091428 -0.39305478 -0.378984 -0.41042462
-0.62332004 -0.042472072 0.5139556 0.2598815 -0.48543563 0.5518191 -0.8842848 -0.45631394
-0.42189008 0.37848133 0.38950208 0.573874 0.37278008 0.36258546 -0.008587034 -0.015512727
0.3333989 0.4095414 -0.50610924 0.47576293 0.49542725 -0.17071146 0.3081275 0.062293805

policy_head.pos_embed.bias f4 [256]
00000000: 17a4 2fbf 9309 e23e 716f 12bf 91ee fdbe
00000010: 65a1 85bd 77d0 0b3f 7a86 8ebe f891 c0bd
00000020: caad 77be 095f 22bf a714 0e3f 0bf3 86be
00000030: 2add 10bf 4511 bbbe 76f3 1a3f cbb8 4cbf
00000040: 01b1 973e 8966 1b3e 7b39 0f3f ce8a 2bbe
00000050: 21ed bbbc c9b3 263f 19a0 2cbf 5a3c 553e
00000060: 5ab2 56bf 346f 213e b36f 20bf a22a 0d3d
00000070: 46d8 24bf b39c 6abd 63d3 d33d 8c5c 153f
00000080: 2f9c 193f 8852 313e 12cd c23e 48a6 133f
00000090: 75ac 1bbe 92bc 32bf 972e 163f df26 b23e
000000a0: 50c3 e23e 3eed 133f 3d3c af3e ff84 2a3e
000000b0: 625b 3bbf 2de4 26bf 6cd2 133f 2d5a a13d
000000c0: ba03 8f3e ccfd e2be dd74 7c3e 84c4 f73e
000000d0: 9ba0 56bf b215 ddbe aebc 18bd 96d9 a2be
000000e0: b745 01be bf9f e6be 738f 203e 0339 5cbf
000000f0: e7fd 39be 6358 2dbf d373 95bd 9666 b23e
00000100: da12 46bd b0ac 1dbf b89c 2fbf e305 6b3e
00000110: 0082 583e 44a8 bc3e b5ea 5f3e 836f b73e
00000120: 0a0e 863e 56da 0abf 7328 ba3e 8141 953e
00000130: d47b 33bf 4f82 c93e e781 57bf f793 cdbe
00000140: 8e82 143f 60ba ef3e 115b 81be 3e9b 9d3e
00000150: 951d d23e 9f54 e7be abec 2b3f 37a9 e53e
00000160: f68e 683e 5f56 d33d a5df af3c 777d 793e
00000170: 50d7 1cbf 703d c8be 015b 3b3d 3ccb 41bf
00000180: 992e e4be f0a5 103f b1cc 833e 0c93 fcbe
00000190: cd52 6dbe ae3e cabd 7136 953e d0bb 3fbe
000001a0: 72bf 0fbf 0cb5 133e 6288 5bbe d11c 193d
000001b0: 0f6c 89bd 4cd8 023e fa45 183e 740c 463e
000001c0: daae 20bf cdf6 303e 1c64 d9bd 3410 543e
000001d0: 95c3 c4be 8dcd efbe a20e 103f 2bc5 483e
000001e0: 15cb d13e 8fab 99be efaf f23e e2bc fabe
000001f0: c24c 003f 5a6f 58bf 47b1 15bf 7124 36be
00000200: a9ec 213c 51e2 413f 4921 a43d 5810 6cbe
00000210: d519 1dbf 0e69 2dbf f4ad 07bf de18 10bf
00000220: 3e84 e73b d932 fa3d 1a62 f63e af99 f6be
00000230: 557c 2f3e 10c7 14be f2b1 a2be 69e1 bd3d
00000240: 1a25 80be 71a8 143f ab93 433f 1914 023f
00000250: 7d2e 233f 95f1 523e 2cd9 2fbf 5e36 853d
00000260: 3da6 20bf 6b51 b7be be6b 03bf 676e de3d
00000270: ac44 35bf b751 6ebe 2d1f d13e 3858 4cbc
00000280: ddc4 133f 0602 c6be 855b f53e 70cf e43c
00000290: 3aae 3bbf 97dc df3e 487d f2be 041b 1fbf
000002a0: 9c5d 80be 3383 97be 5059 133f bb4e e83b
000002b0: 5f86 22bf 11f2 fc3e 08fd 0d3f 7756 d33e
000002c0: 033f 0f3f 3c50 083c 1ab4 eebe 485e 8bbe
000002d0: 838f e8bd 2dda 203f 47ad 8dbe c04a a9be
000002e0: 490b dbbe 933f 1e3f 325b 9f3e 37da 60bf
000002f0: a2b9 3d3f e855 953d 8e54 80be 6e4a af3e
00000300: 8608 8f3d 2eda e33e d5ea ebbb 51fc a1be
00000310: 32b5 2cbf 9b91 4cbe ed3c d7be a247 9f3e
00000320: cd80 0bbf 4d59 6fbd 4a5e 82be 5462 91be
00000330: f421 af3c c366 bbbd f345 a73e a128 f93d
00000340: a946 65bf a31a 593e bbcd b33d 8877 c3be
00000350: 1120 d3be fe57 313e eae4 403c 6af5 3fbf
00000360: cfeb 0e3f 92a8 b53d 2c1a 983e 2b71 17bf
00000370: 8fee f83e 0b7f 59be e845 a23d 977d 023e
00000380: 0037 22bf d66a d13e 93f3 ecbd 6edb 12bf
00000390: 54fb 1d3e 9b00 b63e f6b5 fdbc 4a58 f6be
000003a0: 2603 363f b2cf 49bf c583 8ebe e4aa b23e
000003b0: d10a 353f 3eb8 48bf 5b38 753f 9f5e 3f3f
000003c0: aad8 1cbf fe26 31bf 910e 223f 0865 89be
000003d0: 58b0 dbbe 7bb8 d8be 447d 60be fada 4f3e
000003e0: abee 103d ec77 0ebf 8269 8b3e 5d59 72be
000003f0: 4f14 1e3e 23ef c2be 636b d8be 714a 54be
-0.68609756 0.4414793 -0.57201296 -0.49596074 -0.06524924 0.5461497 -0.27836972 -0.09402841
-0.24187389 -0.6342626 0.5550026 -0.26357302 -0.5658747 -0.36536613 0.6052774 -0.7996947
0.2962723 0.15175833 0.55947083 -0.16752169 -0.02294022 0.6511808 -0.6743179 0.20823804
-0.8386589 0.15765077 -0.6267044 0.034464486 -0.6439251 -0.057278346 0.10343053 0.5834434
0.6000394 0.1731664 0.3804708 0.576756 -0.15202506 -0.69818985 0.5866484 0.3479528
0.44289637 0.5778388 0.34225646 0.16652296 -0.73186314 -0.6519192 0.57742953 0.07878528
0.2793253 -0.44334257 0.24653955 0.48392117 -0.83838814 -0.43180615 -0.037289314 -0.3180663
-0.1262425 -0.45043752 0.15679722 -0.8602449 -0.18163262 -0.6771299 -0.07297482 0.34843892
-0.048357822 -0.61591625 -0.6859851 0.22951464 0.21143341 0.36847126 0.21866877 0.35827264
0.26182586 -0.54239404 0.36358985 0.29151538 -0.7011082 0.3935723 -0.8418259 -0.4015195
0.5801171 0.4682188 -0.2526479 0.30782503 0.41038194 -0.45181748 0.67158 0.44855663
0.22710785 0.10319208 0.021468947 0.24364267 -0.6126604 -0.39109373 0.045741085 -0.75700736
-0.445668 0.565032 0.25742105 -0.49330938 -0.23176117 -0.098752365 0.29143098 -0.18723989
-0.561515 0.14424533 -0.21438745 0.037380997 -0.06710064 0.12777823 0.14870444 0.19340688
-0.627668 0.17281647 -0.106147975 0.20709306 -0.38430467 -0.4683651 0.5627233 0.19606464
0.40975252 -0.300137 0.47399852 -0.4897223 0.50117123 -0.8454491 -0.5847363 -0.17787339
0.009883084 0.75735956 0.08014161 -0.2305311 -0.6136754 -0.67738426 -0.52999806 -0.56287944
0.007065325 0.1221673 0.4812172 -0.48164126 0.17137273 -0.14529061 -0.31776386 0.09271509
-0.25028306 0.5806952 0.763972 0.50811917 0.6374281 0.20599969 -0.68690753 0.0650451
-0.6275366 -0.35804304 -0.51336277 0.10860901 -0.7080791 -0.23273359 0.40844098 -0.012472205
0.57722265 -0.3867342 0.47921386 0.027930945 -0.73312724 0.43722984 -0.47361207 -0.621506
-0.25071418 -0.29592285 0.57558155 0.0070894635 -0.63486284 0.49403432 0.5546422 0.41276905
0.55955523 0.008319911 -0.46621782 -0.27220368 -0.11355498 0.6283291 -0.27671263 -0.33064842
-0.42782047 0.61815757 0.31124264 -0.8783297 0.7411138 0.07291776 -0.2506451 0.34236473
0.069840476 0.44502395 -0.007199625 -0.31637815 -0.6746398 -0.19977419 -0.4203867 0.3110934
-0.5449341 -0.058434773 -0.25462562 -0.2839533 0.021378495 -0.091504596 0.32670555 0.121659525
-0.89560944 0.21201567 0.08779474 -0.38177133 -0.41235402 0.17318723 0.011773327 -0.7498385
0.55828565 0.08870043 0.29707468 -0.59157056 0.48619506 -0.2123987 0.0792349 0.12743221
-0.63365173 0.40901822 -0.115698956 -0.57366073 0.15427905 0.35547337 -0.030970555 -0.48114234
0.71098554 -0.7883254 -0.27834907 0.34896004 0.7071963 -0.7840613 0.95789117 0.74753755
-0.61268103 -0.6920012 0.63303477 -0.26834893 -0.42907977 -0.42328247 -0.21922785 0.20298377
0.03538386 -0.55651736 0.27228934 -0.23666902 0.15437435 -0.38073072 -0.4226943 -0.20731522

policy_head.linear_2.weight f4 [81, 256]
00000000: eb59 1f3c 4dff 5abd 6830 92bd c4cf 423c
00000010: 7ba2 9e3b 1e64 f8bc 2edb 863b d2c3 eabc
00000020: cc89 94bc f989 81bd 7237 253d aea7 5d3c
00000030: 727a 84bc b7ae a8bc 9192 9cbd a46e 933b
00000040: 4102 333c 1f84 3fbc a16c de3c e77f 74bd
00000050: 8727 9cbc 6982 16bd c43d 273d 73ac b63c
00000060: 7038 cdbc d676 ca3b ee47 10bd e7a3 12bc
00000070: 2056 6fbd 4ec8 17bd e487 0ebd 9d83 5cbb
00000080: ef16 6ebd 494b 043d bc6c 09bd 9901 5b3b
00000090: a016 8f3b 3865 21bd 2708 1ebc c98d 263d
000000a0: 637c a7bc 5c6b 23bd b7fe d93b c812 9abd
000000b0: c58e 553c 70ef 853c 6e4d b53b 14bb 933c
000000c0: 211e 43bd 5de9 083c b794 99bd 94c7 a93b
000000d0: 8963 ec3c 6860 41bd bd97 183d 5b01 b73c
000000e0: f912 85bc 2f52 dcbc c041 12bd 5648 90bd
000000f0: b887 9dbc 22b5 acbc 471e febb dede 9ebd
00000100: 9d0b a0bc b41d 54bd a09d 9c3b f409 8f3c
00000110: 31e8 7ebd e863 54bc 1423 e2bc 21dd 61bd
00000120: 451c 43bd 9718 f0bb b02e 0e3d cc8a 0fbd
00000130: 277c 9fbd 9ac6 7cbd 7be7 d33c 4036 8ebd
00000140: 0eff c9bb caa9 c9bc f2ad b23b cd09 94bd
00000150: 9549 d3bc 483d 623c 8f62 49bc 8ab5 9abd
00000160: 2bd3 e7bb a95f 2bbd 9d41 0e3d cb0a 933a
00000170: 05d4 80bd b3a6 c7bc a98b 2fbd de7c 11bd
00000180: 1f8a 0f3d f5f8 5a3c 029b 88bd d798 723c
00000190: ada1 253c b367 bf3c f3ff acbd 32bb 33bc
000001a0: caac 8abd 11fe 9bbc a7cb 36bd 5ba4 1bbb
000001b0: c318 2e3c fe5c f9bc b71e 24bd f94d 19bc
000001c0: 9b40 b23c 70c9 e1bc d347 32bc 3b94 17bd
000001d0: 1f97 68bd 2403 58bd 4424 5cbd a503 333c
000001e0: 87fb 963c ebfd 99bc be1a 783c 7e9c eabb
000001f0: d534 abbd e6fe bf3b 6e90 b63c 09fa 1ebd
00000200: 4571 5f3c f27c f9bc 475f dcbc 4557 6bbd
00000210: 3508 8a3c 0b12 32bd e535 be3c 5544 aa3b
00000220: b4f3 a73c 74bd c83b e80f 65bd d824 8abd
00000230: 4b1e 443c f1e3 b73c d437 25bd 96ff 6c3c
00000240: 2539 8739 418e a63a 7c00 ba3c f291 6cbd
00000250: 072f 49bd ed99 d4bc 94ea f73c 2e45 1e3d
00000260: 1813 ccbc a793 bbbd 911d a9bd cde0 b83c
00000270: 0e24 d9bc 577b 31bd 4bb2 a6bd d31b 80bd
00000280: fdd4 2d3d 5d0a cebc 717d 73bc fc82 883c
00000290: 015e 143d 34ed cebc 046c 66bd 58fc bb3b
000002a0: 34f6 ebbc 5c29 8abd fd58 0b3d ba5c 93bb
000002b0: f3b0 a4bd bd33 49bd 1ad8 983c 344a bfbd
000002c0: 2b33 093d 6149 083d 88be 60bd 652c 82bd
000002d0: 9422 a7bd e5d5 9cbd ccda 043d 7259 d23c
000002e0: 992d 83bd edc5 aebb 6a03 92bc 80f1 f03b
000002f0: 8f3d bfbc fe47 edbc d6aa 59bd bd43 bbbc
00000300: 666e 113d 6782 ef3c 9096 a4bd 27e2 ba3c
00000310: d184 2d3c 3712 7139 97c2 7abc f327 5b3b
00000320: 58d1 b43b d5b1 31bd 62f5 83bd 0b72 e2bc
00000330: 836b 9d3c 54ba 463c 0e71 9dbd d3ee b5bc
00000340: 6a62 a63b 85de 0e3d 154d e23c d77a abbc
00000350: f486 93bd 961e 5cbd 2dcd 2b3d 994c 033d
00000360: 2957 4abd c683 9dbd 9185 a7bd b3d0 4cbb
00000370: 325c 7fbd a366 c6bc da3c f8bb 972b a1bd
00000380: 9157 873c 370a d8bc e7a1 23bd 604e a5bd
00000390: a301 6fbb 5f04 9cbd 4827 44bc 133f 7e3c
000003a0: 5afa cbbb d7d1 f7bc 142b 2abb fcbe a93c
000003b0: db16 1e3c 7e93 a5bd ca1b e23c c6a4 cb3c
000003c0: af7f 4b3c 7d2b 71bd 452c 2dbd 864c 4abd
000003d0: f413 b3bd 39f6 b6bc 32d0 a1bc 637d febc
000003e0: 5974 93bd 055f eabc d169 e53c c7e0 91bd
000003f0: e86e 6f3c 5781 7fbd cab5 acbd ccca 24bd
0.009726028 -0.05346613 -0.07138139 0.0118903555 0.0048411465 -0.030321177 0.0041154837 -0.028657828
-0.018132113 -0.06325144 0.04033608 0.0135287475 -0.016171668 -0.020591123 -0.07645143 0.0044992734
0.01092583 -0.011689215 0.027151408 -0.05969229 -0.019061817 -0.036745463 0.04083039 0.022299027
-0.025051326 0.006178717 -0.035224847 -0.00895021 -0.058431745 -0.03705626 -0.034797564 -0.0033647784
-0.05812734 0.03229836 -0.033550963 0.00334177 0.004366711 -0.03940317 -0.009645498 0.04066256
-0.020445054 -0.039897308 0.006652679 -0.075231135 0.013034527 0.016349524 0.005532912 0.018033542
-0.047636155 0.008356419 -0.07499068 0.0051812623 0.028856056 -0.04721108 0.037254084 0.022339514
-0.016244398 -0.026894657 -0.035707235 -0.07045047 -0.019229755 -0.021082465 -0.007755074 -0.07757352
-0.019536788 -0.05178614 0.0047795326 0.0174608 -0.062233154 -0.012963273 -0.027604617 -0.055142526
-0.04763438 -0.00732715 0.034712493 -0.035044476 -0.07787352 -0.06171284 0.025867214 -0.06943941
-0.006164438 -0.024617095 0.005452865 -0.07228432 -0.025791923 0.013808556 -0.012291565 -0.07554157
-0.0070747337 -0.041839276 0.034730542 0.0011218427 -0.062904395 -0.02437148 -0.0428578 -0.035519473
0.035043832 0.01336502 -0.066701904 0.014806948 0.010109347 0.023364877 -0.08447256 -0.010969924
-0.06771238 -0.019042047 -0.04462781 -0.0023749087 0.010626021 -0.03043985 -0.040068354 -0.009356969
0.021759322 -0.027561873 -0.010881382 -0.037006598 -0.056784745 -0.05273737 -0.053745523 0.010926162
0.018430484 -0.018797835 0.015143095 -0.0071597686 -0.08359686 0.0058592437 0.022285666 -0.03881267
0.013637845 -0.030455086 -0.0269009 -0.057456274 0.016849617 -0.04347424 0.023219058 0.005196134
0.020501949 0.0061261 -0.055923373 -0.06745309 0.011970113 0.022447558 -0.040336445 0.014465233
0.00025791783 0.001270719 0.02270531 -0.05775637 -0.049117114 -0.025952304 0.030263223 0.038640194
-0.024911448 -0.09159022 -0.082575925 0.02256813 -0.02650645 -0.043330517 -0.081394754 -0.06255307
0.04243945 -0.025151426 -0.0148614505 0.01666402 0.03622246 -0.025259592 -0.056255355 0.005736869
-0.028803922 -0.0674617 0.034020413 -0.004497138 -0.08041563 -0.049121607 0.018657733 -0.09340325
0.033496063 0.033273105 -0.054869205 -0.06356124 -0.08160892 -0.07657985 0.032435223 0.025677416
-0.064051814 -0.005333653 -0.017823894 0.007353008 -0.023344783 -0.028964993 -0.053141437 -0.022859449
0.035505675 0.029236985 -0.0803653 0.022812916 0.010590748 0.00022990337 -0.015305183 0.003344056
0.00551812 -0.043382484 -0.064432874 -0.02764227 0.019216305 0.012129385 -0.07687579 -0.022208607
0.00507765 0.03488018 0.027624646 -0.020932598 -0.07203475 -0.053740107 0.041943718 0.03205547
-0.04939953 -0.076911494 -0.08179773 -0.0031252324 -0.062343784 -0.024218863 -0.0075756134 -0.07869642
0.016521247 -0.026372058 -0.039949324 -0.080715895 -0.0036469481 -0.07618021 -0.011972256 0.015517968
-0.0062249126 -0.030251427 -0.0025965618 0.020720951 0.009649004 -0.080847725 0.027601141 0.024858844
0.012420579 -0.058879364 -0.042278547 -0.049389385 -0.0874404 -0.022334205 -0.019752596 -0.031065648
-0.07199926 -0.028609762 0.028004559 -0.07122951 0.014613844 -0.062379207 -0.08433111 -0.040232465

policy_head.linear_2.bias f4 [81]
00000000: 91dd f23c 157f 713c eec4 563d 80cf 3cbd
00000010: 9b5f f7bb 1121 7b3d 0045 b53c 28af fb3b
00000020: ebf9 6c3d 44f7 c3bc ade0 b1bc ef26 08bd
00000030: 8086 943c 530d 9abb 2d9d 48bd b5de 14bd
00000040: aa67 2f3d 3d58 3bbc 67e6 3c3d 0f25 a63c
00000050: 396a 43bd 5459 8ebd 2cc4 4f3c d54f 823d
00000060: aa5c 2fbc 3fd3 13bc 9a79 553c 0805 d3bc
00000070: 7a40 5b3d 462f 73bd 3197 723a e489 00bb
00000080: e1e7 4fbc 4ae0 613c 4d34 603d 6708 58bd
00000090: d215 83bd 8947 ca3c c1c4 fd3c 0594 3cbd
000000a0: ce79 acbb 36d0 4bbd 3210 04bd 3c90 82bc
000000b0: 4897 633d 5b2b 233d 9bd4 6a3d dc88 c33c
000000c0: 821e 863b 9747 32bc 51a7 913d 1176 1bbc
000000d0: e52e 303b 0f5e 883c b760 b5bc c02f 30bd
000000e0: 6149 243d b0cb efbc e91a 373d ed5f 423d
000000f0: aaf7 203d 6d74 2f3b 3256 3a3d a06e 273c
00000100: a810 6fbc ff1f 313d 006c 503d 3ee1 4b3d
00000110: 1537 943c bbe9 193d 94f5 47bd b631 103d
00000120: 245a b9bc b500 7c3d 539c 633d 96aa 473d
00000130: 972d a83c 36cb 8b3c 6796 3dbd 4302 053d
00000140: 2711 3e3d
0.029646667 0.014739771 0.0524339 -0.046096325 -0.007549239 0.06131083 0.022127628 0.0076807924
0.057855528 -0.023921616 -0.02171358 -0.033240255 0.01813054 -0.0047012954 -0.04897802 -0.036345202
0.04282347 -0.011434612 0.046118166 0.020281343 -0.047708724 -0.06950632 0.012681048 0.06362883
-0.010703245 -0.009022533 0.01302948 -0.025759235 0.053528287 -0.059371255 0.00092540967 -0.001961344
-0.012689562 0.013786385 0.054737378 -0.052742388 -0.06400646 0.024692314 0.030977609 -0.0460396
-0.0052635437 -0.049759112 -0.032242008 -0.015937917 0.055564195 0.03983627 0.057331663 0.02386897
0.0040929923 -0.010881326 0.07111991 -0.009488598 0.002688342 0.016646413 -0.022140844 -0.043014288
0.040109042 -0.02927193 0.044703398 0.047454763 0.03929869 0.0026772276 0.04549236 0.010219246
-0.0145913735 0.043243404 0.050884247 0.049775355 0.018092671 0.03757642 -0.048818186 0.035203658
-0.02262599 0.06152411 0.055569004 0.048746668 0.020529551 0.017064672 -0.046286013 0.03247286
0.046403076

value_head.in_linear.weight f4 [512, 256]
00000000: 1cad b53c 56ec 753d 34cc 173d 80fe 163a
00000010: 64b8 d2bc c653 28bd bcf2 bb3c 94b7 1fbd
00000020: b03c a73c f0a8 e3bb 089f a2bc 7086 423d
00000030: e866 633d f0c1 a4bb 9880 9dbc ec17 babc
00000040: f019 debb 00d4 9839 787e 3ebd 04d7 e9bc
00000050: 9861 293d 3cc1 853c 8c04 563d 704a c5bb
00000060: 9092 71bc c4b9 f7bc dafd 423d f0bf 033d
00000070: 0aad 35bd e447 edbc 60f4 c9bc 0035 c9bb
00000080: 746f 8cbc 5039 9f3b 08d5 fc3c 6665 273d
00000090: c8e3 3fbd a88e fe3c 9cee 1b3d b0b8 2c3c
000000a0: 5091 95bb f44b 9dbc f02e 07bd 1010 e33c
000000b0: 5838 5abc b08e b93c 2289 003d a086 29bd
000000c0: daf6 4f3d ae6b 14bd 2608 113d ac82 bd3c
000000d0: 7a54 06bd 185a a2bc a016 cbbc 7c79 f33c
000000e0: 80b5 1cbc 00f8 ebb8 8032 b03c f005 533d
000000f0: 10b2 953b e0e6 bd3b c8df ffbc 30bd b33b
00000100: ca0a 72bd a4fc 09bd b206 7fbd 040a ef3c
00000110: d829 963c 744a 48bd 0cb4 063d 027b 56bd
00000120: 5085 5abc 2a7d 5fbd 009d 74bd d020 593d
00000130: 504f 453c 2a57 2dbd a279 5cbd cad3 543d
00000140: b881 54bd d62d 55bd b8ce ce3c e087 26bc
00000150: eec1 30bd 9af9 7fbd 56fa 25bd 0066 c5b9
00000160: 0082 a03a b8b4 8b3c 5227 7c3d f8e3 573c
00000170: 04f3 603d 2896 993c e0e3 0f3d 6444 cdbc
00000180: e07c a9bb c040 d6ba 561e 1dbd 6a00 31bd
00000190: 0879 63bc 78e3 e93c 4424 f13c 004e b33b
000001a0: d44a 45bd 346b 493d 98a6 5e3d f8db 3b3c
000001b0: f82e ed3c 865b 26bd b08a f93b d04e b9bb
000001c0: c05f e9bc 2ecd 783d 4c29 30bd 00eb 45ba
000001d0: c4b0 ad3c 40ea fcbc 26c9 2b3d 3c01 db3c
000001e0: 08c2 3a3c 6418 d23c e4b1 81bc a465 9dbc
000001f0: faea 4fbd 6c52 473d 8065 3fbd 022c 41bd
00000200: 2cd4 843c f88d c03c a8bd b03c ecd1 cb3c
00000210: f015 60bc de09 3ebd 80bb 0d3d 2cbf b83c
00000220: c002 32bb e071 3dbc 0420 413d d08f b0bb
00000230: 581b 453d 3cfe ec3c c45d 76bd f6c3 2e3d
00000240: 02d8 5d3d 6032 ba3c 269a 073d 6263 793d
00000250: 825d 563d c04b 6cbb c03d fcbc 4880 223c
00000260: f09d f1bc 207d b33b 4a59 623d d6b1 123d
00000270: 90cf d5bc 74cc a33c 5c81 bf3c 120c 54bd
00000280: b0a2 0c3d a02e c73c de85 343d 320e 423d
00000290: 982f f63c 38b1 753c 309e 2abc 30b3 08bc
000002a0: c071 2ebd 4ce4 cbbc ec82 81bc ae73 463d
000002b0: c820 19bc f673 57bd 682b 3bbd 8c17 ac3c
000002c0: 08d4 e13c 68f4 6bbc e0b0 3b3b 6829 233c
000002d0: e8c0 463d a290 41bd cabf 4c3d c671 18bd
000002e0: 8c46 1cbd 506b 41bd 7675 09bd fe25 303d
000002f0: 006c c13c c083 313c 64c2 b13c 501a a1bb
00000300: 42af 51bd 42bb 0dbd becc 5dbd b21d 5ebd
00000310: d217 68bd 2802 573d c838 e33c a039 10bb
00000320: 1095 973b 1a08 5ebd 387c 253c 004c 893a
00000330: c6b7 37bd fa3e 70bd 2279 04bd 3231 1fbd
00000340: 90d6 e33c 58b3 1abc a27a 7fbd 800f adba
00000350: 70e7 e2bb 249e dfbc 103b 173c 08e7 7d3c
00000360: 5055 fdbb 6082 13bd 98ba 7e3c 2af2 0b3d
00000370: c8d7 1bbd ac61 1a3d e0bd 73bc 80d2 4dbb
00000380: c077 e03c 7076 56bc 441e 9a3c 94b4 1bbd
00000390: a0a3 41bd 0c9b b9bc a825 6b3c 28cb a13c
000003a0: f467 c3bc 309c cdbb 002e 46bb 8076 48bb
000003b0: f237 173d 100f 13bc 98c5 56bd d256 6cbd
000003c0: 06ef 2e3d 94c4 ea3c 2819 543c 5cd7 223d
000003d0: def0 793d fc1d a13c 9c86 6fbd 0c86 2f3d
000003e0: d230 543d 5ac9 3dbd ca83 7abd f04b 79bd
000003f0: 189d 77bd e447 4dbd e03e 3cbc 806f ac3b
0.022177272 0.06003984 0.037059978 0.00057599694 -0.02572269 -0.041095518 0.022942893 -0.038993433
0.02041468 -0.006947629 -0.019851223 0.04749149 0.05551806 -0.005028002 -0.019226357 -0.022716485
-0.0067779943 0.00029149652 -0.04650733 -0.02854491 0.04135284 0.016327493 0.05225043 -0.0060208365
-0.014744416 -0.030239947 0.047605373 0.032165468 -0.044354476 -0.028964944 -0.02465266 -0.0061403513
-0.017142989 0.004859127 0.0308633 0.040868185 -0.04684809 0.031073883 0.038069353 0.01054208
-0.0045644417 -0.019201256 -0.033003747 0.02771762 -0.013319097 0.022651047 0.03138078 -0.041388154
0.050772525 -0.036235504 0.03540816 0.023133598 -0.032795407 -0.01981835 -0.024791062 0.029721014
-0.009564757 -0.00011251867 0.021508455 0.051519334 0.004568346 0.0057953447 -0.031234637 0.0054851994
-0.05909232 -0.033688203 -0.062262245 0.02917958 0.0183305 -0.04889913 0.03288655 -0.052363403
-0.013337448 -0.054562725 -0.05972004 0.053009808 0.012042835 -0.042319454 -0.053826936 0.05195979
-0.051881522 -0.052045666 0.025245056 -0.010164231 -0.043153696 -0.062493898 -0.040521942 -0.00037650764
0.0012245774 0.017053947 0.061560936 0.013176911 0.054919258 0.018748358 0.035129428 -0.025057025
-0.005172357 -0.0016346201 -0.03835901 -0.043213286 -0.013883837 0.028550848 0.029436238 0.005471945
-0.048167065 0.049174502 0.054358095 0.011466019 0.02895306 -0.040614627 0.00761541 -0.005655147
-0.02848804 0.06074255 -0.043008134 -0.00075499713 0.021202452 -0.030873418 0.041939877 0.026733987
0.0113988 0.025646396 -0.015831895 -0.019213505 -0.0507612 0.048662588 -0.046727657 -0.04716111
0.016214453 0.023505196 0.02157481 0.024880372 -0.013677105 -0.04639613 0.034602642 0.022552095
-0.0027162284 -0.011562794 0.047149673 -0.0053882375 0.04812178 0.028929822 -0.060148016 0.04266735
0.05416108 0.022729099 0.03310599 0.060885794 0.05233527 -0.0036055893 -0.030791163 0.00991828
-0.029494256 0.0054775625 0.055260934 0.03581413 -0.02609995 0.019994952 0.023377113 -0.051769324
0.03433484 0.024314225 0.04407298 0.04737682 0.030051991 0.0149958655 -0.010413691 -0.008343503
-0.04258895 -0.024889134 -0.015809499 0.048450164 -0.009346195 -0.052600823 -0.045695692 0.021007322
0.027566925 -0.014401533 0.0028639361 0.0099586025 0.048523813 -0.047257073 0.04998759 -0.037217878
-0.038153216 -0.04722148 -0.033559285 0.043004982 0.023611069 0.010834634 0.021699138 -0.004916467
-0.05119253 -0.03460241 -0.054150335 -0.05422754 -0.05666334 0.05249229 0.027737036 -0.0022007003
0.004625924 -0.054206945 0.010100417 0.001047492 -0.044852994 -0.05865381 -0.032342084 -0.038865276
0.027812272 -0.009442173 -0.06237281 -0.0013203472 -0.006924562 -0.027297087 0.00923039 0.015496977
-0.0077311173 -0.036013007 0.015547417 0.034166493 -0.038047582 0.037690803 -0.014876813 -0.0031405985
0.027400851 -0.013089761 0.01881326 -0.03801401 -0.047275186 -0.02265694 0.01435224 0.019750193
-0.02385328 -0.0062747225 -0.003023982 -0.003058821 0.036918588 -0.008975759 -0.052434534 -0.057699986
0.04270842 0.028658189 0.012945451 0.039756164 0.061020724 0.019667618 -0.058477983 0.042852446
0.05180437 -0.046334602 -0.06116084 -0.060863435 -0.06045255 -0.05011739 -0.0114896 0.0052623153

value_head.in_linear.bias f4 [512]
00000000: b0c6 d3bc 40a2 d63c 988b f9bc 40a5 943b
00000010: d8a3 76bc f8c7 76bd bc04 743d 8ecb 4cbd
00000020: 8e84 0bbd 2cbe ddbc e8f2 663c 48dc 9c3c
00000030: 88fd 723c b865 25bd ece1 29bd 6c63 abbc
00000040: 4a7f 723d 40dd 1cbb 7841 70bc 0cc0 c4bc
00000050: 6ee6 09bd 0801 5a3c 485a cdbc 4ee1 3dbd
00000060: fca4 6cbd 9cb1 d7bc d2ef 66bd b00f 363c
00000070: 20b9 f83c ae29 50bd 0054 eeb9 d03b 3d3c
00000080: 0e5b 763d 7088 7cbc 9232 783d d8d4 7e3c
00000090: 1c43 91bc 6cdf fcbc bccd 9ebc d88f 783d
000000a0: 3241 533d 284d 8abc 46eb 14bd ead0 20bd
000000b0: d8a3 fcbc dc17 e9bc a0c0 6b3d cafd 04bd
000000c0: 7055 ebbb 3697 70bd e268 4dbd 60c2 7dbb
000000d0: 0a23 693d 34d2 863c b041 9b3b 80d8 4bbc
000000e0: 280a 443c e80b 9a3c 5406 a9bc 2c98 113d
000000f0: 104f 0abd 8ea8 673d b636 3e3d cc02 463d
00000100: 647c 1e3d b661 0cbd 80a0 42bb 08b0 303c
00000110: 66b8 463d 8044 76bb a24a 75bd de63 0cbd
00000120: b0f5 a2bc a853 02bc 6ed0 05bd 5096 87bb
00000130: c089 933c a6d3 423d c427 93bc 2e76 323d
00000140: f25e 23bd f8b7 52bc a473 7fbd 343d 263d
00000150: 6ec5 5f3d 7e36 0abd 1cdf c2bc b049 e5bb
00000160: 7044 ca3c c41e 0abd bcb2 f9bc a824 2c3c
00000170: b405 aebc 94fb f83c ae65 5ebd 1400 473d
00000180: a4f3 c0bc e6a2 4a3d 72c7 07bd c8f3 93bc
00000190: d01d 5dbc c24e 63bd 3239 283d 747e dd3c
000001a0: 0066 353a 8819 5a3c 9a1e 28bd 105b 2abd
000001b0: 94c4 6d3d 8c69 bfbc 6cd6 e93c 3a32 40bd
000001c0: 707b ac3c 7631 313d 2c18 1f3d d0c6 edbb
000001d0: 86ff 47bd aace 143d 28b5 14bd 24f9 ce3c
000001e0: 9cfc 1ebd e082 983c 020e 79bd 5215 2d3d
000001f0: 1c72 cfbc 1a5c 04bd 6cfa 29bd 503b c0bc
00000200: 30eb 053d c0cd cebc 6c14 0e3d dc9a 9f3c
00000210: 78e8 13bd 60e6 a63c 946c f53c 3017 433c
00000220: ae42 41bd 0ac8 0dbd 407c 69bb e4e4 ea3c
00000230: 6096 66bb 3099 80bb e018 4fbc 0882 1f3c
00000240: 8890 bbbc 3036 793d 7073 45bc 90db d83b
00000250: 54d5 6c3d d29c 4bbd d0ed 1cbd 0425 a93c
00000260: 9c4b 2bbd f0b5 b1bb fe48 7bbd 326d 363d
00000270: 0607 183d a8aa 983c 0836 f03c 9c85 98bc
00000280: 2cd5 cabc 7afe 3fbd b02b 0abd c6cb 6ebd
00000290: a86c 6abc 6297 453d dadc 18bd 4017 753d
000002a0: c01f 31bd 0048 0c3c 4e34 2e3d 1041 87bc
000002b0: 7ee5 3abd 04e0 42bd b04d 6d3c 869b 5bbd
000002c0: 76e6 6dbd 2e2d 4fbd 486f 6bbd 30f6 e0bb
000002d0: b2ff 0cbd 1678 5d3d 7c82 0b3d 30e2 e13b
000002e0: bc8b 613d 086d 7c3c 345b 1e3d 00ec 5b3d
000002f0: 2497 133d a4ba c13c fece 62bd bcd7 13bd
00000300: 1ea5 37bd 6e3d 34bd 00f5 d83b 880b 3f3d
00000310: 1c4b ba3c 0a26 01bd bc24 72bd b4fe d43c
00000320: e8d6 bd3c 7eab 723d 701a be3b 807c 1cba
00000330: 387f dfbc e82a 873c 2828 0cbc 16ee 2a3d
00000340: 7c1a 4fbd 3891 43bd 486c 30bc 28d6 963c
00000350: 7640 133d d224 3ebd 7676 5fbd 40a6 7f3c
00000360: 1416 dcbc 8868 283c 20f1 99bc 3010 433c
00000370: c091 813a ea6d 40bd 5822 063c 78c9 933c
00000380: 8c38 23bd 762c 37bd 88df 08bd cc24 c8bc
00000390: 7073 6b3c e447 cc3c b68f 533d a0c1 083c
000003a0: f899 a53c d0b3 45bd c02a d3ba 1284 0abd
000003b0: 703a 9c3b 0025 aabc 64c1 98bc 80c1 d4ba
000003c0: aca8 b7bc 6849 24bd d0ca 78bd c0b5 ff3a
000003d0: 3074 443d f431 e2bc ecb6 e2bc 5e25 143d
000003e0: 4ec1 6a3d 1cf5 c2bc ecbe 54bd f4db 6bbd
000003f0: 8845 4cbc 88ec 013d 809e 87ba 42e4 513d
-0.025851578 0.026200414 -0.030462071 0.004536301 -0.015053712 -0.0602493 0.059574828 -0.049998812
-0.03406196 -0.02706822 0.014095999 0.019148007 0.014830954 -0.04038021 -0.04147522 -0.020921431
0.059203424 -0.0023935586 -0.0146640465 -0.024017356 -0.03366702 0.01330591 -0.025067464 -0.046357445
-0.05777453 -0.026329808 -0.056381054 0.011112139 0.030361712 -0.050821 -0.00045457482 0.011549905
0.06014543 -0.015413389 0.060595103 0.015553676 -0.017732196 -0.030868255 -0.019385211 0.060684055
0.051575847 -0.016882494 -0.036357187 -0.039261736 -0.030839846 -0.02845376 0.05755675 -0.032468595
-0.007181816 -0.058737956 -0.050148852 -0.0038720593 0.05691818 0.016457655 0.004738055 -0.012441754
0.011965312 0.018804505 -0.0206329 0.035545513 -0.033766806 0.05655723 0.046438895 0.04834251
0.038692847 -0.034272872 -0.0029697716 0.010784157 0.0485157 -0.003757745 -0.05988563 -0.03427493
-0.019892544 -0.0079545155 -0.032669477 -0.0041377917 0.01801002 0.047565125 -0.017963298 0.043569736
-0.03988547 -0.012861244 -0.062366143 0.04058571 0.054631643 -0.033743374 -0.023788027 -0.0069973096
0.024690837 -0.033720747 -0.030480735 0.010506786 -0.021242954 0.0303934 -0.054296188 0.04858406
-0.023553677 0.04947176 -0.03314919 -0.01806058 -0.013495877 -0.05549503 0.04107017 0.027037837
0.0006919801 0.013311751 -0.04104481 -0.04159075 0.0580488 -0.023365758 0.028544627 -0.0469229
0.021054953 0.04326006 0.03884141 -0.0072563663 -0.04882767 0.036329903 -0.036305577 0.025265284
-0.038815126 0.018617094 -0.060804375 0.04225666 -0.025322966 -0.032314397 -0.041498587 -0.023465782
0.032694995 -0.025244594 0.034687445 0.019483022 -0.03611037 0.020373523 0.029959 0.011907384
-0.04718273 -0.0346146 -0.0035627037 0.028673597 -0.0035184845 -0.0039245114 -0.012640208 0.009735592
-0.022896066 0.060842693 -0.012051448 0.0066179708 0.057820633 -0.049710102 -0.038312733 0.020647533
-0.041820154 -0.0054233 -0.061348908 0.04453773 0.037116073 0.018636063 0.02932264 -0.018618397
-0.024759851 -0.046873547 -0.03373307 -0.058299802 -0.014308132 0.048240073 -0.037319995 0.059836626
-0.04324317 0.008562088 0.04253035 -0.016510516 -0.045629017 -0.04757692 0.014483854 -0.053615116
-0.058081113 -0.050580196 -0.057479173 -0.0068652853 -0.034423538 0.0540696 0.034059986 0.0068934187
0.0550649 0.015406854 0.038661197 0.053691864 0.03603281 0.023648567 -0.055373184 -0.036094412
-0.044835202 -0.044003896 0.006621003 0.046641856 0.022740893 -0.031530418 -0.059117064 0.026000358
0.023173764 0.05924558 0.0058014914 -0.00059694797 -0.027282342 0.016499951 -0.008554496 0.041730963
-0.050562367 -0.047745913 -0.010768004 0.018412665 0.035950147 -0.046421833 -0.054556333 0.015603602
-0.026865996 0.010278828 -0.018791735 0.011905715 0.0009885356 -0.046979822 0.008186899 0.018040404
-0.03984885 -0.044720136 -0.0334163 -0.024431609 0.014370784 0.024936624 0.051650725 0.008346945
0.02021502 -0.048267186 -0.0016110763 -0.03381736 0.0047677085 -0.020769596 -0.018646903 -0.0016231984
-0.022419296 -0.04010907 -0.060740292 0.0019509122 0.047962368 -0.02761171 -0.027675115 0.03616845
0.057313256 -0.023798518 -0.05193989 -0.05758281 -0.012467749 0.031719714 -0.0010346919 0.051243074
