ckpt/it0000000.pth (torch, 715079 bytes, 10 tensors)

policy_head.linear_1.weight f4 [256, 81]
00000000: a086 c0bd 8cd4 363b e4ec c43b 55fe ba3d
00000010: 81d1 f8bc 7a72 a939 202a bc3c d4d3 c93c
00000020: 87d1 653d a706 d83d 114a 503d 63bd 93bd
00000030: efe7 81bc dcdf f8bc 53d1 b4bc da65 6cbc
00000040: 0e1f cc3c 38e0 30bd add7 aabc 992d 603d
00000050: 50dd 97bc 1b3d de3d 126c 443d 3098 98bd
00000060: 1fb7 953d 91b5 853d 6401 f33c 5121 d83d
00000070: 335e 18bc 88ef 93bd 254e 9b3c bb93 dbbd
00000080: 36a0 073d b308 a23d 21f1 a43d 629b 6c3d
00000090: 769f c8bc da07 83bd d18e 963d 7224 d8bd
000000a0: 340e 963c 80a0 703b 9fd7 b93d 93fa 993d
000000b0: f02e c8bd eb63 98bd 3751 8fbd dfe9 c03d
000000c0: f476 c1bd 7017 9ebd dd43 7cbd 8629 723d
000000d0: acb8 eebc 20e2 88bb c2b8 743d c1a1 f4bc
000000e0: b772 8dbd c47b 493c c0ac e93b eec4 9ebd
000000f0: db9f 7ebc 3cc7 25bd 50d7 b6bd b24f bdbb
00000100: 4746 9fbd e29c abbd df4a c7bc 36c1 4e3d
00000110: e8e7 1cbd 10c1 853d f602 453d 9032 123c
00000120: 4555 d4bc 68ae 31bd 7795 cdbd 67d1 a43d
00000130: 6886 653c 0e72 22bd 33fb da3d 124b 41bd
00000140: 3c8c 90bd 7096 40bc a5a0 863d aa5e 663d
00000150: 4dc5 b73d 9a49 d63d e923 4abd f0c5 a6bd
00000160: c232 6d3d 5b16 b83d 89ee 0c3d ec60 96bd
00000170: abce 503d 43a3 16bd bef5 c1bd b00b 54bd
00000180: 412c d23d c7e8 533d 2046 0fbc 6b62 d33b
00000190: fe67 d63d 3ff5 953d 651e cb3d 3b9f d7bd
000001a0: 10b5 f4bc bf32 bb3d 3b08 babd 3b1f 8e3d
000001b0: 5ee4 8fbd 9f28 d23d 1390 ca3c 4127 94bc
000001c0: 520a 883c 6e72 4fbd a526 2bbd b8b8 2fbd
000001d0: f2d0 d1bd 6f52 c2bc 794c 8cbd 222c 613d
000001e0: 908d 4bbc 00f1 beba ab4c ad3d d8cb 31bd
000001f0: 8426 abbd e046 7cbb 8c6d b5bd 58c5 05bc
00000200: 24b7 5bbd efa6 993d 4b13 5dbd 0087 dabc
00000210: a9bf 9a3d 40fc 6c3b ea7c 42bd 08be 83bd
00000220: 7d63 833c 971b abbd 2d3b cebc 0089 5e3c
00000230: bc18 9c3c 0d94 863d b88e abbc 4edb 70bd
00000240: ea19 a23c c0a3 923b a0dc 68bd 79b8 a13c
00000250: 08ab 653c c341 de3d 62fc f6bc edf2 da3d
00000260: 386f 46bc c75d 3e3d 85cc debd 9671 593d
00000270: 199d 48bd 6df2 b43d 5ec1 a7bd 9485 c1bc
00000280: d8c8 76bc 398b dcbd 9bf3 cb3d 6a93 36bd
00000290: 695c 16bd 360b b5bd e575 9bbb 72ac d53c
000002a0: 42fa f63c 8acb 14bd 7819 223d fcbe 8abd
000002b0: ba8d bfbd 1747 96bd 1ff3 e23d 908b f5bc
000002c0: e1c1 ec3c 2c78 f7bb 0542 15bd 3c54 86bd
000002d0: 79bf 57bb 915d d83d f7a8 e1bd 1f29 9b3d
000002e0: 9640 c0bd 0a9f 38bd e8cc 77bd 93a6 a73d
000002f0: e78a 8b3d a4e2 09bd 4d9f 15bd 8e2f aabd
00000300: 4f9d a13c c2b2 6fbd 29a6 b7bd df3b 25bd
00000310: 54fc 95bd 254d d33d 3dc5 a23d a10e a13d
00000320: b11c c93d e21a 243d 59ad b0bd e7d0 a6bd
00000330: d7f6 853d fd5c 8b3d 704d 9dbd 0d14 163d
00000340: 251d df3d a202 663d b30e b63c 2217 ccbd
00000350: c235 763d 7034 ea3b 7be6 b43d 6344 bb3d
00000360: 42b9 b2bd 8bc2 bebc fbf2 85bd a977 6f3d
00000370: ac4f f9bc abed c8bd c496 06bd e00b 30bd
00000380: 7551 c6bd edbd 1c3d 5885 2dbd c2b7 653d
00000390: 84c0 b8bd e0fa 2dbb 41a8 d53d 22e6 413c
000003a0: fbc5 d7bd dbba 9e3d a61a 81bd 60e7 41bc
000003b0: 06a5 a7bd 02af 0d3d dcc6 91bd b3b7 b43d
000003c0: 160f 2c3d aa6c 7c3d 69fa 93bd 2a5c 243d
000003d0: cd16 cf3d 6343 c23d 9959 e03d 4bf4 30bb
000003e0: 8f66 d33d cd6d ed3c ef76 a83d 131c 8d3a
000003f0: 6f25 dbbd 957b a33b 32d8 b53d 7066 6cbd
-0.09400678 0.0027897684 0.006009685 0.09130541 -0.030373337 0.00032319484 0.022969306 0.02463714
0.056108024 0.10548144 0.050851885 -0.07213857 -0.015857665 -0.030380182 -0.02207247 -0.01442858
0.024917152 -0.04318258 -0.020854795 0.054730985 -0.018538147 0.10851499 0.047954626 -0.074509025
0.07310318 0.06528772 0.029663749 0.105532296 -0.009299803 -0.07223421 0.01895816 -0.10721537
0.033111773 0.079118155 0.08053804 0.057765372 -0.0244901 -0.06397982 0.07351459 -0.105538264
0.01831732 0.003671676 0.090743296 0.07518496 -0.097745776 -0.07440933 -0.069979124 0.09419607
-0.09446517 -0.07719314 -0.061588157 0.05912163 -0.029140793 -0.004177347 0.05974651 -0.029862287
-0.06906646 0.012297574 0.007131189 -0.07752405 -0.015541042 -0.040473208 -0.08927786 -0.0057773227
-0.07777076 -0.083795324 -0.024327694 0.05047723 -0.0383071 0.065309644 0.048098527 0.008923188
-0.025919566 -0.043379217 -0.10038274 0.08047753 0.014009096 -0.039659552 0.10692444 -0.047190733
-0.070579976 -0.011754617 0.06573609 0.056242622 0.08973179 0.10463257 -0.049350653 -0.08143222
0.057909735 0.08988639 0.034407172 -0.07342705 0.050978344 -0.036776792 -0.094707 -0.05176896
0.10262347 0.051735666 -0.008744746 0.0064509413 0.10469054 0.073221676 0.09917907 -0.10528418
-0.029871494 0.091405384 -0.09083601 0.069395505 -0.070259795 0.10261654 0.024726903 -0.018085124
0.016606484 -0.050646238 -0.0417849 -0.04290077 -0.10244931 -0.023720948 -0.068505235 0.05497373
-0.012423888 -0.0014567673 0.08461889 -0.04340729 -0.08356956 -0.0038494393 -0.08858785 -0.008164726
-0.053641453 0.07502543 -0.053973477 -0.026675701 0.075560875 0.0036161095 -0.04748241 -0.0643273
0.01603865 -0.08354872 -0.025174702 0.013582468 0.019054763 0.06571207 -0.020942077 -0.058802895
0.019787747 0.004475087 -0.05685103 0.019741284 0.014017828 0.10852387 -0.030149642 0.10690866
-0.012111478 0.04647615 -0.10878853 0.05308684 -0.048977945 0.088353015 -0.08191179 -0.023623265
-0.015062533 -0.10768742 0.099585734 -0.04457418 -0.036709223 -0.08840029 -0.0047442787 0.026083205
0.03014863 -0.036326922 0.03957507 -0.06774709 -0.09353204 -0.07337778 0.11081528 -0.029973775
0.028901042 -0.0075521674 -0.036439914 -0.06559035 -0.0032920523 0.105647214 -0.110185556 0.075762026
-0.09387319 -0.045073546 -0.06049815 0.081860684 0.06813603 -0.033663407 -0.036528874 -0.083098516
0.01972833 -0.058520086 -0.089672394 -0.0403403 -0.073235184 0.103174485 0.079477765 0.07864118
0.098199256 0.0400647 -0.086268134 -0.08145314 0.065412216 0.068048455 -0.07680786 0.036640216
0.10894231 0.056154855 0.022223806 -0.0996535 0.06010986 0.0071473643 0.08833023 0.09143903
-0.087267414 -0.023286125 -0.065404855 0.058463726 -0.030433498 -0.098109566 -0.032858625 -0.042980075
-0.096835054 0.038267065 -0.042363495 0.05608345 -0.090210944 -0.0026547238 0.104324825 0.011834653
-0.10535809 0.077504836 -0.06303911 -0.011834949 -0.081857726 0.03459073 -0.071180075 0.088241
0.042006575 0.061627068 -0.07225496 0.040126957 0.10111771 0.09485509 0.109545894 -0.0027001079
0.10322296 0.028983021 0.0822581 0.0010765813 -0.10700499 0.0049890974 0.088791266 -0.05771488

policy_head.linear_1.bias f4 [256]
00000000: 4302 fc3c d461 93bb a69d 09bd d9f7 bbbd
00000010: 960d 363d 72cc 28bd 4fca 803d 1ec1 6fba
00000020: b501 c9bc 6142 193d d2cb 9dbd 530e b43d
00000030: 88ba 2a3b 9250 31bd e9f5 57bd 0bfa d73d
00000040: cea9 3ebd 22a0 c3bd 959a 54bd 13e8 803d
00000050: df7e b83d d375 d73d 0a33 3cbd f8b3 84bd
00000060: 3a47 b639 0171 babc 0d1c 943c 7552 863d
00000070: a6db 31bd 363d 373d ae41 68bd 8b97 a43c
00000080: b491 aebd d691 583d 678f 56bd 885a 8bbd
00000090: aa3f 76bd d3e6 b8bc c626 193d 3e01 2d3d
000000a0: 7b0d e73c 8f79 64bd 5ef8 503c cdd0 b3bd
000000b0: 54e6 2abd 3d86 ae3d d542 e13d f256 48bc
000000c0: 253c a6bd abaf a33c d81f a1bd cb9d b23d
000000d0: ea59 7a3d acd3 e8b7 1453 d8b8 4164 aa3d
000000e0: 6f35 bdbc 914e 9c3d 85ea c5bd d990 913d
000000f0: fc56 f13b 726c 223d a3f2 873d 8c6c 77bd
00000100: a496 b6bd 6778 6abd 5edf 523d 2e99 093d
00000110: 3d18 a53c 3830 04bb 890a b2bc f06a c0bd
00000120: 0422 abbb 3798 e3bc 3f07 853d e2ec 1f3a
00000130: e4f1 bfbd 7bbd ae3c efeb efbc 69a6 883d
00000140: eb37 363d e2f9 ddbd d523 a03d 0cb4 abbd
00000150: 733c 9e3d 4f9d b53d 46fd 303d 6eb9 75bc
00000160: 91fc 843d 538c a03c 5ee8 2c3d 5ade 083c
00000170: af74 a73d 8e1b 28bd 657b e3bc 3283 64bc
00000180: 5a5a 3e3d 99d5 943d b788 d2bd 0ef7 153d
00000190: 033c f63c 1b9e 86bc d4ea 96bd f965 68bd
000001a0: ed40 853d c053 99bd 29c0 6f3d 230d cf3d
000001b0: 47db d2bd fd39 803d adc0 b03c a3da 9d3d
000001c0: ba50 293c 6cd9 b8bd 86e0 393d 6756 ab3d
000001d0: 77de cd3d 1bb5 873d ebbb b73d b6d7 6a3c
000001e0: f031 a5bd 99e7 df3d 03ae 9d3c 5b6b dc3d
000001f0: 06db 323d 1ce3 25bd 193f 5dbd 47af b73d
00000200: c26b dcbd 706b 8cbd 19e1 3e3d e90c a9bd
00000210: 84c0 b1bd 3fba d53d dc46 4d3d da39 b1bd
00000220: 726a 14bd 15ef a4bd fbfc 933c cdd0 eb3c
00000230: 28ba 94bd 33b1 de3c ce9b 793d 2304 d13d
00000240: 561c a3bd eb6e ce3d 52cc 0abd 8e9b b5bd
00000250: ca5c 95bd 250a c1bd e4af b43b 9508 d83c
00000260: 9a33 20bd 3451 8ebd 0fb9 da3d fefb b4bd
00000270: cec0 623c f5a8 81bd 3b94 ab3d f53a 8dbd
00000280: 9755 93bd fdb2 8a3d 8d3c b73c ee7f 02bd
00000290: 2b1c a53c f920 943d 12e6 b4bd 962f 60bd
000002a0: a76d 903d 37ca 8d3d e47c ee3b 1344 9bbc
000002b0: 8ca4 95bd 2e2e e1bd 2f9c 113d e4c1 e2bd
000002c0: 2426 ac3b dd72 9b3d c61b 033d fabe babd
000002d0: 00ae a5bd 39ba 83bc 2b3f 9dbd 8975 a03d
000002e0: 16ef 4b3d 2c3e a33b 0e7c 763d 82c1 633d
000002f0: 32e1 b8bd 48d0 72bd 5b95 e1bd 2707 8b3d
00000300: 829f d2bd 3dfd a8bd d347 c63d 7b71 db3d
00000310: 0236 3d3d 15b9 db3d d884 6c3b 4367 8e3c
00000320: deba 7a3d 54bf d8bd 5840 80bd c169 c0bc
00000330: 1927 a3bd b5a6 d93d ab7f d73c 40b1 9dbd
00000340: da2d cbbd 8294 1f3d cb62 9fbd 66f8 533d
00000350: deca 093c 0dff 893c d980 a13d 72a6 74bd
00000360: 8161 c43d 1d3d d2bd 8b92 9f3b b3b5 ba3d
00000370: 47e5 c4bd cf01 d7ba 3ecf 333d 52c5 6c3d
00000380: 3e6c 753d ce62 3bbc e79e dcbd 1a80 6e3d
00000390: 3025 c5bd 9ddc d7bd f39b f93c 57f5 abbd
000003a0: 6999 b6bd a1dd 103d 4683 a0bd 8a6e 053d
000003b0: 8ccb 833b f2de 67bd 6e61 adbd d9b1 123d
000003c0: 27da 9dbc de90 0c3d 4c88 99bd 19fe 47bd
000003d0: 90c2 d7bd 66e9 1a3d 75d3 cb3d 9476 c13b
000003e0: 92e2 033d 3b34 853c dcfe b6bd 7568 e43c
000003f0: ca94 0a3d de6d c23d 9273 bdbd bcec 36bd
0.030762797 -0.004497746 -0.03359761 -0.091781326 0.04444655 -0.0412106 0.06288587 -0.0009145903
-0.024536947 0.03741682 -0.07704891 0.08791795 0.0026051123 -0.04328973 -0.052724753 0.10545739
-0.046548657 -0.09552027 -0.051905233 0.06294265 0.09008574 0.1052052 -0.045947112 -0.06479639
0.00034766813 -0.022758963 0.018079782 0.06558696 -0.043422364 0.04473611 -0.056703262 0.020091793
-0.085238844 0.052873455 -0.052382853 -0.06804377 -0.06011931 -0.022571003 0.037390493 0.042237513
0.02820467 -0.05577999 0.012754528 -0.0878006 -0.041723564 0.08521698 0.10999075 -0.012227761
-0.081169404 0.019981226 -0.07867402 0.08721503 0.061120905 -2.7755123e-05 -0.00010315157 0.08319903
-0.023096768 0.07632173 -0.09663872 0.071077056 0.0073651057 0.039654203 0.06638076 -0.060406253
-0.08915451 -0.05724373 0.05148255 0.03359335 0.02015316 -0.0020170342 -0.02173354 -0.09395397
-0.005222561 -0.027782543 0.06495523 0.0006100667 -0.09372309 0.021330586 -0.029287307 0.06672365
0.04448692 -0.10838677 0.078193344 -0.083839506 0.077263735 0.08867895 0.04321029 -0.014997823
0.06493486 0.019598162 0.04221379 0.008353794 0.081765525 -0.041041903 -0.0277688 -0.013947295
0.046472885 0.07267303 -0.102799825 0.036612563 0.030057913 -0.016432812 -0.07369009 -0.056737874
0.06506524 -0.07486677 0.058532868 0.101099275 -0.1029573 0.062610604 0.02157625 0.07707717
0.010334188 -0.09025845 0.045380138 0.08366089 0.100521974 0.0662634 0.089713894 0.014333656
-0.080661654 0.109328456 0.019248014 0.10762664 0.04366591 -0.04049979 -0.054015253 0.089689784
-0.10762741 -0.068564296 0.04660139 -0.082544155 -0.086792976 0.10435914 0.050116405 -0.086536124
-0.036234327 -0.08053414 0.018064966 0.028786087 -0.07262069 0.027184105 0.060939603 0.10205867
-0.07964389 0.1007975 -0.03388626 -0.0886756 -0.07293089 -0.09425763 0.005514132 0.02637128
-0.03911171 -0.06949082 0.106798284 -0.08837126 0.0138399135 -0.06331054 0.08377882 -0.06896011
-0.07194059 0.067724206 0.02236774 -0.031860285 0.020155033 0.072328515 -0.08832945 -0.05473288
0.070521645 0.06923335 0.0072780717 -0.018953359 -0.073067755 -0.10995136 0.03554934 -0.11072138
0.00525357 0.07590268 0.03200891 -0.09118457 -0.080898285 -0.016080009 -0.07678064 0.07834918
0.049788557 0.0049817767 0.0601769 0.055604465 -0.090273276 -0.059280664 -0.110148154 0.067884736
-0.1028433 -0.08251426 0.09681668 0.10715004 0.046194084 0.10728661 0.0036089923 0.017383223
0.061213367 -0.10583368 -0.062622726 -0.023487927 -0.07966442 0.106275 0.026305994 -0.076998234
-0.09920855 0.038959987 -0.07782515 0.051750563 0.008410184 0.01684525 0.07885904 -0.059729047
0.0958891 -0.10265563 0.004869764 0.091166876 -0.09614044 -0.0016403737 0.043898813 0.057805367
0.05991768 -0.011437131 -0.10772496 0.058227636 -0.096262336 -0.105401255 0.03046987 -0.08396404
-0.089159794 0.03536761 -0.078375384 0.03257612 0.0040220674 -0.0566091 -0.08465849 0.03581414
-0.019269062 0.034317844 -0.074967 -0.04882631 -0.10535157 0.037820242 0.099524416 0.005904028
0.032198496 0.016260257 -0.08935329 0.02788184 0.033833303 0.09493612 -0.09250559 -0.04465936

policy_head.pos_embed.weight f4 [256, 1]
00000000: c722 2d3e acb3 6f3f 5fb0 84be 7491 4ebf
00000010: d416 3fbf 67f1 cc3e beac 49bf dc1b 033d
00000020: 34c7 22bf 995e a43e 8cd5 17bf 5271 953d
00000030: f6d2 503f 66e3 273f 3744 9dbc 07ce d33e
00000040: c403 79bf 260e 2dbf 9ee2 1f3f cabb 1c3f
00000050: 50d7 55bf 926c 3ebf 0820 5b3f 62dd 2a3f
00000060: bcc8 313f 576d 133e b6f6 07bf e746 723e
00000070: 7bd8 8bbe 9d0f a1be e81e 2fbf 3d08 a1be
00000080: 045a 533f fcbb 5c3f 3a38 7f3f 8231 0cbf
00000090: fb52 b1be 6d76 f23e 6337 813e e4d4 653d
000000a0: 9f39 723e 78d5 5f3f 5e82 663f a6d0 223f
000000b0: 9917 673e f7f5 b4bc 87d6 023e 3017 1ebf
000000c0: 2ffd 9fbe 6084 3e3f ee40 6bbf 774c 06be
000000d0: e960 f43e 04f1 2abd 37ab ddbe d47a 613f
000000e0: 056c f13e 6d84 d2be 3f36 10be f267 3f3f
000000f0: 108d 0f3f 8fba b73e 389c 303f 2bf8 833e
00000100: 4f09 f53e 37f5 553e dc28 1f3f e492 3e3f
00000110: d2be f83d 54ad 683f daa7 7abf 6646 503f
00000120: cd46 ae3e fec7 29bf ceed 483f d438 383f
00000130: effd 0abe d2ee 7c3f 08ef 5d3f 9736 cd3e
00000140: f648 59bf 2db0 83be 89f4 c23c 09bf f03c
00000150: 80de 233f a92a 8b3e 0802 36bf ccee 193f
00000160: 526e 9e3d abc1 c93e bcfa 203f 6e42 81bd
00000170: 2ee2 93bd d185 273e b6be 7e3f 6816 253f
00000180: af3a f93e 49cc d03e b2a5 12bf 9db8 da3e
00000190: c282 a43d 6e45 56bc ecc3 3abf 77a2 c8bc
000001a0: f58d a0be 6f3a 563e 3eaa 9dbd 2a88 1c3f
000001b0: 8e1a 1b3f b1d8 bbbe a2cd c93d 7ccd 01bf
000001c0: 6583 d83e 5cb4 17bf a30d 86be a8ba 53bf
000001d0: 0498 4b3f 16d1 4e3f 01bd 023e 40c6 7bbf
000001e0: 8824 0c3f 492d 84bc a732 1b3e 0921 85bc
000001f0: 167a 3abf 6e79 523f d724 0c3e a4c8 7d3f
00000200: 6cd8 253f d697 6cbf d312 c03e 2889 61bf
00000210: c2a9 513f eedc 293f b230 37bf c5bd 933e
00000220: 17e8 edbe c2ff 77bf 20f7 2f3f 2473 193f
00000230: 028c f3bd 3c19 0fbf 3cb1 23bf 445d 113f
00000240: 4ce8 573f 3eee cb3d 3867 20bf aa0e 68bf
00000250: 4135 b23e 2a92 21bf 87b0 d1be 5301 d13e
00000260: fd75 babe 494c 02be 63c3 e93e d633 06bf
00000270: 7209 efbd 9e6a 80bd 0333 a3be 774b f33c
00000280: 9ca2 4bbf 73c6 993e 782b 45bf 6ad0 2d3f
00000290: c6c1 16bf 671f b33e a234 7fbf 9863 763f
000002a0: a459 6abf 149d 4b3f b5f8 d33e 7951 683e
000002b0: 94c2 583f f489 5dbf 0cc5 2d3f a8ae 3d3f
000002c0: 3214 2ebf ec18 123f 1bcc b1be 6286 ac3d
000002d0: 47d4 40bb 0266 76bf 0a05 28bf bafa 6cbf
000002e0: 41a7 5abe 4167 c4be e0cc 75bf b0e2 723f
000002f0: e6e7 71bf 3019 073f 7cf2 23bd c2ad 503f
00000300: e4ae 643f db6a f23e 6ef6 33bc c2be a9bd
00000310: d86d 3c3f b425 233f 1ecf 37bf 6a2c 5fbf
00000320: 8938 b1be 4127 9cbe 383e 32bf c5ed dbbe
00000330: 0213 5d3f 69e1 a73e 8b42 d83e 5cae 1b3d
00000340: f88c 793f a26b 32bf df5d fd3e 9246 dd3d
00000350: 71fc dabe 9ce5 033f c2ff 3d3f 32c5 8cbd
00000360: b8b3 5fbb 9b29 a93e d40b 463f ded2 4b3f
00000370: 4a58 61bf a468 40bd 5cd4 65bf 0479 703f
00000380: 3a05 51bf b98b e03e 5dc0 82be 2e69 4d3f
00000390: 76df 77bf 648c 64bf 8ede 32bf 6cb5 3dbf
000003a0: a885 4ebf 1b6d 0abd 449c 473f c956 f73c
000003b0: 0c49 65bf 6064 7b3f c6b4 4cbf 498a e9be
000003c0: 568b 5bbf 67eb af3e e271 1d3f 7421 313f
000003d0: 8aac 4e3f bc74 163f 6ef6 ca3d 7546 863e
000003e0: 3e38 9f3d 1355 dd3e 3468 15bf 11a0 c23e
000003f0: 5e33 3a3f b19c 7dbe 0f67 373e ce35 c63d
0.16907798 0.9363353 -0.2591581 -0.80690694 -0.7464421 0.40027925 -0.7877921 0.03200899
-0.6358521 0.32103422 -0.5931022 0.07297005 0.815719 0.6558136 -0.019197566 0.41368124
-0.9727137 -0.67599714 0.62455165 0.61224043 -0.83531666 -0.74384415 0.8559575 0.66744053
0.6944692 0.14397179 -0.53110826 0.2365986 -0.273136 -0.31457224 -0.68406534 -0.31451598
0.8255923 0.8622434 0.9969517 -0.5476304 -0.34633622 0.47355977 0.2523757 0.05611123
0.23654793 0.874351 0.90042675 0.6359962 0.22567596 -0.022089941 0.12777148 -0.6175413
-0.3124785 0.7442074 -0.9189595 -0.13115107 0.47730187 -0.041733757 -0.4329469 0.88078046
0.47152725 -0.41116658 -0.14083193 0.7476798 0.5607462 0.3588452 0.6898837 0.25775275
0.47858664 0.20894323 0.6217172 0.7444289 0.12145771 0.9088948 -0.9791237 0.8135742
0.34038392 -0.6632079 0.7848786 0.7196171 -0.1357343 0.9880191 0.8669286 0.4008071
-0.84876955 -0.2572035 0.023798244 0.029387968 0.64011383 0.27180985 -0.7109685 0.6013
0.07735886 0.3940557 0.6288259 -0.063114986 -0.07220875 0.1635964 0.9950975 0.64487314
0.48677585 0.40780857 -0.5728408 0.42718974 0.080327526 -0.013078077 -0.72955203 -0.024491532
-0.31358305 0.20920728 -0.07698487 0.6114527 0.60587394 -0.3668876 0.098536745 -0.5070417
0.42287746 -0.5925958 -0.2618228 -0.8270669 0.7952883 0.8078779 0.12767412 -0.9834938
0.5474324 -0.016134875 0.15156041 -0.016251104 -0.7284254 0.82216537 0.13685928 0.9913428
0.6478336 -0.92419183 0.37514362 -0.8809991 0.81899655 0.66352737 -0.7155868 0.2885572
-0.46466133 -0.9687463 0.6873646 0.59941316 -0.11891939 -0.5589788 -0.63942313 0.5678294
0.8433883 0.099575505 -0.626575 -0.90647376 0.34806255 -0.63113654 -0.40954992 0.40821323
-0.36418143 -0.12724413 0.4565688 -0.52422845 -0.116717234 -0.062703356 -0.31874856 0.02969907
-0.79545 0.30034217 -0.77019453 0.6789614 -0.58889425 0.34984896 -0.99689686 0.9624572
-0.9154303 0.7953656 0.41400686 0.2268733 0.846719 -0.86538625 0.67878795 0.7409463
-0.67999566 0.5706928 -0.34726033 0.08424069 -0.0029423402 -0.962494 -0.6563269 -0.9257008
-0.21352865 -0.38360026 -0.9601574 0.9487715 -0.94494474 0.5277281 -0.040026173 0.81515133
0.8932936 0.4734715 -0.010984046 -0.08288337 0.7360511 0.63729405 -0.7180041 -0.87177145
-0.34613445 -0.30498698 -0.6962619 -0.4295484 0.8635713 0.32789162 0.42238268 0.03800808
0.97480726 -0.69695485 0.4948568 0.10804476 -0.42770723 0.5152223 0.7421838 -0.068735495
-0.003413422 0.33039555 0.773618 0.7961863 -0.88025343 -0.046974793 -0.8977716 0.93934655
-0.816486 0.438566 -0.25537387 0.80238616 -0.9682535 -0.8927672 -0.6987084 -0.7410495
-0.80672693 -0.033795457 0.7797282 0.03019275 -0.89564586 0.98200035 -0.7996334 -0.45613316
-0.85759485 0.34359285 0.61501896 0.6919167 0.80732024 0.5877187 0.09910284 0.2622563
0.07774399 0.4322897 -0.58362126 0.38012746 0.7273463 -0.24766804 0.17910407 0.09678231

policy_head.pos_embed.bias f4 [256]
00000000: 2058 62bf 0cc7 343f f2fc 44bf 201d 69bf
00000010: a1e0 6cbe f214 543f 1254 10bf 72da e3bd
00000020: 78f1 10bf 168b 5fbf 429f 363f eb33 c7be
00000030: 0f77 e8be 7b30 debe dee2 4e3f 4867 6dbf
00000040: 5182 2a3e bc72 2abd 509e 483f 97d2 26be
00000050: 592e 8bbe e6d2 533f b289 49bf f5b2 d33e
00000060: 7c91 5bbf 6bdd b13e f0ab 58bf a4bc 443d
00000070: 3ed6 7abf 429e e0bd 5ce7 15bd 066f 323f
00000080: 065b 7a3f bf38 ba3e d616 363f 7429 323f
00000090: 3b2e b0be acc4 3ebf 52af 673f 3bb2 e63e
000000a0: d693 163f 085e 713f b493 343f 4e3a c53d
000000b0: f8fd 66bf 6af8 73bf 4819 573f f7db 883c
000000c0: b531 983e ce3d 01bf 1ec1 acbd 70ef 273f
000000d0: b47b 66bf 3ef2 0fbf 6ec4 3dbc 52ca 9cbd
000000e0: bc48 2bbd 02d6 24bf 813b 3d3e 60cb 4ebf
000000f0: d237 d4bd 2814 69bf a92e 3e3e c561 ff3e
00000100: c266 c6bd 8eb6 28bf beb3 3fbf 4984 fb3e
00000110: 8d33 a33e 2ed0 463f 49e1 f7bc 74d8 303f
00000120: df11 eb3e 582a 67bf 2cdd 413f af62 dc3e
00000130: 26ed 5fbf 6ea8 573f 401c 6ebf ed75 d6be
00000140: 6a3d 413f df4a c53e 97d0 abbe a529 c23e
00000150: b4a2 433f 227e 23bf 0691 593f b6d9 3a3f
00000160: 2bd8 ce3e ff69 9c3e 2259 e03d e90b f63e
00000170: f047 5ebf c7e4 fbbe f7b7 5f3e 0af8 5abf
00000180: 6576 ecbe a8d4 733f 1c89 693d 4e6a 13bf
00000190: 1949 e9be 77aa 08be 6183 6f3e 879d aebe
000001a0: 2eff 52bf 4759 9b3e e918 47be 9128 7f3e
000001b0: f756 eabc 37fb 003e 5951 503e e792 1d3e
000001c0: 1aea 33bf 4238 ec3d 8e3f 82bd 0eba c33d
000001d0: 399c 8ebe b9ca acbe 3075 583f 1c78 7b3d
000001e0: a089 163f cd92 f1be 580e 2c3f 0eea 0cbf
000001f0: 7d85 e73e 5a04 69bf 5806 41bf dcc1 6a3d
00000200: 92bb 7f3c e01d 4b3f 7ba3 b83e ca2a 0ebf
00000210: 6492 2fbf 74c6 26bf f8d8 3ebf 343b 1bbf
00000220: 8eb5 d4bd fffd 16be aa0b 613f 4af6 09bf
00000230: a728 263e a9b1 7dbe 2a3f 08bf 1188 1d3e
00000240: 99b9 15be 06ef 423f 8656 723f 33f8 ef3e
00000250: aeac 4c3f c499 1a3d 140c 7bbf c1de 413e
00000260: 9211 43bf f493 1abf 70b7 12bf e7cd 5a3e
00000270: 1a8e 63bf 7b38 b6be 028d 143f c905 e03c
00000280: 1848 123f 7dea fdbe 91b6 cf3e a731 3b3e
00000290: 7c39 6bbf 0481 403f d843 62bf 1217 19bf
000002a0: 8cb8 04bf 0eb2 e9bd e2c8 733f 6e0d 5fbc
000002b0: d429 3dbf c9e1 8b3e 5a43 5b3f b873 203f
000002c0: 909b 1b3f e1e4 503e a685 13bf 9b04 b5be
000002d0: 9136 0cbe 90ca 023f e58f c8be f8c6 2dbf
000002e0: 36e1 0abf 8222 6b3f c7b7 4d3e 1a4a 6fbf
000002f0: f027 583f 5f9a 473e 437e f4be a4ac 173f
00000300: 73e7 cf3e 2005 143f f746 efbc fddd f1be
00000310: e699 42bf 24bb 2dbd 120c 35bf 8b36 b63e
00000320: 00ac 6ebf 0153 72be c8e3 10bf eaa4 1abf
00000330: 5e44 e33d a4a1 5c3d 0023 143f 1b6b 543d
00000340: 22c8 74bf 7739 583e bf98 493e 5a13 05bf
00000350: 48bd 32bf 4c6c 003f 25e8 823e 8a65 7ebf
00000360: ee4e 323f c747 6e3e 3b82 bb3e 26c8 27bf
00000370: 97a0 cb3e c909 9dbe b74f 25be 8f79 f33e
00000380: b2c6 7dbf 0807 0d3f a534 8abe cb59 d2be
00000390: aeda ddbd 8f39 623e a906 8dbe 3ab8 4dbf
000003a0: 541d 483f 0e2f 78bf f1ba 7dbe 8949 d53e
000003b0: 008e 313f 0623 3fbf 24ce 703f 880b 7b3f
000003c0: 5ec2 5ebf c4b1 65bf 18a0 6b3f 23d6 a1be
000003d0: 45c6 c3be 83be 96be 175f 53be c9bb 9f3e
000003e0: 71a2 503e 86aa 45bf 3225 da3d bc5d 63bd
000003f0: 17b9 4c3e 62f8 e6be c4df 10bf 19e5 34be
-0.8841572 0.7061622 -0.76948464 -0.91060066 -0.23132564 0.8284446 -0.5637828 -0.111256495
-0.5661845 -0.87321603 0.7133676 -0.38906798 -0.45403334 -0.43396363 0.8081492 -0.9273572
0.16651274 -0.041613325 0.78366566 -0.16291271 -0.27183798 0.8274368 -0.7872573 0.4134747
-0.85768867 0.3473924 -0.84637356 0.048031464 -0.9798316 -0.10967685 -0.036597595 0.6970066
0.9779514 0.3637142 0.71128595 0.695945 -0.3441027 -0.7451885 0.9050189 0.45057854
0.5881933 0.94284105 0.7053788 0.09630261 -0.90231276 -0.95300925 0.8402295 0.01670645
0.29725423 -0.5048493 -0.08435272 0.6559973 -0.90032506 -0.5622901 -0.011582477 -0.07655777
-0.04181741 -0.6438905 0.1847973 -0.80779076 -0.103622094 -0.9104638 0.18572487 0.4987928
-0.09687568 -0.65903556 -0.7488364 0.49124363 0.31875268 0.77661407 -0.030258792 0.6908028
0.45912072 -0.90298986 0.75728106 0.4304404 -0.87471235 0.8424138 -0.93011856 -0.41886845
0.75484335 0.38533685 -0.3355758 0.37922397 0.7642014 -0.6386434 0.84986913 0.7298845
0.40399298 0.3054962 0.10954501 0.48055962 -0.8682852 -0.4919798 0.21847521 -0.8553473
-0.46184078 0.9524636 0.057015523 -0.57584083 -0.45563582 -0.13346277 0.23389961 -0.3410456
-0.82420623 0.3034155 -0.19443096 0.24917819 -0.028605921 0.12595831 0.20343532 0.1538807
-0.70279086 0.11534168 -0.06359778 0.095569715 -0.27853563 -0.33748415 0.84553814 0.061393842
0.5880375 -0.47182313 0.67209387 -0.5504464 0.4521903 -0.91022265 -0.75400305 0.057313785
0.015608685 0.7934246 0.36062226 -0.5553404 -0.6858275 -0.65146565 -0.7454982 -0.6063721
-0.10386191 -0.1474533 0.8790842 -0.5389143 0.16226445 -0.24774803 -0.5322138 0.15383936
-0.14621581 0.7614597 0.94663274 0.46869048 0.7995099 0.0377443 -0.98065305 0.1893263
-0.76198685 -0.6038201 -0.57311153 0.21367608 -0.88888705 -0.35589966 0.5802766 0.027346509
0.57141256 -0.49592963 0.40568975 0.1828066 -0.9188459 0.7519686 -0.8838477 -0.5980083
-0.51844096 -0.11410914 0.952284 -0.013614042 -0.7389195 0.27320698 0.85649645 0.6267657
0.60784245 0.2039981 -0.57625806 -0.35355076 -0.1369269 0.51090336 -0.39172283 -0.6788173
-0.54249895 0.9184953 0.20089637 -0.93472445 0.8443594 0.19492482 -0.4775258 0.59247804
0.4060627 0.5782032 -0.029208643 -0.47239676 -0.7601608 -0.0424148 -0.7072154 0.35588488
-0.932312 -0.23664476 -0.56597567 -0.6040789 0.110970244 0.05386509 0.57865906 0.051859956
-0.9561788 0.21115671 0.19687174 -0.51982653 -0.6982007 0.5016525 0.25567737 -0.99373686
0.6965169 0.23269568 0.36622795 -0.6553978 0.39770958 -0.30671528 -0.1614369 0.4755368
-0.9913131 0.55088854 -0.2699329 -0.41084132 -0.108327255 0.2209227 -0.27544144 -0.8035923
0.7816975 -0.969468 -0.24778344 0.41657665 0.693573 -0.74662817 0.94064546 0.9806447
-0.8701533 -0.89724374 0.9204116 -0.31608686 -0.38237205 -0.29442224 -0.20641743 0.31197956
0.20374466 -0.77213323 0.10651626 -0.055509314 0.19992481 -0.45111376 -0.5659144 -0.17665519

policy_head.linear_2.weight f4 [81, 256]
00000000: 46f0 0c3d c2b0 0abd b022 66bd 485c 113d
00000010: e57e ec3c 8e5e 32bc 71c9 cb3c 165f 02bc
00000020: 9d4d a63c b2c7 3dbd 3a55 703d 1559 fd3c
00000030: 0468 ea3b e323 54ba 16b3 69bd 74f6 113d
00000040: 6c3f 3d3d b4f8 e23b ece4 723d 4872 2cbd
00000050: e34f 5dba 76fa 7fbc e460 763d 2e43 463d
00000060: 8fa0 e03a e17c d53c fe09 6fbc 9aef 703c
00000070: 682d 13bd 7c14 efbb dc47 bcbb e2c4 6a3c
00000080: 6722 f6bc 6ea5 7a3d de9f 47bc 65f3 bf3c
00000090: 41cd b13c 5bfb 8ebc f50a 863c 2064 793d
000000a0: 074a 2e3b 46cf 02bc e974 e43c 068c 66bd
000000b0: ea7d 063d ac39 313d 3d35 de3c 988a 263d
000000c0: ef49 f0bc 022b 0b3d 205c 61bd 3dd1 e13c
000000d0: a444 493d af3c c8bc 3807 613d 3417 383d
000000e0: d476 963b 2c1b e4bb b6d3 74bc bc97 46bd
000000f0: 04ca bb3b 8c33 39b9 2a70 433c 72d5 64bd
00000100: e4eb d13b ff8b bdbc 72f4 053d 60b8 253d
00000110: e4f0 3abd 7abd 483c 6c2b ffbb 1e70 01bd
00000120: 8f06 ccbc b1c9 8e3c 1807 6b3d fe56 36bc
00000130: 34f0 76bd 6a9d 2fbd 800b 3f3d 1aa2 39bd
00000140: 323a 523c ac7d eebb 057f e13c 14f5 5dbd
00000150: 2240 1f3c a93f fd3c b444 bb3b b869 6ebd
00000160: b938 8a3c c37d a6bc a000 6e3d dd69 9e3c
00000170: b06b 34bd b14e efba cfc5 cbbc 9375 8fbc
00000180: 6c9f 703d d68c 263d 0e52 28bd a8b5 003d
00000190: 4d63 f73c 325b 2c3d dca8 34bd 5a63 1f3c
000001a0: e4c0 54bd d982 43bb ab09 e0bc ddbc ce3c
000001b0: e69c 143d dcba c1bb cf38 b7bc 79c9 873c
000001c0: 62d0 1d3d 164f 30bc 8985 923c 2646 7cbc
000001d0: 06c5 24bd e29c 19bd 6ae2 10bd e05e 173d
000001e0: d81c 6e3d a7a9 283b 1a13 0e3d 9a60 1d3c
000001f0: 2ce3 77bd 35a3 a83c 94f1 273d fe96 30bc
00000200: ea7f 223d 7e65 21bc 3e7d 09bc 86f7 0dbd
00000210: bc5c 0e3d 1c6c 86bb aa39 3d3d bd01 d03c
00000220: 6efb 683d a118 e73c b2c1 1ebd fafb 3abd
00000230: 94ce 0d3d d8bd 413d dfa3 abbc 3677 1d3d
00000240: d9e8 ef3c 3e74 1d3d e6fa 283d 82ef 21bd
00000250: 93a8 ecbc 94cf af3b 1cfc 3c3d bebc 783d
00000260: f0e1 f2ba 16e3 7dbd 522f 68bd e8de 203d
00000270: b97b 66bb ab09 c3bc 9c03 6abd a215 29bd
00000280: 9a8b 7f3d 3b05 e639 11cb 8b3c 28a7 073d
00000290: b06c 6b3d 5cf4 eebb 6b4b cfbc f549 f83c
000002a0: 8c98 9ebb 10eb 37bd a293 653d c569 8e3c
000002b0: 8a81 65bd 70df 04bd c89c 2f3d b287 62bd
000002c0: 5c26 683d c2b2 543d 320f 08bd 722f 35bd
000002d0: 18a9 70bd d09f 57bd 6e5b 573d 24f5 3b3d
000002e0: 3a99 40bd 4239 4c3c cf55 a73a 64d8 253d
000002f0: 7451 9c3b 9e60 03bc e3b5 dcbc 32ab 433c
00000300: 22c0 573d d028 4c3d 3ed7 7bbd 6cdb 203d
00000310: 9d2e f53c 11e6 d13c bd81 053d 0899 123d
00000320: 6592 d63c 3774 a8bc d2f6 3dbd fc56 c7bb
00000330: e497 283d c4d2 0a3d 9628 4dbd 47e7 2f3b
00000340: ada1 9d3c 1e34 623d 9ebb 533d a48c bf3b
00000350: 160d 56bd d266 0abd 8c96 753d c871 573d
00000360: 9398 b4bc c22e 66bd f2a5 27bd 5591 953c
00000370: 0e43 31bd 9e58 023a 1557 833c ba25 4fbd
00000380: 3056 2c3d ac26 ffbb 36f2 4abc e87b 63bd
00000390: b9e3 cc3c 1a91 6fbd c4f8 be3b 76de 163d
000003a0: f5cf a23c a64f 49bc aa93 763c b00b 533d
000003b0: c887 343d 7eea 70bd a439 513d 16f0 573d
000003c0: bd09 ff3c d474 29bd e7f2 c9bc 369e 79bc
000003d0: ccf4 7ebd 3954 5bbb 9218 583c 66ed 50bc
000003e0: 32b7 4abd e41b d33b b40e 403d aeff 29bd
000003f0: 0c0e 1f3d f6cf 32bd da07 79bd 5bbc b8bc
0.03440883 -0.033859976 -0.056185424 0.035488397 0.028869102 -0.010886801 0.024876328 -0.007957241
0.02030068 -0.046333022 0.05867503 0.030926267 0.007153513 -0.0008092506 -0.057055555 0.035635427
0.046203062 0.0069266204 0.05930035 -0.042101175 -0.0008442385 -0.015623679 0.060150996 0.04840391
0.0017137694 0.026060523 -0.014589785 0.014705563 -0.035931975 -0.007296143 -0.005745871 0.014329167
-0.030045701 0.061192922 -0.012184111 0.02343149 0.021704318 -0.01745384 0.016362647 0.060886502
0.0026594417 -0.007983988 0.027887778 -0.05628588 0.032834925 0.04326789 0.027124995 0.040659517
-0.02933213 0.033976562 -0.055019498 0.027565593 0.049137726 -0.024442999 0.054938525 0.044944003
0.004591802 -0.006961247 -0.014943054 -0.04848455 0.0057308692 -0.00017662178 0.011928597 -0.05586762
0.006406294 -0.023138044 0.032703824 0.040459037 -0.045639887 0.012252206 -0.0077871587 -0.031601064
-0.024905471 0.017430158 0.057379812 -0.011129139 -0.06028767 -0.04287473 0.046641827 -0.045320608
0.012831258 -0.007278165 0.027526388 -0.054188803 0.00971988 0.030914145 0.005714977 -0.05820629
0.01687275 -0.02032364 0.058106065 0.019337589 -0.04404801 -0.0018257705 -0.024874596 -0.017512118
0.058745787 0.040661655 -0.04109388 0.03142324 0.030198717 0.042079158 -0.04410635 0.009728277
-0.051941767 -0.002983263 -0.02734836 0.025236541 0.036282443 -0.005912168 -0.022365956 0.016575562
0.038528807 -0.010761043 0.01788594 -0.015397584 -0.04022696 -0.03750313 -0.035372175 0.036955714
0.058132976 0.0025735886 0.034686185 0.009605551 -0.060519382 0.020585636 0.04100187 -0.010778187
0.03967277 -0.009850858 -0.0083916765 -0.034659885 0.034756407 -0.004102243 0.04619757 0.025391454
0.056880407 0.028209986 -0.03875894 -0.04565046 0.034620836 0.04730019 -0.020952163 0.038443767
0.029285835 0.038440935 0.0412549 -0.039535053 -0.028888976 0.0053653214 0.046138868 0.060726874
-0.0018530469 -0.061984144 -0.056685753 0.03927508 -0.003516896 -0.023808321 -0.05713235 -0.041280396
0.062388994 0.00043872916 0.017064603 0.033118397 0.0574767 -0.0072923135 -0.025304517 0.030308703
-0.0048399623 -0.044901907 0.056048997 0.01738442 -0.05603174 -0.03243965 0.042874128 -0.05530519
0.056677207 0.05192829 -0.033217616 -0.0442347 -0.05875501 -0.052642643 0.05257743 0.04588808
-0.04702113 0.012464823 0.0012766662 0.04048957 0.004770452 -0.008018641 -0.0269422 0.011942672
0.052673467 0.04984361 -0.061484568 0.039271757 0.029929454 0.0256224 0.03259443 0.035790473
0.026192853 -0.020563228 -0.046377964 -0.0060833674 0.04116048 0.033892408 -0.050087534 0.0026840733
0.019242132 0.055225484 0.051692598 0.005845623 -0.052258573 -0.033789463 0.059958026 0.052598745
-0.02204541 -0.056196935 -0.040929742 0.018257776 -0.04327684 0.00049723114 0.016032735 -0.05057309
0.042074382 -0.0077865925 -0.012386849 -0.055538088 0.02501093 -0.05848799 0.005827995 0.03683325
0.019874552 -0.012287056 0.015049854 0.051524818 0.044074804 -0.05881738 0.05108036 0.0527192
0.031132573 -0.04137118 -0.024651958 -0.015235474 -0.062245175 -0.0033466949 0.013189452 -0.012751913
-0.049491115 0.006442534 0.046889022 -0.0415036 0.038831756 -0.04365536 -0.060798503 -0.022550752

policy_head.linear_2.bias f4 [81]
00000000: 9833 613d 59d2 533b c6c9 563c b41f 98bb
00000010: 2bb8 ec3b ef12 5b3d a7ff b23c 4462 c53b
00000020: 171a 683d 3b61 adb9 3ef8 33bc 236b cabc
00000030: 5423 87bb f66c 4bbc 478b 75bd 4474 41bd
00000040: 8640 193d cf31 98bc fe03 483d 7e03 333d
00000050: faca 56bd 64da 70bd 0a87 113c 1732 393d
00000060: aef7 063c 9765 d4bb 959a d43b 05cb dbbc
00000070: 34ed 523d 2eb7 51bd 6276 75ba 7a65 00bc
00000080: ebb2 8bbc ce75 153d 5c3b 633d 0fe4 78bd
00000090: 5bd1 61bd 211b 983c 36ac 043d 3285 5bbd
000000a0: 06e1 67bc cef3 45bd df11 c5bc abca e2bc
000000b0: 8aec 513d 178e cb3c 96a6 623d e1ca e33c
000000c0: e455 ccbb 7f3b 9cbc 9fe9 603d bf1a bcbc
000000d0: f891 47bb 62e6 343c 34ef cbbb c387 febc
000000e0: e85c 763d 836f ecbc 2ee9 313d 223a 153d
000000f0: 401a 4d3d aae0 83bb 7903 263d 114c ed3c
00000100: 3eb5 03bc 50e7 0d3d 135f 3a3d 0cf3 303d
00000110: 6a06 093c bdd4 e13c acc8 6abd 81cb f03c
00000120: 9de3 89bc d502 793d 9c46 6c3d 9f32 473d
00000130: 6dad 8a3c 24d1 e23b 2277 66bd d95b df3c
00000140: 4633 093d
0.054980844 0.0032321422 0.01310963 -0.004642451 0.007224103 0.053484853 0.02185042 0.006023677
0.056665506 -0.00033069574 -0.0109844785 -0.02470929 -0.0041240845 -0.012416115 -0.05994728 -0.04723002
0.03741505 -0.018578438 0.048831932 0.043704502 -0.052439667 -0.058802024 0.0088822935 0.045213785
0.008237762 -0.006481837 0.006488154 -0.026830206 0.051495746 -0.051200084 -0.0009363649 -0.007836694
-0.017053088 0.0364893 0.05547653 -0.06076437 -0.055131298 0.018567624 0.032390796 -0.05359382
-0.014152771 -0.048328213 -0.024056373 -0.02768453 0.05125097 0.024848027 0.05533465 0.027806701
-0.006235825 -0.019071339 0.0549103 -0.022961972 -0.0030451994 0.011041256 -0.0062235836 -0.031070596
0.060147196 -0.028861767 0.043435268 0.036432393 0.050073862 -0.004024585 0.040530656 0.028966935
-0.008038817 0.034644425 0.045500826 0.043200538 0.008363346 0.027567262 -0.057320282 0.029393913
-0.016832167 0.060793716 0.057684526 0.04863226 0.016928399 0.006921904 -0.056265958 0.027265476
0.033496164

value_head.in_linear.weight f4 [512, 256]
00000000: 1cad b53c 56ec 753d 34cc 173d 80fe 163a
00000010: 64b8 d2bc c653 28bd bcf2 bb3c 94b7 1fbd
00000020: b03c a73c f0a8 e3bb 089f a2bc 7086 423d
00000030: e866 633d f0c1 a4bb 9880 9dbc ec17 babc
00000040: f019 debb 00d4 9839 787e 3ebd 04d7 e9bc
00000050: 9861 293d 3cc1 853c 8c04 563d 704a c5bb
00000060: 9092 71bc c4b9 f7bc dafd 423d f0bf 033d
00000070: 0aad 35bd e447 edbc 60f4 c9bc 0035 c9bb
00000080: 746f 8cbc 5039 9f3b 08d5 fc3c 6665 273d
00000090: c8e3 3fbd a88e fe3c 9cee 1b3d b0b8 2c3c
000000a0: 5091 95bb f44b 9dbc f02e 07bd 1010 e33c
000000b0: 5838 5abc b08e b93c 2289 003d a086 29bd
000000c0: daf6 4f3d ae6b 14bd 2608 113d ac82 bd3c
000000d0: 7a54 06bd 185a a2bc a016 cbbc 7c79 f33c
000000e0: 80b5 1cbc 00f8 ebb8 8032 b03c f005 533d
000000f0: 10b2 953b e0e6 bd3b c8df ffbc 30bd b33b
00000100: ca0a 72bd a4fc 09bd b206 7fbd 040a ef3c
00000110: d829 963c 744a 48bd 0cb4 063d 027b 56bd
00000120: 5085 5abc 2a7d 5fbd 009d 74bd d020 593d
00000130: 504f 453c 2a57 2dbd a279 5cbd cad3 543d
00000140: b881 54bd d62d 55bd b8ce ce3c e087 26bc
00000150: eec1 30bd 9af9 7fbd 56fa 25bd 0066 c5b9
00000160: 0082 a03a b8b4 8b3c 5227 7c3d f8e3 573c
00000170: 04f3 603d 2896 993c e0e3 0f3d 6444 cdbc
00000180: e07c a9bb c040 d6ba 561e 1dbd 6a00 31bd
00000190: 0879 63bc 78e3 e93c 4424 f13c 004e b33b
000001a0: d44a 45bd 346b 493d 98a6 5e3d f8db 3b3c
000001b0: f82e ed3c 865b 26bd b08a f93b d04e b9bb
000001c0: c05f e9bc 2ecd 783d 4c29 30bd 00eb 45ba
000001d0: c4b0 ad3c 40ea fcbc 26c9 2b3d 3c01 db3c
000001e0: 08c2 3a3c 6418 d23c e4b1 81bc a465 9dbc
000001f0: faea 4fbd 6c52 473d 8065 3fbd 022c 41bd
00000200: 2cd4 843c f88d c03c a8bd b03c ecd1 cb3c
00000210: f015 60bc de09 3ebd 80bb 0d3d 2cbf b83c
00000220: c002 32bb e071 3dbc 0420 413d d08f b0bb
00000230: 581b 453d 3cfe ec3c c45d 76bd f6c3 2e3d
00000240: 02d8 5d3d 6032 ba3c 269a 073d 6263 793d
00000250: 825d 563d c04b 6cbb c03d fcbc 4880 223c
00000260: f09d f1bc 207d b33b 4a59 623d d6b1 123d
00000270: 90cf d5bc 74cc a33c 5c81 bf3c 120c 54bd
00000280: b0a2 0c3d a02e c73c de85 343d 320e 423d
00000290: 982f f63c 38b1 753c 309e 2abc 30b3 08bc
000002a0: c071 2ebd 4ce4 cbbc ec82 81bc ae73 463d
000002b0: c820 19bc f673 57bd 682b 3bbd 8c17 ac3c
000002c0: 08d4 e13c 68f4 6bbc e0b0 3b3b 6829 233c
000002d0: e8c0 463d a290 41bd cabf 4c3d c671 18bd
000002e0: 8c46 1cbd 506b 41bd 7675 09bd fe25 303d
000002f0: 006c c13c c083 313c 64c2 b13c 501a a1bb
00000300: 42af 51bd 42bb 0dbd becc 5dbd b21d 5ebd
00000310: d217 68bd 2802 573d c838 e33c a039 10bb
00000320: 1095 973b 1a08 5ebd 387c 253c 004c 893a
00000330: c6b7 37bd fa3e 70bd 2279 04bd 3231 1fbd
00000340: 90d6 e33c 58b3 1abc a27a 7fbd 800f adba
00000350: 70e7 e2bb 249e dfbc 103b 173c 08e7 7d3c
00000360: 5055 fdbb 6082 13bd 98ba 7e3c 2af2 0b3d
00000370: c8d7 1bbd ac61 1a3d e0bd 73bc 80d2 4dbb
00000380: c077 e03c 7076 56bc 441e 9a3c 94b4 1bbd
00000390: a0a3 41bd 0c9b b9bc a825 6b3c 28cb a13c
000003a0: f467 c3bc 309c cdbb 002e 46bb 8076 48bb
000003b0: f237 173d 100f 13bc 98c5 56bd d256 6cbd
000003c0: 06ef 2e3d 94c4 ea3c 2819 543c 5cd7 223d
000003d0: def0 793d fc1d a13c 9c86 6fbd 0c86 2f3d
000003e0: d230 543d 5ac9 3dbd ca83 7abd f04b 79bd
000003f0: 189d 77bd e447 4dbd e03e 3cbc 806f ac3b
0.022177272 0.06003984 0.037059978 0.00057599694 -0.02572269 -0.041095518 0.022942893 -0.038993433
0.02041468 -0.006947629 -0.019851223 0.04749149 0.05551806 -0.005028002 -0.019226357 -0.022716485
-0.0067779943 0.00029149652 -0.04650733 -0.02854491 0.04135284 0.016327493 0.05225043 -0.0060208365
-0.014744416 -0.030239947 0.047605373 0.032165468 -0.044354476 -0.028964944 -0.02465266 -0.0061403513
-0.017142989 0.004859127 0.0308633 0.040868185 -0.04684809 0.031073883 0.038069353 0.01054208
-0.0045644417 -0.019201256 -0.033003747 0.02771762 -0.013319097 0.022651047 0.03138078 -0.041388154
0.050772525 -0.036235504 0.03540816 0.023133598 -0.032795407 -0.01981835 -0.024791062 0.029721014
-0.009564757 -0.00011251867 0.021508455 0.051519334 0.004568346 0.0057953447 -0.031234637 0.0054851994
-0.05909232 -0.033688203 -0.062262245 0.02917958 0.0183305 -0.04889913 0.03288655 -0.052363403
-0.013337448 -0.054562725 -0.05972004 0.053009808 0.012042835 -0.042319454 -0.053826936 0.05195979
-0.051881522 -0.052045666 0.025245056 -0.010164231 -0.043153696 -0.062493898 -0.040521942 -0.00037650764
0.0012245774 0.017053947 0.061560936 0.013176911 0.054919258 0.018748358 0.035129428 -0.025057025
-0.005172357 -0.0016346201 -0.03835901 -0.043213286 -0.013883837 0.028550848 0.029436238 0.005471945
-0.048167065 0.049174502 0.054358095 0.011466019 0.02895306 -0.040614627 0.00761541 -0.005655147
-0.02848804 0.06074255 -0.043008134 -0.00075499713 0.021202452 -0.030873418 0.041939877 0.026733987
0.0113988 0.025646396 -0.015831895 -0.019213505 -0.0507612 0.048662588 -0.046727657 -0.04716111
0.016214453 0.023505196 0.02157481 0.024880372 -0.013677105 -0.04639613 0.034602642 0.022552095
-0.0027162284 -0.011562794 0.047149673 -0.0053882375 0.04812178 0.028929822 -0.060148016 0.04266735
0.05416108 0.022729099 0.03310599 0.060885794 0.05233527 -0.0036055893 -0.030791163 0.00991828
-0.029494256 0.0054775625 0.055260934 0.03581413 -0.02609995 0.019994952 0.023377113 -0.051769324
0.03433484 0.024314225 0.04407298 0.04737682 0.030051991 0.0149958655 -0.010413691 -0.008343503
-0.04258895 -0.024889134 -0.015809499 0.048450164 -0.009346195 -0.052600823 -0.045695692 0.021007322
0.027566925 -0.014401533 0.0028639361 0.0099586025 0.048523813 -0.047257073 0.04998759 -0.037217878
-0.038153216 -0.04722148 -0.033559285 0.043004982 0.023611069 0.010834634 0.021699138 -0.004916467
-0.05119253 -0.03460241 -0.054150335 -0.05422754 -0.05666334 0.05249229 0.027737036 -0.0022007003
0.004625924 -0.054206945 0.010100417 0.001047492 -0.044852994 -0.05865381 -0.032342084 -0.038865276
0.027812272 -0.009442173 -0.06237281 -0.0013203472 -0.006924562 -0.027297087 0.00923039 0.015496977
-0.0077311173 -0.036013007 0.015547417 0.034166493 -0.038047582 0.037690803 -0.014876813 -0.0031405985
0.027400851 -0.013089761 0.01881326 -0.03801401 -0.047275186 -0.02265694 0.01435224 0.019750193
-0.02385328 -0.0062747225 -0.003023982 -0.003058821 0.036918588 -0.008975759 -0.052434534 -0.057699986
0.04270842 0.028658189 0.012945451 0.039756164 0.061020724 0.019667618 -0.058477983 0.042852446
0.05180437 -0.046334602 -0.06116084 -0.060863435 -0.06045255 -0.05011739 -0.0114896 0.0052623153

value_head.in_linear.bias f4 [512]
00000000: b0c6 d3bc 40a2 d63c 988b f9bc 40a5 943b
00000010: d8a3 76bc f8c7 76bd bc04 743d 8ecb 4cbd
00000020: 8e84 0bbd 2cbe ddbc e8f2 663c 48dc 9c3c
00000030: 88fd 723c b865 25bd ece1 29bd 6c63 abbc
00000040: 4a7f 723d 40dd 1cbb 7841 70bc 0cc0 c4bc
00000050: 6ee6 09bd 0801 5a3c 485a cdbc 4ee1 3dbd
00000060: fca4 6cbd 9cb1 d7bc d2ef 66bd b00f 363c
00000070: 20b9 f83c ae29 50bd 0054 eeb9 d03b 3d3c
00000080: 0e5b 763d 7088 7cbc 9232 783d d8d4 7e3c
00000090: 1c43 91bc 6cdf fcbc bccd 9ebc d88f 783d
000000a0: 3241 533d 284d 8abc 46eb 14bd ead0 20bd
000000b0: d8a3 fcbc dc17 e9bc a0c0 6b3d cafd 04bd
000000c0: 7055 ebbb 3697 70bd e268 4dbd 60c2 7dbb
000000d0: 0a23 693d 34d2 863c b041 9b3b 80d8 4bbc
000000e0: 280a 443c e80b 9a3c 5406 a9bc 2c98 113d
000000f0: 104f 0abd 8ea8 673d b636 3e3d cc02 463d
00000100: 647c 1e3d b661 0cbd 80a0 42bb 08b0 303c
00000110: 66b8 463d 8044 76bb a24a 75bd de63 0cbd
00000120: b0f5 a2bc a853 02bc 6ed0 05bd 5096 87bb
00000130: c089 933c a6d3 423d c427 93bc 2e76 323d
00000140: f25e 23bd f8b7 52bc a473 7fbd 343d 263d
00000150: 6ec5 5f3d 7e36 0abd 1cdf c2bc b049 e5bb
00000160: 7044 ca3c c41e 0abd bcb2 f9bc a824 2c3c
00000170: b405 aebc 94fb f83c ae65 5ebd 1400 473d
00000180: a4f3 c0bc e6a2 4a3d 72c7 07bd c8f3 93bc
00000190: d01d 5dbc c24e 63bd 3239 283d 747e dd3c
000001a0: 0066 353a 8819 5a3c 9a1e 28bd 105b 2abd
000001b0: 94c4 6d3d 8c69 bfbc 6cd6 e93c 3a32 40bd
000001c0: 707b ac3c 7631 313d 2c18 1f3d d0c6 edbb
000001d0: 86ff 47bd aace 143d 28b5 14bd 24f9 ce3c
000001e0: 9cfc 1ebd e082 983c 020e 79bd 5215 2d3d
000001f0: 1c72 cfbc 1a5c 04bd 6cfa 29bd 503b c0bc
00000200: 30eb 053d c0cd cebc 6c14 0e3d dc9a 9f3c
00000210: 78e8 13bd 60e6 a63c 946c f53c 3017 433c
00000220: ae42 41bd 0ac8 0dbd 407c 69bb e4e4 ea3c
00000230: 6096 66bb 3099 80bb e018 4fbc 0882 1f3c
00000240: 8890 bbbc 3036 793d 7073 45bc 90db d83b
00000250: 54d5 6c3d d29c 4bbd d0ed 1cbd 0425 a93c
00000260: 9c4b 2bbd f0b5 b1bb fe48 7bbd 326d 363d
00000270: 0607 183d a8aa 983c 0836 f03c 9c85 98bc
00000280: 2cd5 cabc 7afe 3fbd b02b 0abd c6cb 6ebd
00000290: a86c 6abc 6297 453d dadc 18bd 4017 753d
000002a0: c01f 31bd 0048 0c3c 4e34 2e3d 1041 87bc
000002b0: 7ee5 3abd 04e0 42bd b04d 6d3c 869b 5bbd
000002c0: 76e6 6dbd 2e2d 4fbd 486f 6bbd 30f6 e0bb
000002d0: b2ff 0cbd 1678 5d3d 7c82 0b3d 30e2 e13b
000002e0: bc8b 613d 086d 7c3c 345b 1e3d 00ec 5b3d
000002f0: 2497 133d a4ba c13c fece 62bd bcd7 13bd
00000300: 1ea5 37bd 6e3d 34bd 00f5 d83b 880b 3f3d
00000310: 1c4b ba3c 0a26 01bd bc24 72bd b4fe d43c
00000320: e8d6 bd3c 7eab 723d 701a be3b 807c 1cba
00000330: 387f dfbc e82a 873c 2828 0cbc 16ee 2a3d
00000340: 7c1a 4fbd 3891 43bd 486c 30bc 28d6 963c
00000350: 7640 133d d224 3ebd 7676 5fbd 40a6 7f3c
00000360: 1416 dcbc 8868 283c 20f1 99bc 3010 433c
00000370: c091 813a ea6d 40bd 5822 063c 78c9 933c
00000380: 8c38 23bd 762c 37bd 88df 08bd cc24 c8bc
00000390: 7073 6b3c e447 cc3c b68f 533d a0c1 083c
000003a0: f899 a53c d0b3 45bd c02a d3ba 1284 0abd
000003b0: 703a 9c3b 0025 aabc 64c1 98bc 80c1 d4ba
000003c0: aca8 b7bc 6849 24bd d0ca 78bd c0b5 ff3a
000003d0: 3074 443d f431 e2bc ecb6 e2bc 5e25 143d
000003e0: 4ec1 6a3d 1cf5 c2bc ecbe 54bd f4db 6bbd
000003f0: 8845 4cbc 88ec 013d 809e 87ba 42e4 513d
-0.025851578 0.026200414 -0.030462071 0.004536301 -0.015053712 -0.0602493 0.059574828 -0.049998812
-0.03406196 -0.02706822 0.014095999 0.019148007 0.014830954 -0.04038021 -0.04147522 -0.020921431
0.059203424 -0.0023935586 -0.0146640465 -0.024017356 -0.03366702 0.01330591 -0.025067464 -0.046357445
-0.05777453 -0.026329808 -0.056381054 0.011112139 0.030361712 -0.050821 -0.00045457482 0.011549905
0.06014543 -0.015413389 0.060595103 0.015553676 -0.017732196 -0.030868255 -0.019385211 0.060684055
0.051575847 -0.016882494 -0.036357187 -0.039261736 -0.030839846 -0.02845376 0.05755675 -0.032468595
-0.007181816 -0.058737956 -0.050148852 -0.0038720593 0.05691818 0.016457655 0.004738055 -0.012441754
0.011965312 0.018804505 -0.0206329 0.035545513 -0.033766806 0.05655723 0.046438895 0.04834251
0.038692847 -0.034272872 -0.0029697716 0.010784157 0.0485157 -0.003757745 -0.05988563 -0.03427493
-0.019892544 -0.0079545155 -0.032669477 -0.0041377917 0.01801002 0.047565125 -0.017963298 0.043569736
-0.03988547 -0.012861244 -0.062366143 0.04058571 0.054631643 -0.033743374 -0.023788027 -0.0069973096
0.024690837 -0.033720747 -0.030480735 0.010506786 -0.021242954 0.0303934 -0.054296188 0.04858406
-0.023553677 0.04947176 -0.03314919 -0.01806058 -0.013495877 -0.05549503 0.04107017 0.027037837
0.0006919801 0.013311751 -0.04104481 -0.04159075 0.0580488 -0.023365758 0.028544627 -0.0469229
0.021054953 0.04326006 0.03884141 -0.0072563663 -0.04882767 0.036329903 -0.036305577 0.025265284
-0.038815126 0.018617094 -0.060804375 0.04225666 -0.025322966 -0.032314397 -0.041498587 -0.023465782
0.032694995 -0.025244594 0.034687445 0.019483022 -0.03611037 0.020373523 0.029959 0.011907384
-0.04718273 -0.0346146 -0.0035627037 0.028673597 -0.0035184845 -0.0039245114 -0.012640208 0.009735592
-0.022896066 0.060842693 -0.012051448 0.0066179708 0.057820633 -0.049710102 -0.038312733 0.020647533
-0.041820154 -0.0054233 -0.061348908 0.04453773 0.037116073 0.018636063 0.02932264 -0.018618397
-0.024759851 -0.046873547 -0.03373307 -0.058299802 -0.014308132 0.048240073 -0.037319995 0.059836626
-0.04324317 0.008562088 0.04253035 -0.016510516 -0.045629017 -0.04757692 0.014483854 -0.053615116
-0.058081113 -0.050580196 -0.057479173 -0.0068652853 -0.034423538 0.0540696 0.034059986 0.0068934187
0.0550649 0.015406854 0.038661197 0.053691864 0.03603281 0.023648567 -0.055373184 -0.036094412
-0.044835202 -0.044003896 0.006621003 0.046641856 0.022740893 -0.031530418 -0.059117064 0.026000358
0.023173764 0.05924558 0.0058014914 -0.00059694797 -0.027282342 0.016499951 -0.008554496 0.041730963
-0.050562367 -0.047745913 -0.010768004 0.018412665 0.035950147 -0.046421833 -0.054556333 0.015603602
-0.026865996 0.010278828 -0.018791735 0.011905715 0.0009885356 -0.046979822 0.008186899 0.018040404
-0.03984885 -0.044720136 -0.0334163 -0.024431609 0.014370784 0.024936624 0.051650725 0.008346945
0.02021502 -0.048267186 -0.0016110763 -0.03381736 0.0047677085 -0.020769596 -0.018646903 -0.0016231984
-0.022419296 -0.04010907 -0.060740292 0.0019509122 0.047962368 -0.02761171 -0.027675115 0.03616845
0.057313256 -0.023798518 -0.05193989 -0.05758281 -0.012467749 0.031719714 -0.0010346919 0.051243074
