ckpt/it0020000.pth (torch, 715079 bytes, 10 tensors)

policy_head.linear_1.weight f4 [256, 81]
-0.09400678 -0.3296403 0.28126734 -0.17550927 -0.28251022 -0.11696969 -0.37165606 0.28740272
0.20673749 0.48306626 0.22618146 -0.06553278 0.26876965 -0.16994788 -0.0006909857 -0.00781516
0.17123319 0.0022640612 -0.23903805 0.17898487 -0.23974413 -0.10961936 0.33891523 -0.1873222
0.33527857 0.090407 0.14522173 0.60033005 -0.05510829 -0.15870075 -0.25250468 -0.11686424
0.14799419 0.42759162 0.23640542 0.14397629 0.24640866 -0.063388996 0.27657562 -0.4126586
0.021727243 -0.031371333 0.14857438 0.08561582 -0.018433012 0.020706715 -0.20624197 0.15108092
-0.228915 -0.04476548 -0.09605092 -0.02722593 -0.0034997233 -0.07674816 0.042915985 0.2244993
-0.34704754 0.049339797 -0.21751697 -0.19242075 -0.17095973 -0.3162013 0.10979002 0.2372503
-0.0037301534 -0.27859694 -0.06739333 0.083139665 -0.038385943 -0.042742066 0.013784204 0.10136497
-0.11958901 0.13579062 -0.2616672 0.119595334 0.046510912 -0.020715961 0.4264278 -0.11508244
-0.14733057 -0.011754617 -0.1796893 -0.3159304 0.43363 0.43666914 -0.19158827 -0.054518096
-0.09736063 0.4874383 -0.37607738 -0.39527842 0.088497594 -0.18822135 0.02740618 -0.29077128
0.52929044 -0.116915695 0.16042241 -0.14077967 0.14453621 0.36983025 -0.27320588 -0.25008714
-0.06698798 0.18208168 -0.17142817 0.007916303 -0.21963108 -0.1413943 0.09882498 -0.43914244
0.2960142 -0.36041424 -0.23705176 -0.02691766 -0.3285295 0.058221947 -0.16767088 0.16282699
0.012398621 -0.0491418 0.088315725 -0.17120126 -0.099584825 -0.03120209 -0.035091553 -0.19326915
0.021277163 0.17010778 -0.09578397 -0.051053986 0.06513511 -0.06707134 -0.0541518 0.36634117
-0.4365692 -0.39561576 0.030314839 0.14680357 0.16503526 -0.24626704 0.0011743088 -0.23933043
0.033321526 -0.10712444 0.02727707 0.033911634 0.029252416 0.0026994278 -0.04933167 0.20888883
-0.03326099 -0.11272612 -0.33128724 -0.05491123 0.23725869 -0.011210608 -0.008888542 -0.28291708
-0.051620033 -0.14014506 0.099585734 -0.5094916 -0.2683427 0.2678923 0.23087552 -0.1623149
-0.20368053 -0.3030719 -0.18208127 -0.28799957 -0.13623236 -0.109116726 0.2854359 -0.1313008
-0.07851881 0.13495281 -0.17916392 -0.022113334 -0.35276487 0.3672162 0.09162958 0.31963658
-0.29363868 0.11413859 -0.20840202 0.062068157 0.2648108 0.31420597 0.22882533 -0.24403474
0.17094427 0.14320616 -0.14799951 0.23960519 0.03267389 0.15459044 0.4240432 0.040748846
0.057967864 0.00590376 -0.08623534 -0.0059506195 0.25200027 0.032973517 -0.103661165 -0.1534565
0.1423672 0.3106251 0.1924786 -0.08433074 0.038761593 -0.17236407 0.11157263 0.071418755
0.08445656 0.112177804 0.1503948 -0.19610946 0.07082707 -0.3071073 -0.10913401 0.07698374
-0.23723105 0.3676051 0.14681591 0.16388777 -0.22094898 -0.017461093 0.016462207 0.04980524
-0.038626548 0.032238394 0.010020561 0.20039728 0.13567233 0.15672602 -0.009863618 0.13182719
0.08740873 0.0071500754 -0.071038805 0.040126957 -0.008155178 -0.3145254 0.6991897 -0.023481106
0.12983406 0.36060625 0.37805152 0.19384208 -0.447627 -0.059213966 0.52778584 -0.09985139
00000000: a086 c0bd 9dc6 a8be 4602 903e b4b8 33be
00000010: 2ea5 90be ce8d efbd b449 bebe 7326 933e
00000020: feb2 533e 7654 f73e 1d9c 673e 0d36 86bd
00000030: 2d9c 893e d106 2ebe 4423 35ba 280b 00bc
00000040: c157 2f3e a560 143b 64c6 74be cf47 373e
00000050: 7c7f 75be 1d80 e0bd 4c86 ad3e 64d1 3fbe
00000060: a2a9 ab3e 4e27 b93d 01b5 143e 3baf 193f
00000070: 3bb9 61bd 7382 22be 4b48 81be 8556 efbd
00000080: ca8b 173e 4aed da3e 4314 723e 856e 133e
00000090: 8d52 7c3e 17d2 81bd 529b 8d3e fd47 d3be
000000a0: 55fd b13c 3a7f 00bd e223 183e 5957 af3d
000000b0: d400 97bc 21a1 a93c 1831 53be f5b4 1a3e
000000c0: b268 6abe 025c 37bd 58b6 c4bd ea08 dfbc
000000d0: 9d5b 65bb 242e 9dbd acc8 2f3d 25e3 653e
000000e0: 37b0 b1be 8718 4a3d c5bc 5ebe f209 45be
000000f0: 1110 2fbe 23e5 a1be 97d9 e03d bef1 723e
00000100: 9775 74bb 42a4 8ebe 8405 8abd 2145 aa3d
00000110: 943a 1dbd 4e12 2fbd 24d7 613c 7098 cf3d
00000120: 15eb f4bd b20c 0b3e 3ef9 85be 66ee f43d
00000130: 3a82 3e3d 85b4 a9bc bf54 da3e 58b0 ebbd
00000140: d3dd 16be 7096 40bc 7900 38be a1c1 a1be
00000150: c004 de3e 1993 df3e b72f 44be 5e4e 5fbd
00000160: 0365 c7bd 8391 f93e 378d c0be ef61 cabe
00000170: 3a3e b53d 19bd 40be ed82 e03c f9df 94be
00000180: 947f 073f 7f71 efbd c645 243e 8c28 10be
00000190: 4d01 143e 645a bd3e a4e1 8bbe 6c0b 80be
000001a0: fe30 89bd 9f73 3a3e de8a 2fbe 62b3 013c
000001b0: f8e6 60be abc9 10be c064 ca3d 47d7 e0be
000001c0: 2c8f 973e 3788 b8be b2bd 72be 6d82 dcbc
000001d0: 0535 a8be 237a 6e3d eab1 2bbe 1ebc 263e
000001e0: 9623 4b3c e948 49bd e0de b43d 624f 2fbe
000001f0: 21f3 cbbd 879b ffbc 29bc 0fbd 59e8 45be
00000200: 724d ae3c bc30 2e3e 632a c4bd fc1d 51bd
00000210: 8e65 853d b35c 89bd 47ce 5dbd 1291 bb3e
00000220: 0086 dfbe 268e cabe d356 f83c ad53 163e
00000230: 01ff 283e 6d2d 7cbe 44eb 993a 0913 75be
00000240: 277c 083d 0f64 dbbd 2974 df3c ede6 0a3d
00000250: c3a2 ef3c e2e8 303b 0110 4abd f4e6 553e
00000260: ad3c 08bd f4dc e6bd 7b9e a9be 99ea 60bd
00000270: f1f3 723e b3ac 37bc 3fa1 11bc 82da 90be
00000280: 876f 53bd 3082 0fbe 9bf3 cb3d 0b6e 02bf
00000290: 3764 89be 2e29 893e a26a 6c3e e135 26be
000002a0: a191 50be 3d2c 9bbe 8373 3abe ae74 93be
000002b0: 7f80 0bbe 9778 dfbd a724 923e b873 06be
000002c0: 78ce a0bd 1231 0a3e bf76 37be 0627 b5bc
000002d0: 999d b4be c303 bc3e 4aa8 bb3d 68a7 a33e
000002e0: cf57 96be 7ec1 e93d 5767 55be 2e3b 7e3d
000002f0: 4895 873e 9bdf a03e 3051 6a3e 3ee4 79be
00000300: 040c 2f3e a3a4 123e 2f8d 17be 105b 753e
00000310: 0fd5 053d f54c 1e3e 311c d93e 43e8 263d
00000320: b66f 6d3d 5474 c13b 279c b0bd 6afd c2bb
00000330: 2e06 813e 3d0f 073d 4e4c d4bd b323 1dbe
00000340: b5c8 113e 410a 9f3e 1c19 453e 98b5 acbd
00000350: 7ac4 1e3d 3580 30be 3180 e43d ff43 923d
00000360: 90f7 ac3d 7abd e53d 1801 1a3e ebd0 48be
00000370: c80d 913d 2b3d 9dbe a781 dfbd a7a9 9d3d
00000380: b2ec 72be bc36 bc3e e956 163e 32d2 273e
00000390: 7340 62be 910a 8fbc c0db 863c 9400 4c3d
000003a0: df36 1ebd 680c 043d 472d 243c f234 4d3e
000003b0: b0ed 0a3e c97c 203e 039b 21bc b5fd 063e
000003c0: 5903 b33d 2e4b ea3b cb7c 91bd 2a5c 243d
000003d0: 4c9d 05bc 7909 a1be 19fe 323f 735b c0bc
000003e0: 38f3 043e 62a1 b83e f88f c13e 8a7e 463e
000003f0: 5e2f e5be 588a 72bd f91c 073f e37e ccbd

policy_head.linear_1.bias f4 [256]
0.2909537 -0.3620299 0.22121333 0.4374907 0.24031949 -0.36576188 0.38086006 0.012813483
0.34341234 0.29162136 -0.21519706 0.18639958 -0.05016347 -0.015494122 -0.31768748 0.3144632
0.093654715 0.07905037 -0.2981354 -0.00014062852 0.36245817 -0.10729011 0.090981945 -0.31440347
0.11997591 -0.23640966 0.27529168 -0.007421892 0.366111 0.0577658 0.10196805 -0.18700129
-0.54016817 -0.21834695 -0.44344106 -0.18891996 0.14611445 0.08328172 -0.38171786 -0.07242738
-0.24445122 -0.46867433 -0.38104668 -0.1060761 0.21098311 0.4827856 -0.1643051 0.08420955
-0.13819048 0.1088642 0.30254 -0.11014498 0.1627534 0.12707902 0.0012244857 -0.13528901
-0.1058373 0.33342442 -0.17403433 0.06420651 -0.11571685 0.31427625 -0.25140223 -0.20872635
-0.052685317 0.050444294 0.14975557 -0.33916032 -0.036404833 -0.48533937 0.24715218 -0.46900725
-0.25543275 0.39897317 -0.40780583 -0.19850726 0.19224817 -0.5617171 0.14475735 0.10291201
-0.17016055 -0.008532052 0.18993062 -0.16133182 -0.37070122 0.27379104 -0.17638372 -0.3200696
-0.14304565 -0.24547172 -0.13139676 -0.24264614 0.40066403 0.06619921 -0.28408 0.13995568
0.11265506 -0.37739345 0.082440704 0.15397616 0.27398854 0.022447996 -0.024011012 0.07068006
0.37096426 -0.21983509 0.08230102 -0.12211 -0.13180286 0.062111616 -0.037439644 0.10109147
0.096778855 -0.022154594 0.020835757 0.14264885 -0.013271455 -0.0793822 -0.24350433 0.22953919
-0.32435903 0.2671242 -0.19053032 0.25535744 0.09355857 0.109095305 0.16589491 -0.16417967
-0.07256039 -0.13709655 -0.22779305 0.2581902 0.009612419 0.12790023 0.33308613 0.041912224
0.10216074 0.21287623 -0.47993192 0.0940978 -0.114644706 0.1222102 0.3010787 -0.057714798
-0.20346758 -0.12807412 -0.25922257 -0.06293318 -0.27047166 0.0502445 0.37323913 -0.13520636
0.13334154 0.26420337 0.16888717 -0.17711422 0.21475814 0.04953654 -0.10587555 -0.0981835
-0.07795427 0.14041957 0.05429623 -0.22637308 0.27323976 -0.2896086 0.41649833 -0.013266691
0.40075782 -0.1717403 -0.46496502 0.017274486 0.07245231 0.11414662 -0.34353352 -0.38740572
-0.07145486 -0.10837523 0.19456756 0.037265446 -0.019762984 0.0954231 0.1308023 0.52268696
0.20704891 -0.3640476 0.14244547 0.16152 -0.20460074 -0.19041337 0.1506913 -0.20025124
-0.5024678 -0.31646955 0.049983166 0.2833693 0.09772864 -0.05102807 0.3742838 -0.07522234
0.49985784 0.07347505 0.29293856 0.32441103 -0.20973352 -0.048542086 -0.28069934 -0.029121889
-0.025905402 0.054178815 -0.24699113 0.21044198 0.3706106 -0.3164588 -0.18070963 0.31577224
-0.10658944 -0.26481694 -0.14768621 0.17178975 -0.024543205 0.11869737 0.26221004 -0.42506102
0.48294646 -0.23535226 0.12943979 -0.028906344 0.17063357 0.0029849345 0.28600135 0.35162956
-0.15992676 0.34783068 -0.083876625 -0.14569399 -0.028618667 -0.015149336 -0.068095535 -0.22431026
0.3569734 0.2851515 -0.45314407 -0.027155451 -0.1038991 -0.06579383 0.1367618 -0.12031278
-0.18315361 0.2332213 0.1190628 -0.18115251 -0.087996565 0.22854826 0.06364721 -0.059084743
00000000: e2f7 943e fc5b b9be bf85 623e c8fe df3e
00000010: 5016 763e 2445 bbbe 1700 c33e a5ef 513c
00000020: bed3 af3e 654f 953e 9e5c 5cbe 88df 3e3e
00000030: 3678 4dbd 0fdb 7dbc efa7 a2be 5201 a13e
00000040: 0bce bf3d 29e5 a13d 34a5 98be ae75 13b9
00000050: 1e94 b93e ebba dbbd be54 ba3d 7ef9 a0be
00000060: eeb5 f53d 6015 72be 08f3 8c3e 5833 f3bb
00000070: e772 bb3e d59b 6c3d a0d4 d03d 447d 3fbe
00000080: 7648 0abf 5896 5fbe b50a e3be 3c74 41be
00000090: 079f 153e 9b8f aa3d 8670 c3be ce54 94bd
000000a0: 6c51 7abe 15f6 efbe 8d18 c3be 6d3e d9bd
000000b0: f50b 583e ad2f f73e 993f 28be 0e76 ac3d
000000c0: ce81 0dbe 32f4 de3d 86e6 9a3e b193 e1bd
000000d0: d4a8 263e 0121 023e ec7e a03a 3489 0abe
000000e0: 3ac1 d8bd 9bb6 aa3e 0e36 32be b47e 833d
000000f0: f5fc ecbd d1e8 a03e cbb7 80be 5cbc 55be
00000100: 8fcc 57bd ad9e 4e3d 8659 193e 6ca6 adbe
00000110: 3c1d 15bd 677e f8be 7615 7d3e b821 f0be
00000120: 15c8 82be 3646 cc3e edcb d0be 7d45 4bbe
00000130: b4dc 443e b1cc 0fbf 453b 143e 88c3 d23d
00000140: 913e 2ebe 05ca 0bbc 2c7d 423e 2b34 25be
00000150: 8dcc bdbe 572e 8c3e ef9d 34be 2ae0 a3be
00000160: 8f7a 12be f05c 7bbe df8c 06be 3b78 78be
00000170: d623 cd3e 7493 873d ef72 91be 8b50 0f3e
00000180: b2b7 e63d b739 c1be acd6 a83d edab 1d3e
00000190: 3a48 8c3e dce4 b73c beb2 c4bc b5c0 903d
000001a0: 07ef bd3e 731c 61be 708d a83d cf14 fabd
000001b0: 54f7 06be c068 7e3d 505a 19bd 0b09 cf3d
000001c0: fe33 c63d 8d7d b5bc c0af aa3c 8a12 123e
000001d0: 8470 59bc 2393 a2bd 3359 79be 520c 6b3e
000001e0: 6312 a6be 81c4 883e 611a 43be 36be 823e
000001f0: a39b bf3d 5c6d df3d 5be0 293e b71e 28be
00000200: 8b9a 94bd 0a63 0cbe 9542 69be 8231 843e
00000210: 687d 1d3c 47f8 023e 448a aa3e 27ac 2b3d
00000220: a639 d13d 3afc 593e a3b9 f5be 59b6 c03d
00000230: d8ca eabd 5749 fa3d fd26 9a3e 5a66 6cbd
00000240: ce59 50be dd25 03be d2b8 84be 1ce3 80bd
00000250: 437b 8abe 2dcd 4d3d 3319 bf3e 8973 0abe
00000260: af8a 083e aa45 873e c2f0 2c3e 6e5d 35be
00000270: 8fe9 5b3e d4e6 4a3d 48d5 d8bd 6e14 c9bd
00000280: 7da6 9fbd 26ca 0f3e b965 5e3d 58ce 67be
00000290: 15e6 8b3e 9447 94be 453f d53e 895c 59bc
000002a0: 2130 cd3e b0dc 2fbe e50f eebe 3983 8d3c
000002b0: e061 943d b4c5 e93d a0e3 afbe 0b5a c6be
000002c0: ed56 92bd d5f3 ddbd b83c 473e a7a3 183d
000002d0: fbe5 a1bc 306d c33d 0af1 053e d0ce 053f
000002e0: a104 543e 7264 babe 3add 113e 8065 253e
000002f0: db82 51be b9fb 42be d24e 1a3e a90e 4dbe
00000300: bba1 00bf 4c08 a2be 26bb 4c3d c815 913e
00000310: f425 c83d cf02 51bd 20a2 bf3e 2c0e 9abd
00000320: 5eed ff3e 167a 963d 0bfc 953e 3419 a63e
00000330: 62c4 56be 11d4 46bd d3b7 8fbe 0791 eebc
00000340: 9137 d4bc 9bea 5d3d 3eeb 7cbe 1a7e 573e
00000350: acc0 bd3e e306 a2be f20b 39be e6ac a13e
00000360: 904b dabd 1696 87be 0e3b 17be a7e9 2f3e
00000370: d50e c9bc 9b17 f33d 6540 863e 99a1 d9be
00000380: c244 f73e 2f00 71be dd8b 043e ffcc ecbc
00000390: 91ba 2e3e e49e 433b c56e 923e ca08 b43e
000003a0: d7c3 23be dd16 b23e 82c7 abbd ce30 15be
000003b0: b271 eabc ec34 78bc ac75 8bbd 97b1 65be
000003c0: 38c5 b63e 61ff 913e 8002 e8be 1c75 debc
000003d0: 0dc9 d4bd eabe 86bd 490b 0c3e 8c66 f6bd
000003e0: 9f8c 3bbe 91d1 6e3e 33d7 f33d 0b80 39be
000003f0: 8b37 b4bd 8e08 6a3e 7859 823d d802 72bd

policy_head.pos_embed.weight f4 [256, 1]
0.17833775 0.3115939 0.037278716 -0.37813005 -0.34319407 0.09686034 -0.28353754 0.1413197
-0.18433215 0.3278843 -0.44490102 0.20706002 0.50426215 0.44460484 -0.02718988 0.1373364
-0.55061114 -0.22519897 0.11839254 0.3193391 -0.38280657 -0.45686448 0.51386523 0.2794572
0.3235696 0.077097274 -0.04431126 0.13715675 0.16184767 0.06875722 -0.3635975 -0.052055217
0.24563646 0.43443218 0.3798714 -0.2801435 -0.0068051973 0.3907465 0.12909175 -0.101198226
0.28081864 0.27426672 0.22603111 0.4917447 0.16361083 -0.09961267 -0.30682263 -0.29640138
-0.04950993 0.44809958 -0.665392 -0.14407042 0.4152683 0.16146806 -0.20579179 0.42917332
0.22257689 -0.084370315 0.14737952 0.51331955 0.4383642 0.28989094 0.41897848 -0.04254859
0.20567122 0.38389456 0.41135475 0.5284652 -0.25863382 0.42030334 -0.5570683 0.21206614
0.28315744 -0.108466476 0.2800229 0.19920902 0.124329686 0.51472294 0.44691247 0.25844368
-0.42345798 -0.42318717 0.02944462 -0.17618555 0.17682762 0.30589545 -0.27494365 0.011774316
-0.021195536 0.2716154 0.5605986 0.006696149 -0.06882029 0.27114898 0.57978725 0.38976446
0.2332235 0.0007988521 -0.26191047 0.31229973 0.09313052 0.079152636 -0.37361404 0.16475537
0.014465981 -0.08409936 0.049532007 0.1823067 0.12865613 -0.07806981 -0.14368153 -0.28548613
0.5156779 -0.2922811 0.03382269 -0.22969039 0.39049786 0.46639058 -0.10821874 -0.51756227
0.36207405 0.13500793 -0.036994454 -0.009147465 -0.62038773 0.3498666 0.18779717 0.4428364
0.038578883 -0.46127164 0.08999114 -0.33189318 0.5313246 0.30733263 -0.06797001 0.10828392
-0.35144848 -0.43285584 0.2939166 0.30851775 0.027376829 -0.017560162 -0.11859602 0.505956
0.5105643 -0.15839615 -0.31976163 -0.477793 -0.07607381 -0.16034725 -0.04911365 0.24425
0.1166736 -0.24114071 0.36565506 -0.090744145 0.21418288 0.21343726 -0.17001931 -0.08498678
-0.5642426 0.34885314 -0.41938663 0.447427 -0.05618135 0.034428567 -0.41557732 0.48225915
-0.4392778 0.73783857 0.16332468 -0.014881156 0.44222426 -0.5315232 0.100881994 0.2562632
-0.44209242 0.17483181 0.05396874 -0.040969025 0.03802568 -0.5963242 -0.20869063 -0.5247626
0.012457689 -0.17716959 -0.46799502 0.577818 -0.4995911 0.36178657 -0.017838594 0.13449652
0.5820759 0.24288797 0.10035637 -0.058109734 0.6341871 0.294789 -0.31426057 -0.21890895
-0.13155258 0.031266224 -0.19296287 -0.07014321 0.46376452 0.120647475 0.20692551 0.16166052
0.73360395 -0.27282712 0.3773057 0.15925585 -0.2922175 0.10501327 0.23268604 -0.042755343
0.0033605916 0.160901 0.24106346 0.37144172 -0.3574644 -0.008041349 -0.35542917 0.7861017
-0.12982292 0.052410398 -0.2784004 0.21728574 -0.4305235 -0.23378716 -0.30121103 -0.26552927
-0.5515674 -0.030225972 0.4149437 0.22009516 -0.3828221 0.45539933 -0.7735905 -0.41889325
-0.26447892 0.32694855 0.33057937 0.4602001 0.28432247 0.3324256 -0.0136307785 -0.060456183
0.32123074 0.34651458 -0.41373855 0.44146916 0.3703985 -0.05440807 0.31538624 0.036090877
00000000: 2c9e 363e 3c89 9f3e 91b1 183d 439a c1be
00000010: 22b7 afbe b75e c63d d52b 91be 1db6 103e
00000020: 91c1 3cbe 73e0 a73e 11ca e3be 8b07 543e
00000030: 5317 013f 3fa3 e33e 50bd debc eaa1 0c3e
00000040: daf4 0cbf 8f9a 66be ca77 f23d 6a80 a33e
00000050: 39ff c3be 24ea e9be ac8c 033f 0415 8f3e
00000060: eaaa a53e 2de5 9d3d b97f 35bd d272 0c3e
00000070: 65bb 253e 96d0 8c3d 7429 babe da37 55bd
00000080: 2088 7b3e e56d de3e 817e c23e f86e 8fbe
00000090: 22fe debb ed0f c83e a130 043e 0441 cfbd
000000a0: 76c7 8f3e b06c 8c3e b374 673e f6c5 fb3e
000000b0: 9989 273e ba01 ccbd db17 9dbe ecc1 97be
000000c0: edca 4abd 4f6d e53e 2157 2abf 3287 13be
000000d0: 0c9e d43e e257 253e 15bb 52be 9bbc db3e
000000e0: 32eb 633e 58ca acbd a8ea 163e e968 033f
000000f0: 4671 e03e 966c 943e 5984 d63e 6e47 2ebd
00000100: 7a9b 523e d48d c43e 179d d23e 7f49 073f
00000110: a76b 84be 0032 d73e 079c 0ebf de27 593e
00000120: 03fa 903e ac23 debd 295f 8f3e 73fd 4b3e
00000130: 90a0 fe3d e2c4 033f b6d1 e43e bb52 843e
00000140: 7ccf d8be fdab d8be d835 f13c fc69 34be
00000150: 4d12 353e 549e 9c3e 6ac5 8cbe 10e9 403c
00000160: 43a2 adbc 2c11 8b3e 6483 0f3f 5e6b db3b
00000170: a7f1 8cbd 0ad4 8a3e f06c 143f 358f c73e
00000180: 24d2 6e3e 0f6a 513a 2119 86be c0e5 9f3e
00000190: 37bb be3d c71a a23d 574a bfbe a2b5 283e
000001a0: b902 6d3c 493c acbd 13e2 4a3d 9cae 3a3e
000001b0: 6fbe 033e 11e3 9fbd 4021 13be 3d2b 92be
000001c0: 7803 043f dea5 95be a989 0a3d f533 6bbe
000001d0: 56ef c73e bfca ee3e c9a1 ddbd f67e 04bf
000001e0: c561 b93e 853f 0a3e 7f87 17bd 40df 15bc
000001f0: bbd1 1ebf b721 b33e e74d 403e 74bb e23e
00000200: e404 1e3d cc2b ecbe 464d b83d e7ed a9be
00000210: e404 083f b45a 9d3e dc33 8bbd f6c3 dd3d
00000220: 0ef1 b3be 489f ddbe 3d7c 963e 0af6 9d3e
00000230: 5f45 e03c 54da 8fbc 78e2 f2bd 5586 013f
00000240: 58b4 023f 9a32 22be ccb7 a3be 49a1 f4be
00000250: 96cc 9bbd 1232 24be 652b 49bd ac1c 7a3e
00000260: 92f2 ee3d 97ed 76be 2437 bb3e 11d8 b9bd
00000270: c252 5b3e 4c8f 5a3e 8b19 2ebe 8d0d aebd
00000280: 3472 10bf e19c b23e d8b9 d6be 2715 e53e
00000290: 6a1e 66bd f804 0d3d 8dc6 d4be acea f63e
000002a0: 05e9 e0be fde2 3c3f 963e 273e 18d0 73bc
000002b0: 386b e23e e811 08bf 389b ce3d ee34 833e
000002c0: f059 e2be 1c07 333e 530e 5d3d 23cf 27bd
000002d0: d1c0 1b3d b4a8 18bf ffb2 55be d756 06bf
000002e0: 561b 4c3c f26b 35be 0b9d efbe e1eb 133f
000002f0: 68ca ffbe 173c b93e 3e22 92bc 75b9 093e
00000300: ed02 153f a0b7 783e a487 cd3d 7904 6ebd
00000310: 165a 223f 95ee 963e c3e6 a0be ab29 60be
00000320: b8b5 06be 0311 003d 0f98 45be 3ea7 8fbd
00000330: 8b72 ed3e 0616 f73d 48e4 533e 568a 253e
00000340: 78cd 3b3f ffaf 8bbe 362e c13e f713 233e
00000350: 889d 95be 3311 d73d 4045 6e3e 3a20 2fbd
00000360: 5f3d 5c3b 3bc3 243e 57d9 763e 9c2d be3e
00000370: 9305 b7be ddbf 03bc d0fa b5be f63d 493f
00000380: 4df0 04be 49ac 563d 7f8a 8ebe 2780 5e3e
00000390: 946d dcbe e765 6fbe 5538 9abe 74f3 87be
000003a0: 8533 0dbf 759c f7bc 8073 d43e a060 613e
000003b0: 4201 c4be 1a2a e93e 070a 46bf 2d79 d6be
000003c0: c869 87be cd65 a73e b341 a93e 599f eb3e
000003d0: b792 913e b033 aa3e a153 5fbc e7a0 77bd
000003e0: 5b78 a43e 5c6a b13e 8ad5 d3be 3f08 e23e
000003f0: dfa4 bd3e ffda 5ebd 4e7a a13e 07d4 133d

policy_head.pos_embed.bias f4 [256]
-0.62396634 0.3486311 -0.5146766 -0.3813265 -0.035453524 0.5038978 -0.24580757 -0.09752824
-0.19823536 -0.61901104 0.5752113 -0.29058832 -0.5068049 -0.40616846 0.5431863 -0.7183532
0.30671364 0.13295624 0.5374418 -0.22599642 0.00053445826 0.6149415 -0.6503321 0.1638674
-0.7380625 0.13374153 -0.5891626 -0.024977462 -0.570298 -0.09664704 0.12207353 0.48991212
0.523019 0.09249373 0.32022873 0.5750704 -0.13786988 -0.63933706 0.4859124 0.3359132
0.31553727 0.529943 0.31157917 0.07802669 -0.64960444 -0.55544454 0.565929 0.11314383
0.2402345 -0.41596583 0.29686195 0.4586366 -0.7986912 -0.4351857 -0.010255036 -0.29504487
-0.12455782 -0.38678887 0.107402325 -0.81466097 -0.22670421 -0.6358437 -0.1320584 0.350473
-0.060406502 -0.5513474 -0.6505659 0.118489206 0.2621944 0.2932903 0.23862712 0.31574905
0.20890835 -0.476236 0.28452027 0.23132299 -0.58873934 0.25936562 -0.75607216 -0.38267997
0.5401959 0.48519337 -0.22383682 0.30173105 0.3162354 -0.45352966 0.6302761 0.4248122
0.19601215 0.040426906 -0.06406575 0.22956048 -0.5493865 -0.38473907 -0.03783526 -0.70144343
-0.3956571 0.5024001 0.24225636 -0.45848 -0.21170658 -0.09458187 0.28358048 -0.21362849
-0.5183101 0.15844788 -0.17066325 0.025969068 -0.057450462 0.12545969 0.14441885 0.17789379
-0.61634684 0.1834458 -0.088142455 0.1545577 -0.39232793 -0.48312828 0.5123209 0.27659976
0.34433898 -0.31402662 0.46231827 -0.40271506 0.5020854 -0.7606329 -0.5340901 -0.1965559
0.050675567 0.7248891 0.08622728 -0.21460582 -0.5894227 -0.62792367 -0.4625293 -0.4779244
0.03453352 0.14595611 0.38108936 -0.47360435 0.12024005 -0.15272158 -0.29207435 -0.0059337616
-0.27003986 0.5325906 0.7213023 0.4944325 0.6019738 0.18224694 -0.6129303 0.027749578
-0.58953613 -0.27012736 -0.5110218 0.12493332 -0.6879732 -0.24305107 0.39062223 -0.0018771861
0.5654002 -0.42323554 0.4376184 -0.01170727 -0.665758 0.3900306 -0.37901983 -0.5565478
-0.18820444 -0.35508266 0.48004004 0.022613844 -0.59339464 0.49730358 0.47741416 0.3500813
0.531134 0.019720925 -0.4136967 -0.22510038 -0.07579154 0.622408 -0.18413983 -0.23447832
-0.3852381 0.5494644 0.28316513 -0.82880485 0.73003376 0.06379134 -0.21668941 0.32433975
0.006439278 0.34424555 -0.076041795 -0.29617912 -0.7086235 -0.20072924 -0.3365394 0.26327962
-0.49366456 -0.057336025 -0.21041128 -0.2561806 -0.019099008 -0.10095261 0.27165362 0.099737026
-0.8828725 0.22637591 0.027705194 -0.36113632 -0.33600098 0.16835025 -0.0038910692 -0.61823523
0.4940397 0.07053436 0.21367079 -0.57477707 0.46930477 -0.18637614 0.056876138 -0.007328909
-0.56828177 0.32697362 -0.032768637 -0.49797484 0.15856875 0.3293092 -0.019909807 -0.36800218
0.7109274 -0.6570042 -0.2532833 0.23830655 0.66092676 -0.70517266 0.9572108 0.7205196
-0.49390823 -0.6464161 0.5422367 -0.29441747 -0.3809166 -0.39803606 -0.16918041 0.1857639
-0.011606719 -0.55517113 0.3149313 -0.2645442 0.07809462 -0.3175019 -0.40975845 -0.19108091
00000000: 42bc 1fbf c77f b23e d8c1 03bf 3a3d c3be
00000010: b737 11bd 72ff 003f fbb4 7bbe e3bc c7bd
00000020: 36fe 4abe 8277 1ebf 0c41 133f fec7 94be
00000030: f7bd 01bf 50f5 cfbe 420e 0b3f ffe5 37bf
00000040: 9209 9d3e ae25 083e c995 093f 9b6b 67be
00000050: e31a 0c3a ce6c 1d3f 2a7c 26bf dbcc 273e
00000060: aaf1 3cbf 8af3 083e 5cd3 16bf 899d ccbc
00000070: 0dff 11bf e2ee c5bd b001 fa3d c3d5 fa3e
00000080: 93e4 053f 5a6d bd3d 05f5 a33e d037 133f
00000090: c32d 0dbe 98ab 23bf 83c9 f83e d1fc ab3e
000000a0: 1a8e a13e 58aa 073f 4e87 9f3e 75cc 9f3d
000000b0: 7a4c 26bf 9d31 0ebf b9e0 103f f4b7 e73d
000000c0: 0800 763e 79f9 d4be 4afe 973e 6bd2 ea3e
000000d0: 0777 4cbf a9d0 debe bd04 28bc 1f10 97be
000000e0: 2c18 ffbd 3109 c6be c0f5 db3d 9f8d 50bf
000000f0: 2625 68be a7c6 22bf 513a 07be 3271 b33e
00000100: cf6c 77bd 1a25 0dbf 7d8b 26bf 78aa f23d
00000110: 583e 863e 252a 963e ab5a 743e dca9 a13e
00000120: 12ec 553e 34d5 f3be a4ac 913e efdf 6c3e
00000130: 9fb7 16bf 92cb 843e f28d 41bf a1ee c3be
00000140: 474a 0a3f 446b f83e 7b35 65be 7e7c 9a3e
00000150: 9be9 a13e 0a35 e8be c659 213f fc80 d93e
00000160: 69b7 483e af96 253d e734 83bd e711 6b3e
00000170: 98a4 0cbf 85fc c4be 25f9 1abd cc91 33bf
00000180: 9193 cabe 4b9d 003f 0d12 783e e4bd eabe
00000190: 9cc9 58be 24b4 c1bd 7631 913e 6dc1 5abe
000001a0: f9af 04bf 2940 223e 59c2 2ebe 15bd d43c
000001b0: 2d51 6bbd 8178 003e 89e2 133e ca29 363e
000001c0: e8c8 1dbf 37d9 3b3e 0884 b4bd 6044 1e3e
000001d0: 35df c8be 975c f7be 7627 033f 7c9e 8d3e
000001e0: 334d b03e 19c8 a0be fbb4 ec3e ab30 cebe
000001f0: ab88 003f d6b8 42bf 21ba 08bf f345 49be
00000200: 2f91 4f3d 5592 393f ee97 b03d a1c1 5bbe
00000210: 68e4 16bf 9bbf 20bf a4d0 ecbe 82b2 f4be
00000220: 0573 0d3d 8575 153e 251e c33e 457c f2be
00000230: 6a40 f63d 0c63 1cbe c58a 95be 0070 c2bb
00000240: aa42 8abe dc57 083f 44a7 383f 4226 fd3e
00000250: f41a 1a3f f19e 3a3e 00e9 1cbf 1553 e33c
00000260: d7eb 16bf 224e 8abe 53d2 02bf 0add ff3d
00000270: 031f 30bf 61e2 78be a3ff c73e ea0b f6ba
00000280: 11be 103f 54b2 d8be 850f e03e d9cf 3fbc
00000290: 1e6f 2abf 17b2 c73e e30e c2be eb79 0ebf
000002a0: aab8 40be 65cd b5be cfc7 f53e ab40 b93c
000002b0: b6e8 17bf 939e fe3e a16f f43e db3d b33e
000002c0: 66f8 073f c78d a13c 0ed0 d3be b780 66be
000002d0: 9838 9bbd 2156 1f3f 278f 3cbe 161b 70be
000002e0: ee3d c5be b3a9 0c3f 05fb 903e 8e2c 54bf
000002f0: 7ee3 3a3f 09a5 823d d4e3 5dbe dc0f a63e
00000300: 9400 d33b f440 b03e cdbb 9bbd caa4 97be
00000310: 5a68 35bf f78b 4dbe e44e acbe 96cc 863e
00000320: 9ac1 fcbe 2ed9 6abd 0e76 57be 1b2a 83be
00000330: 8675 9cbc 3ec0 cebd 2f16 8b3e ed42 cc3d
00000340: ef03 62bf 16cf 673e 01f6 e23c dce6 b8be
00000350: 5208 acbe 0264 2c3e 4f01 7fbb aa44 1ebf
00000360: c6f2 fc3e 5274 903d 84cc 5a3e 9724 13bf
00000370: b748 f03e 63d9 3ebe f4f6 683d 5827 f0bb
00000380: ea7a 11bf 1669 a73e 6838 06bd 8ff6 febe
00000390: d95f 223e 379b a83e e419 a3bc c86a bcbe
000003a0: 57ff 353f 6d31 28bf 59ae 81be a206 743e
000003b0: 7f32 293f 3286 34bf c40b 753f f973 383f
000003c0: 8ae1 fcbe 877b 25bf 06d0 0a3f e3bd 96be
000003d0: 8007 c3be 62cb cbbe a13d 2dbe e438 3e3e
000003e0: 1c2a 3ebc b21f 0ebf ad3e a13e 5672 87be
000003f0: 12f0 9f3d 9c8f a2be dccb d1be b7aa 43be

policy_head.linear_2.weight f4 [81, 256]
-0.00026757884 -0.06225765 -0.074046984 0.0028624325 -0.0049327393 -0.035144076 -0.0024759506 -0.03630473
-0.04581624 -0.0748322 0.03500763 0.00815719 -0.025999451 -0.027067225 -0.08150574 -0.005399759
0.0009002283 -0.016604647 0.015477661 -0.06474342 -0.026419414 -0.043615382 0.034606285 0.012046699
-0.041493174 -0.004388959 -0.045410786 -0.015898025 -0.06589984 -0.058912445 -0.052248273 -0.009461682
-0.0648377 0.020817405 -0.03901288 -0.0017204755 -0.0005850289 -0.049192462 -0.02146159 0.03463512
-0.027156947 -0.050993863 0.0026896677 -0.07977255 0.006873271 0.005752488 0.0010383369 0.011642963
-0.05226437 -0.004496419 -0.081940584 -0.00071656634 0.025129408 -0.05785039 0.03304664 0.016894398
-0.02356628 -0.03357925 -0.042009108 -0.078670785 -0.029976921 -0.025667362 -0.0155557105 -0.08920897
-0.030269437 -0.07617376 -0.0046403403 0.010251217 -0.06645594 -0.017919954 -0.038084973 -0.0657393
-0.052806977 -0.01680571 0.029770194 -0.042699967 -0.0855585 -0.06643274 0.020669699 -0.07935786
-0.01090427 -0.029535389 -0.0020532662 -0.08055696 -0.03718455 0.008415341 -0.018084869 -0.07877163
-0.01877512 -0.04875898 0.025895981 -0.0030352452 -0.069787875 -0.032023545 -0.048280492 -0.037805907
0.028434195 0.0061628954 -0.084005214 0.011968882 0.006066265 0.016895354 -0.10378021 -0.0168557
-0.072201595 -0.022291897 -0.051071353 -0.007360229 0.00042855815 -0.03997429 -0.043198023 -0.016644258
0.017733555 -0.031222071 -0.027613537 -0.054802474 -0.060219273 -0.05657525 -0.060282856 -0.0017690385
-0.0012990698 -0.02321986 0.009662654 -0.011827884 -0.09545318 0.0015237834 0.017056892 -0.04687683
0.007911823 -0.035317898 -0.031811416 -0.07536555 0.0115929805 -0.062089052 0.013213228 -0.0036556646
-0.0024978982 -0.008204285 -0.060585603 -0.07551317 0.002771305 0.012491732 -0.043689556 0.00762062
-0.011343335 -0.015012717 0.017404197 -0.07416979 -0.056095812 -0.058792997 0.023872979 0.032363564
-0.041465614 -0.104015164 -0.09275014 0.018706607 -0.03260549 -0.048996504 -0.09045778 -0.06697287
0.039437953 -0.034430932 -0.029639542 0.01307328 0.031736895 -0.029206505 -0.075695045 0.0012495009
-0.036616586 -0.072134085 0.02672187 -0.00993398 -0.088694006 -0.053059414 0.008134542 -0.112917766
0.027283518 0.0288627 -0.06931741 -0.07442834 -0.08705406 -0.09254046 0.025179313 0.020165317
-0.07001546 -0.010410693 -0.022062687 -0.005859172 -0.03144188 -0.03265617 -0.067820884 -0.03677311
0.03256493 0.025846597 -0.08682231 0.018367851 0.0023462593 -0.0075496896 -0.052668184 -0.012246882
-0.0017879936 -0.059381776 -0.07103752 -0.038302545 0.014693876 0.005032757 -0.09435722 -0.031938575
-0.0013762444 0.028470445 0.019366167 -0.03753165 -0.082657285 -0.056909308 0.038034372 0.018443651
-0.06107919 -0.08333219 -0.098552816 -0.011181259 -0.066305526 -0.038429234 -0.021130573 -0.08723078
0.008167696 -0.029823137 -0.061921407 -0.08626602 -0.023822475 -0.080839455 -0.017577449 0.0073661963
-0.015418643 -0.03514146 -0.0070875646 0.0014277033 -0.014193182 -0.08713099 0.017826417 0.014012813
0.007100544 -0.06262101 -0.047194585 -0.061711196 -0.09468974 -0.025523033 -0.030354623 -0.036066763
-0.07900232 -0.053734183 0.022116937 -0.08630068 0.0047555943 -0.06546675 -0.09001373 -0.044710916
00000000: d349 8cb9 e101 7fbd f2a5 97bd a697 3b3b
00000010: d1a2 a1bb 3cf3 0fbd 8f43 22bb 45b4 14bd
00000020: cfa9 3bbd a041 99bd 2964 0f3d bca5 053c
00000030: cdfc d4bc 16bc ddbc 7bec a6bd 76f0 b0bb
00000040: 4cfd 6b3a 7806 88bc 0496 7d3c 3398 84bd
00000050: 876d d8bc 0ba6 32bd 52bf 0d3d 855f 453c
00000060: bff4 29bd 42d1 8fbb a900 3abd 933c 82bc
00000070: 7ff6 86bd 2d4e 71bd 4902 56bd 2c05 1bbc
00000080: a1c9 84bd 4389 aa3c f8cb 1fbd 9481 e1ba
00000090: a05c 19ba 097e 49bd 37d0 afbc 8edd 0d3d
000000a0: 3f78 debc f1de 50bd 2345 303b ca5f a3bd
000000b0: 2d39 e13b 5e7f bc3b ce18 883a 20c2 3e3c
000000c0: 2a13 56bd b256 93bb 77d0 a7bd f4d7 3bba
000000d0: 30dc cd3c 88f4 6cbd ea5b 073d 1f66 8a3c
000000e0: 120e c1bc 658a 09bd be11 2cbd 261e a1bd
000000f0: 2992 f5bc 5c44 d2bc 61dd 7ebc 31b3 b6bd
00000100: 9cf7 f7bc fd00 9cbd ff0d 98bb b8f4 273c
00000110: 0d1a 88bd decc 92bc fdfe 1bbd 53a2 86bd
00000120: 214c 58bd 21ac 89bc 9fe0 f33c 29e6 2ebd
00000130: 4b39 afbd e30d 88bd 8053 a93c 6086 a2bd
00000140: d3a7 32bc 33f4 f1bc 1790 06bb 0cfb a4bd
00000150: d44e 18bd 80e0 093c b826 94bc 0553 a1bd
00000160: 48ce 99bc 7fb7 47bd cf23 d43c f7ea 46bb
00000170: f2ec 8ebd 1f2b 03bd c4c1 45bd 5eda 1abd
00000180: d4ee e83c 1df2 c93b ed0a acbd 2119 443c
00000190: 85c7 c63b 2068 8a3c b88a d4bd f714 8abc
000001a0: 6ede 93bd 7f9d b6bc 3230 51bd 132e f1bb
000001b0: 1ab0 e039 15bc 23bd 69f0 30bd 8a59 88bc
000001c0: f645 913c 6ec5 ffbc c935 e2bc 8f78 60bd
000001d0: 7ca8 76bd 73bb 67bd 28eb 76bd 15df e7ba
000001e0: 8d45 aaba 9337 bebc 1c50 1e3c bec9 41bc
000001f0: f57c c3bd b0b9 c73a e5ba 8b3c eb01 40bd
00000200: 97a0 013c 80a9 10bd b04c 02bd 4159 9abd
00000210: 7cf0 3d3c 1751 7ebd 4c7c 583c e093 6fbb
00000220: c7b3 23bb 446b 06bc 9c28 78bd a6a6 9abd
00000230: c89e 353b 1faa 4c3c d2f3 32bd 65b6 f93b
00000240: 65d9 39bc e6f7 75bc 3f93 8e3c 55e6 97bd
00000250: b9c4 65bd edd0 70bd 4491 c33c a88f 043d
00000260: d9d7 29bd e705 d5bd c9f3 bdbd 993e 993c
00000270: 568d 05bd 8fb0 48bd ee41 b9bd 1229 89bd
00000280: b189 213d 7307 0dbd a0ce f2bc 5031 563c
00000290: 8cfe 013d 7b42 efbc 0106 9bbd 4bc6 a33a
000002a0: 46fb 15bd 09bb 93bd d3e7 da3c 22c2 22bc
000002b0: 34a5 b5bd d454 59bd be46 053c 6e41 e7bd
000002c0: af81 df3c 7871 ec3c 49f6 8dbd e36d 98bd
000002d0: 6649 b2bd da85 bdbd d944 ce3c bc31 a53c
000002e0: 4464 8fbd 9c91 2abc cfbc b4bc 4cfe bfbb
000002f0: 33c9 00bd 7ac2 05bd ade5 8abd 679f 16bd
00000300: ce62 053d 3ebc d33c e5cf b1bd 2d78 963c
00000310: b3c3 193b 6363 f7bb 98ba 57bd 25a7 48bc
00000320: 1c5b eaba 4e3a 73bd 1f7c 91bd 21e3 1cbd
00000330: 95be 703c d3e9 a43b 5c3e c1bd 06d2 02bd
00000340: 1963 b4ba da3a e93c cca5 9e3c caba 19bd
00000350: 3948 a9bd bc19 69bd eec9 1b3d 2417 973c
00000360: 2c2e 7abd 11aa aabd 0fd6 c9bd 9931 37bc
00000370: 31cb 87bd f967 1dbd 061a adbc 0da6 b2bd
00000380: cdd1 053c a74f f4bc 4da1 7dbd 3dac b0bd
00000390: 5a27 c3bc 288f a5bd 95fe 8fbc 2260 f13b
000003a0: 7a9e 7cbc 7ef0 0fbd cd3e e8bb c621 bb3a
000003b0: 858a 68bc bc71 b2bd b508 923c ff95 653c
000003c0: aeab e83b 723f 80bd 1c4f 41bd e1c4 7cbd
000003d0: b2ec c1bd ae15 d1bc 42aa f8bc beba 13bd
000003e0: f8cb a1bd 6018 5cbd 942e b53c 69be b0bd
000003f0: d1d4 9b3b 6e13 86bd 1e59 b8bd cb22 37bd

policy_head.linear_2.bias f4 [81]
0.0206807 0.004207296 0.065081865 -0.069094434 -0.017454563 0.055380527 0.010427634 0.0025231328
0.06346687 -0.05108181 -0.028380932 -0.044739187 0.027835546 0.0014835682 -0.046844874 -0.028074259
0.044631768 0.0032270811 0.035312064 0.0044084387 -0.047354527 -0.087548085 0.015491234 0.056558345
-0.030744292 -0.017731557 0.011062181 -0.024238743 0.053927198 -0.07122439 0.0010352102 0.0030260151
-0.017506393 -0.0010054084 0.052788995 -0.05024571 -0.0779364 0.028798347 0.03201584 -0.04030503
0.017437411 -0.028899161 -0.03711112 0.0011352326 0.07767382 0.037343472 0.059398133 0.023346536
0.006424997 0.0033115456 0.08851471 2.7623294e-06 0.014545798 0.03752505 -0.0365919 -0.05437207
0.028914157 -0.027043799 0.04705598 0.0458258 0.02735886 0.0036066717 0.047600873 -0.001252864
-0.025219012 0.056118652 0.05421762 0.060766783 0.03483911 0.050556637 -0.03062586 0.047103804
-0.03004776 0.059111334 0.054774676 0.045046743 0.03485075 0.033444908 -0.035473984 0.052441657
0.061878026
00000000: 926a a93c 5bdd 893b a449 853d 6281 8dbd
00000010: dffc 8ebc b1d6 623d abd8 2a3c 255b 253b
00000020: ebfa 813d 293b 51bd 217f e8bc 7040 37bd
00000030: 5f07 e43c 4a74 c23a 69e0 3fbd fdfb e5bc
00000040: cdcf 363d 707d 533b 62a3 103d aa74 903b
00000050: d2f6 41bd 694c b3bd f2ce 7d3c b9a9 673d
00000060: 74db fbbc c541 91bc 263e 353c 5490 c6bc
00000070: c4e2 5c3d 18de 91bd e4af 873a 1c50 463b
00000080: 9169 8fbc e8c7 83ba 4639 583d 72ce 4dbd
00000090: 1f9d 9fbd 83ea eb3c 0b23 033d e316 25bd
000000a0: e7d8 8e3c efbd ecbc d401 18bd 16cc 943a
000000b0: 7413 9f3d 78f5 183d 754b 733d 3c41 bf3c
000000c0: c888 d23b 8406 593b 3347 b53d 7560 3936
000000d0: 8051 6e3c deb3 193d 63e1 15bd 3fb5 5ebd
000000e0: 62dd ec3c f58a ddbc c5bd 403d d6b3 3b3d
000000f0: b01f e03c e95d 6c3b 22f9 423d 2437 a4ba
00000100: 1a98 cebc acdc 653d 4c13 5e3d 97e6 783d
00000110: 74b3 0e3d 7a14 4f3d 15e3 fabc ebef 403d
00000120: b826 f6bc ba1e 723d 695b 603d ef82 383d
00000130: a9bf 0e3d 87fd 083d 2b4d 11bd 10cd 563d
00000140: d073 7d3d

value_head.in_linear.weight f4 [512, 256]
0.022177272 0.06003984 0.037059978 0.00057599694 -0.02572269 -0.041095518 0.022942893 -0.038993433
0.02041468 -0.006947629 -0.019851223 0.04749149 0.05551806 -0.005028002 -0.019226357 -0.022716485
-0.0067779943 0.00029149652 -0.04650733 -0.02854491 0.04135284 0.016327493 0.05225043 -0.0060208365
-0.014744416 -0.030239947 0.047605373 0.032165468 -0.044354476 -0.028964944 -0.02465266 -0.0061403513
-0.017142989 0.004859127 0.0308633 0.040868185 -0.04684809 0.031073883 0.038069353 0.01054208
-0.0045644417 -0.019201256 -0.033003747 0.02771762 -0.013319097 0.022651047 0.03138078 -0.041388154
0.050772525 -0.036235504 0.03540816 0.023133598 -0.032795407 -0.01981835 -0.024791062 0.029721014
-0.009564757 -0.00011251867 0.021508455 0.051519334 0.004568346 0.0057953447 -0.031234637 0.0054851994
-0.05909232 -0.033688203 -0.062262245 0.02917958 0.0183305 -0.04889913 0.03288655 -0.052363403
-0.013337448 -0.054562725 -0.05972004 0.053009808 0.012042835 -0.042319454 -0.053826936 0.05195979
-0.051881522 -0.052045666 0.025245056 -0.010164231 -0.043153696 -0.062493898 -0.040521942 -0.00037650764
0.0012245774 0.017053947 0.061560936 0.013176911 0.054919258 0.018748358 0.035129428 -0.025057025
-0.005172357 -0.0016346201 -0.03835901 -0.043213286 -0.013883837 0.028550848 0.029436238 0.005471945
-0.048167065 0.049174502 0.054358095 0.011466019 0.02895306 -0.040614627 0.00761541 -0.005655147
-0.02848804 0.06074255 -0.043008134 -0.00075499713 0.021202452 -0.030873418 0.041939877 0.026733987
0.0113988 0.025646396 -0.015831895 -0.019213505 -0.0507612 0.048662588 -0.046727657 -0.04716111
0.016214453 0.023505196 0.02157481 0.024880372 -0.013677105 -0.04639613 0.034602642 0.022552095
-0.0027162284 -0.011562794 0.047149673 -0.0053882375 0.04812178 0.028929822 -0.060148016 0.04266735
0.05416108 0.022729099 0.03310599 0.060885794 0.05233527 -0.0036055893 -0.030791163 0.00991828
-0.029494256 0.0054775625 0.055260934 0.03581413 -0.02609995 0.019994952 0.023377113 -0.051769324
0.03433484 0.024314225 0.04407298 0.04737682 0.030051991 0.0149958655 -0.010413691 -0.008343503
-0.04258895 -0.024889134 -0.015809499 0.048450164 -0.009346195 -0.052600823 -0.045695692 0.021007322
0.027566925 -0.014401533 0.0028639361 0.0099586025 0.048523813 -0.047257073 0.04998759 -0.037217878
-0.038153216 -0.04722148 -0.033559285 0.043004982 0.023611069 0.010834634 0.021699138 -0.004916467
-0.05119253 -0.03460241 -0.054150335 -0.05422754 -0.05666334 0.05249229 0.027737036 -0.0022007003
0.004625924 -0.054206945 0.010100417 0.001047492 -0.044852994 -0.05865381 -0.032342084 -0.038865276
0.027812272 -0.009442173 -0.06237281 -0.0013203472 -0.006924562 -0.027297087 0.00923039 0.015496977
-0.0077311173 -0.036013007 0.015547417 0.034166493 -0.038047582 0.037690803 -0.014876813 -0.0031405985
0.027400851 -0.013089761 0.01881326 -0.03801401 -0.047275186 -0.02265694 0.01435224 0.019750193
-0.02385328 -0.0062747225 -0.003023982 -0.003058821 0.036918588 -0.008975759 -0.052434534 -0.057699986
0.04270842 0.028658189 0.012945451 0.039756164 0.061020724 0.019667618 -0.058477983 0.042852446
0.05180437 -0.046334602 -0.06116084 -0.060863435 -0.06045255 -0.05011739 -0.0114896 0.0052623153
00000000: 1cad b53c 56ec 753d 34cc 173d 80fe 163a
00000010: 64b8 d2bc c653 28bd bcf2 bb3c 94b7 1fbd
00000020: b03c a73c f0a8 e3bb 089f a2bc 7086 423d
00000030: e866 633d f0c1 a4bb 9880 9dbc ec17 babc
00000040: f019 debb 00d4 9839 787e 3ebd 04d7 e9bc
00000050: 9861 293d 3cc1 853c 8c04 563d 704a c5bb
00000060: 9092 71bc c4b9 f7bc dafd 423d f0bf 033d
00000070: 0aad 35bd e447 edbc 60f4 c9bc 0035 c9bb
00000080: 746f 8cbc 5039 9f3b 08d5 fc3c 6665 273d
00000090: c8e3 3fbd a88e fe3c 9cee 1b3d b0b8 2c3c
000000a0: 5091 95bb f44b 9dbc f02e 07bd 1010 e33c
000000b0: 5838 5abc b08e b93c 2289 003d a086 29bd
000000c0: daf6 4f3d ae6b 14bd 2608 113d ac82 bd3c
000000d0: 7a54 06bd 185a a2bc a016 cbbc 7c79 f33c
000000e0: 80b5 1cbc 00f8 ebb8 8032 b03c f005 533d
000000f0: 10b2 953b e0e6 bd3b c8df ffbc 30bd b33b
00000100: ca0a 72bd a4fc 09bd b206 7fbd 040a ef3c
00000110: d829 963c 744a 48bd 0cb4 063d 027b 56bd
00000120: 5085 5abc 2a7d 5fbd 009d 74bd d020 593d
00000130: 504f 453c 2a57 2dbd a279 5cbd cad3 543d
00000140: b881 54bd d62d 55bd b8ce ce3c e087 26bc
00000150: eec1 30bd 9af9 7fbd 56fa 25bd 0066 c5b9
00000160: 0082 a03a b8b4 8b3c 5227 7c3d f8e3 573c
00000170: 04f3 603d 2896 993c e0e3 0f3d 6444 cdbc
00000180: e07c a9bb c040 d6ba 561e 1dbd 6a00 31bd
00000190: 0879 63bc 78e3 e93c 4424 f13c 004e b33b
000001a0: d44a 45bd 346b 493d 98a6 5e3d f8db 3b3c
000001b0: f82e ed3c 865b 26bd b08a f93b d04e b9bb
000001c0: c05f e9bc 2ecd 783d 4c29 30bd 00eb 45ba
000001d0: c4b0 ad3c 40ea fcbc 26c9 2b3d 3c01 db3c
000001e0: 08c2 3a3c 6418 d23c e4b1 81bc a465 9dbc
000001f0: faea 4fbd 6c52 473d 8065 3fbd 022c 41bd
00000200: 2cd4 843c f88d c03c a8bd b03c ecd1 cb3c
00000210: f015 60bc de09 3ebd 80bb 0d3d 2cbf b83c
00000220: c002 32bb e071 3dbc 0420 413d d08f b0bb
00000230: 581b 453d 3cfe ec3c c45d 76bd f6c3 2e3d
00000240: 02d8 5d3d 6032 ba3c 269a 073d 6263 793d
00000250: 825d 563d c04b 6cbb c03d fcbc 4880 223c
00000260: f09d f1bc 207d b33b 4a59 623d d6b1 123d
00000270: 90cf d5bc 74cc a33c 5c81 bf3c 120c 54bd
00000280: b0a2 0c3d a02e c73c de85 343d 320e 423d
00000290: 982f f63c 38b1 753c 309e 2abc 30b3 08bc
000002a0: c071 2ebd 4ce4 cbbc ec82 81bc ae73 463d
000002b0: c820 19bc f673 57bd 682b 3bbd 8c17 ac3c
000002c0: 08d4 e13c 68f4 6bbc e0b0 3b3b 6829 233c
000002d0: e8c0 463d a290 41bd cabf 4c3d c671 18bd
000002e0: 8c46 1cbd 506b 41bd 7675 09bd fe25 303d
000002f0: 006c c13c c083 313c 64c2 b13c 501a a1bb
00000300: 42af 51bd 42bb 0dbd becc 5dbd b21d 5ebd
00000310: d217 68bd 2802 573d c838 e33c a039 10bb
00000320: 1095 973b 1a08 5ebd 387c 253c 004c 893a
00000330: c6b7 37bd fa3e 70bd 2279 04bd 3231 1fbd
00000340: 90d6 e33c 58b3 1abc a27a 7fbd 800f adba
00000350: 70e7 e2bb 249e dfbc 103b 173c 08e7 7d3c
00000360: 5055 fdbb 6082 13bd 98ba 7e3c 2af2 0b3d
00000370: c8d7 1bbd ac61 1a3d e0bd 73bc 80d2 4dbb
00000380: c077 e03c 7076 56bc 441e 9a3c 94b4 1bbd
00000390: a0a3 41bd 0c9b b9bc a825 6b3c 28cb a13c
000003a0: f467 c3bc 309c cdbb 002e 46bb 8076 48bb
000003b0: f237 173d 100f 13bc 98c5 56bd d256 6cbd
000003c0: 06ef 2e3d 94c4 ea3c 2819 543c 5cd7 223d
000003d0: def0 793d fc1d a13c 9c86 6fbd 0c86 2f3d
000003e0: d230 543d 5ac9 3dbd ca83 7abd f04b 79bd
000003f0: 189d 77bd e447 4dbd e03e 3cbc 806f ac3b

value_head.in_linear.bias f4 [512]
-0.025851578 0.026200414 -0.030462071 0.004536301 -0.015053712 -0.0602493 0.059574828 -0.049998812
-0.03406196 -0.02706822 0.014095999 0.019148007 0.014830954 -0.04038021 -0.04147522 -0.020921431
0.059203424 -0.0023935586 -0.0146640465 -0.024017356 -0.03366702 0.01330591 -0.025067464 -0.046357445
-0.05777453 -0.026329808 -0.056381054 0.011112139 0.030361712 -0.050821 -0.00045457482 0.011549905
0.06014543 -0.015413389 0.060595103 0.015553676 -0.017732196 -0.030868255 -0.019385211 0.060684055
0.051575847 -0.016882494 -0.036357187 -0.039261736 -0.030839846 -0.02845376 0.05755675 -0.032468595
-0.007181816 -0.058737956 -0.050148852 -0.0038720593 0.05691818 0.016457655 0.004738055 -0.012441754
0.011965312 0.018804505 -0.0206329 0.035545513 -0.033766806 0.05655723 0.046438895 0.04834251
0.038692847 -0.034272872 -0.0029697716 0.010784157 0.0485157 -0.003757745 -0.05988563 -0.03427493
-0.019892544 -0.0079545155 -0.032669477 -0.0041377917 0.01801002 0.047565125 -0.017963298 0.043569736
-0.03988547 -0.012861244 -0.062366143 0.04058571 0.054631643 -0.033743374 -0.023788027 -0.0069973096
0.024690837 -0.033720747 -0.030480735 0.010506786 -0.021242954 0.0303934 -0.054296188 0.04858406
-0.023553677 0.04947176 -0.03314919 -0.01806058 -0.013495877 -0.05549503 0.04107017 0.027037837
0.0006919801 0.013311751 -0.04104481 -0.04159075 0.0580488 -0.023365758 0.028544627 -0.0469229
0.021054953 0.04326006 0.03884141 -0.0072563663 -0.04882767 0.036329903 -0.036305577 0.025265284
-0.038815126 0.018617094 -0.060804375 0.04225666 -0.025322966 -0.032314397 -0.041498587 -0.023465782
0.032694995 -0.025244594 0.034687445 0.019483022 -0.03611037 0.020373523 0.029959 0.011907384
-0.04718273 -0.0346146 -0.0035627037 0.028673597 -0.0035184845 -0.0039245114 -0.012640208 0.009735592
-0.022896066 0.060842693 -0.012051448 0.0066179708 0.057820633 -0.049710102 -0.038312733 0.020647533
-0.041820154 -0.0054233 -0.061348908 0.04453773 0.037116073 0.018636063 0.02932264 -0.018618397
-0.024759851 -0.046873547 -0.03373307 -0.058299802 -0.014308132 0.048240073 -0.037319995 0.059836626
-0.04324317 0.008562088 0.04253035 -0.016510516 -0.045629017 -0.04757692 0.014483854 -0.053615116
-0.058081113 -0.050580196 -0.057479173 -0.0068652853 -0.034423538 0.0540696 0.034059986 0.0068934187
0.0550649 0.015406854 0.038661197 0.053691864 0.03603281 0.023648567 -0.055373184 -0.036094412
-0.044835202 -0.044003896 0.006621003 0.046641856 0.022740893 -0.031530418 -0.059117064 0.026000358
0.023173764 0.05924558 0.0058014914 -0.00059694797 -0.027282342 0.016499951 -0.008554496 0.041730963
-0.050562367 -0.047745913 -0.010768004 0.018412665 0.035950147 -0.046421833 -0.054556333 0.015603602
-0.026865996 0.010278828 -0.018791735 0.011905715 0.0009885356 -0.046979822 0.008186899 0.018040404
-0.03984885 -0.044720136 -0.0334163 -0.024431609 0.014370784 0.024936624 0.051650725 0.008346945
0.02021502 -0.048267186 -0.0016110763 -0.03381736 0.0047677085 -0.020769596 -0.018646903 -0.0016231984
-0.022419296 -0.04010907 -0.060740292 0.0019509122 0.047962368 -0.02761171 -0.027675115 0.03616845
0.057313256 -0.023798518 -0.05193989 -0.05758281 -0.012467749 0.031719714 -0.0010346919 0.051243074
00000000: b0c6 d3bc 40a2 d63c 988b f9bc 40a5 943b
00000010: d8a3 76bc f8c7 76bd bc04 743d 8ecb 4cbd
00000020: 8e84 0bbd 2cbe ddbc e8f2 663c 48dc 9c3c
00000030: 88fd 723c b865 25bd ece1 29bd 6c63 abbc
00000040: 4a7f 723d 40dd 1cbb 7841 70bc 0cc0 c4bc
00000050: 6ee6 09bd 0801 5a3c 485a cdbc 4ee1 3dbd
00000060: fca4 6cbd 9cb1 d7bc d2ef 66bd b00f 363c
00000070: 20b9 f83c ae29 50bd 0054 eeb9 d03b 3d3c
00000080: 0e5b 763d 7088 7cbc 9232 783d d8d4 7e3c
00000090: 1c43 91bc 6cdf fcbc bccd 9ebc d88f 783d
000000a0: 3241 533d 284d 8abc 46eb 14bd ead0 20bd
000000b0: d8a3 fcbc dc17 e9bc a0c0 6b3d cafd 04bd
000000c0: 7055 ebbb 3697 70bd e268 4dbd 60c2 7dbb
000000d0: 0a23 693d 34d2 863c b041 9b3b 80d8 4bbc
000000e0: 280a 443c e80b 9a3c 5406 a9bc 2c98 113d
000000f0: 104f 0abd 8ea8 673d b636 3e3d cc02 463d
00000100: 647c 1e3d b661 0cbd 80a0 42bb 08b0 303c
00000110: 66b8 463d 8044 76bb a24a 75bd de63 0cbd
00000120: b0f5 a2bc a853 02bc 6ed0 05bd 5096 87bb
00000130: c089 933c a6d3 423d c427 93bc 2e76 323d
00000140: f25e 23bd f8b7 52bc a473 7fbd 343d 263d
00000150: 6ec5 5f3d 7e36 0abd 1cdf c2bc b049 e5bb
00000160: 7044 ca3c c41e 0abd bcb2 f9bc a824 2c3c
00000170: b405 aebc 94fb f83c ae65 5ebd 1400 473d
00000180: a4f3 c0bc e6a2 4a3d 72c7 07bd c8f3 93bc
00000190: d01d 5dbc c24e 63bd 3239 283d 747e dd3c
000001a0: 0066 353a 8819 5a3c 9a1e 28bd 105b 2abd
000001b0: 94c4 6d3d 8c69 bfbc 6cd6 e93c 3a32 40bd
000001c0: 707b ac3c 7631 313d 2c18 1f3d d0c6 edbb
000001d0: 86ff 47bd aace 143d 28b5 14bd 24f9 ce3c
000001e0: 9cfc 1ebd e082 983c 020e 79bd 5215 2d3d
000001f0: 1c72 cfbc 1a5c 04bd 6cfa 29bd 503b c0bc
00000200: 30eb 053d c0cd cebc 6c14 0e3d dc9a 9f3c
00000210: 78e8 13bd 60e6 a63c 946c f53c 3017 433c
00000220: ae42 41bd 0ac8 0dbd 407c 69bb e4e4 ea3c
00000230: 6096 66bb 3099 80bb e018 4fbc 0882 1f3c
00000240: 8890 bbbc 3036 793d 7073 45bc 90db d83b
00000250: 54d5 6c3d d29c 4bbd d0ed 1cbd 0425 a93c
00000260: 9c4b 2bbd f0b5 b1bb fe48 7bbd 326d 363d
00000270: 0607 183d a8aa 983c 0836 f03c 9c85 98bc
00000280: 2cd5 cabc 7afe 3fbd b02b 0abd c6cb 6ebd
00000290: a86c 6abc 6297 453d dadc 18bd 4017 753d
000002a0: c01f 31bd 0048 0c3c 4e34 2e3d 1041 87bc
000002b0: 7ee5 3abd 04e0 42bd b04d 6d3c 869b 5bbd
000002c0: 76e6 6dbd 2e2d 4fbd 486f 6bbd 30f6 e0bb
000002d0: b2ff 0cbd 1678 5d3d 7c82 0b3d 30e2 e13b
000002e0: bc8b 613d 086d 7c3c 345b 1e3d 00ec 5b3d
000002f0: 2497 133d a4ba c13c fece 62bd bcd7 13bd
00000300: 1ea5 37bd 6e3d 34bd 00f5 d83b 880b 3f3d
00000310: 1c4b ba3c 0a26 01bd bc24 72bd b4fe d43c
00000320: e8d6 bd3c 7eab 723d 701a be3b 807c 1cba
00000330: 387f dfbc e82a 873c 2828 0cbc 16ee 2a3d
00000340: 7c1a 4fbd 3891 43bd 486c 30bc 28d6 963c
00000350: 7640 133d d224 3ebd 7676 5fbd 40a6 7f3c
00000360: 1416 dcbc 8868 283c 20f1 99bc 3010 433c
00000370: c091 813a ea6d 40bd 5822 063c 78c9 933c
00000380: 8c38 23bd 762c 37bd 88df 08bd cc24 c8bc
00000390: 7073 6b3c e447 cc3c b68f 533d a0c1 083c
000003a0: f899 a53c d0b3 45bd c02a d3ba 1284 0abd
000003b0: 703a 9c3b 0025 aabc 64c1 98bc 80c1 d4ba
000003c0: aca8 b7bc 6849 24bd d0ca 78bd c0b5 ff3a
000003d0: 3074 443d f431 e2bc ecb6 e2bc 5e25 143d
000003e0: 4ec1 6a3d 1cf5 c2bc ecbe 54bd f4db 6bbd
000003f0: 8845 4cbc 88ec 013d 809e 87ba 42e4 513d
